models/HisarCNN2019_100_last_augmented.pt (torch, 651994 bytes, 20 tensors)

weight f4 [64, 2, 3]
0	0x3eb9d40c	0.3629459
1	0xbe9782c8	-0.29591966
2	0xbe15dc90	-0.14634919
3	0x3e9040b5	0.28174368
4	0x3ea7520f	0.32679793
5	0xbe818a54	-0.25300848
6	0xbe9df27d	-0.30849066
7	0x3ec50da5	0.38486972
8	0x3e0acde3	0.13555102
9	0xbeb4180a	-0.3517459
10	0xbf2a80c1	-0.6660271
11	0xbe5b2f4c	-0.21404761
12	0xbec57085	-0.38562408
13	0x3dd96e88	0.10616785
14	0xbeb8ffe3	-0.36132726
15	0xbdc81d2c	-0.09771189
16	0xbca39765	-0.019969651
17	0x3e25aef2	0.16180018
18	0xbe163aba	-0.1467084
19	0xbe2a6581	-0.16640283
20	0xbe7b173f	-0.24520586
21	0x3d41263e	0.04715561
22	0xbd805308	-0.06265837
23	0x3d6483f6	0.05578991
24	0x3f2b8698	0.6700225
25	0xbe459a5d	-0.19297166
26	0xbc92df89	-0.017928855
27	0xbf07e11c	-0.53077865
28	0x3eee7569	0.46573952
29	0x3cf26c27	0.029592587
30	0xbda034b1	-0.0782255
31	0xbee26a25	-0.44221607
32	0x3ee5aade	0.44856924
33	0xbd17ec00	-0.0370903
34	0xbe6d3985	-0.23166473
35	0x3e6ba50b	0.23012178
36	0xbea6ed51	-0.32602933
37	0xbd792610	-0.060827315
38	0xbeb7eb58	-0.3592174
39	0xbeb513a1	-0.35366538
40	0xbce65b3d	-0.028119678
41	0xbeae97b3	-0.34100112
42	0x3ea6259e	0.32450575
43	0x3d721a82	0.05910731
44	0x3ee187fc	0.4404906
45	0xbbc3b12c	-0.0059720483
46	0xbc354444	-0.011063639
47	0xbcaaa7c8	-0.020831957
48	0x3e6af6ef	0.2294576
49	0xbdb92e2c	-0.0904201
50	0xbdcc2283	-0.0996752
51	0x3e6d727c	0.23188204
52	0xbe287721	-0.16451694
53	0xbec3a1f9	-0.38209513
54	0xbdf4c874	-0.11952296
55	0xbea22e65	-0.3167602
56	0xbe8ba252	-0.27272278
57	0xbe0254fa	-0.12727728
58	0x3ea5176c	0.32244432
59	0xbebc9b47	-0.36837217
60	0xbdf6d90b	-0.120531164
61	0x3ecd8956	0.40143842
62	0xba78fb29	-0.0009497875
63	0x3e2651aa	0.1624209
64	0x3e4d702d	0.20062323
65	0xbe2a9514	-0.16658431
66	0xbe17ea6a	-0.14835516
67	0x3e05199a	0.12998047
68	0x3ee3e935	0.4451386
69	0x3c9cf7dd	0.01916116
70	0xbeb213c6	-0.3478071
71	0xbcb90628	-0.022585943
72	0xbe322f1b	-0.17400782
73	0xbeab5b4d	-0.33468094
74	0xbed98052	-0.42480713
75	0xbeec425d	-0.4614438
76	0xbf156917	-0.5836348
77	0xbe834c68	-0.2564423
78	0xbd6d1d15	-0.057889063
79	0xbe14bc2d	-0.14524908
80	0x3e73726a	0.23774114
81	0x3da2f178	0.07956213
82	0x3e6742d9	0.22584094
83	0xbeb24a41	-0.34822276
84	0x3e22648a	0.15858665
85	0x3f02a366	0.51030576
86	0x3e8a7d60	0.2704878
87	0xbe89df32	-0.26928097
88	0x3cb37f1c	0.021911196
89	0xbe43aab2	-0.19108084
90	0x3d22aa5c	0.03971325
91	0xbe1cd4fd	-0.15315624
92	0xbe1adbbd	-0.15122886
93	0x3eb4f4b5	0.35342947
94	0xbe667d34	-0.22508699
95	0x3dfcbec7	0.123410754
96	0x3dfb4abd	0.122701146
97	0x3ede93f3	0.4347225
98	0xbee4ccc3	-0.4468747
99	0x3c3a2f1e	0.011363773
100	0x3d922b61	0.0713718
101	0xbece7dfc	-0.40330493
102	0xbe7d6535	-0.24745639
103	0xbd75bc41	-0.059993986
104	0xbe0f672a	-0.14004198
105	0x3ecd271b	0.40068898
106	0x3d9bbbdb	0.0760419
107	0x3edd1611	0.43180898
108	0xbe26df81	-0.16296197
109	0xbf08ff36	-0.5351442
110	0x3ec16d90	0.37778902
111	0xbd3c4cd2	-0.0459717
112	0x3f0eba58	0.5575309
113	0xbea26d7e	-0.3172416
114	0x3c21da92	0.009878771
115	0x3efadd86	0.48997134
116	0x3ee29db2	0.44260937
117	0xbce31207	-0.027718557
118	0xbeaad4ae	-0.33365387
119	0xbeab1015	-0.33410707
120	0xbdefb0bc	-0.11703631
121	0x3e841358	0.25796008
122	0x3e9504fd	0.29105368
123	0xbf243077	-0.6413645
124	0xbed396a8	-0.4132588
125	0xb8c344b0	-9.3111186e-05
126	0xbedca8f6	-0.43097657
127	0xbd69212f	-0.056916412
128	0xbdae29f4	-0.08504096
129	0x3ebe7970	0.37202024
130	0xbed2596f	-0.41083857
131	0xbdc7e3c3	-0.09760239
132	0x3e91ad77	0.28452656
133	0x3ef80a89	0.48445538
134	0x3e58dc7b	0.21177857
135	0x3d99e798	0.07514876
136	0xbf19136a	-0.5979525
137	0x3e7a91db	0.24469702
138	0x3df9ab48	0.121908724
139	0xbd24d430	-0.04024142
140	0xbee46159	-0.4460552
141	0xbce3beef	-0.027801005
142	0x3ead330f	0.33828017
143	0x3e19514b	0.14972417
144	0xbdcef215	-0.10104767
145	0x3d8d66cf	0.06904375
146	0xbdad4ee8	-0.08462316
147	0x3db2f6b5	0.08738462
148	0xbd0228dc	-0.031777248
149	0xbe8686c0	-0.2627468
150	0x3d169c9a	0.03677044
151	0x3c5a086a	0.01330767
152	0xbe91c76c	-0.2847246
153	0x3eff15c4	0.49821293
154	0x3f19bab5	0.6005052
155	0x3e1d090a	0.1533548
156	0xbf08cb7f	-0.5343551
157	0x3c7f0859	0.015565955
158	0x3e7bb713	0.24581556
159	0x3e908835	0.28228918
160	0x3e899e18	0.26878428
161	0x3dd4b17e	0.103854164
162	0xbed78df5	-0.42100492
163	0x3efd03a5	0.49416843
164	0xbd28579e	-0.041099183
165	0x3eaa9969	0.33320168
166	0x3ded081e	0.11573814
167	0x3bfbd74e	0.0076855784
168	0xbea04ac4	-0.31307042
169	0xbf286ee2	-0.65794194
170	0xbe0c64b0	-0.13710284
171	0xbe427b8c	-0.18992442
172	0x3eeebc40	0.46627998
173	0x3d6324bb	0.05545495
174	0xbd73ee0b	-0.059553187
175	0xbeaf8c4b	-0.34286723
176	0x3e423b32	0.18967894
177	0x3e0dfd57	0.13866173
178	0xbe9425bd	-0.28935042
179	0xbe1f5ad4	-0.15561992
180	0x3e775613	0.24153928
181	0x3eaea606	0.3411104
182	0x3e33b873	0.1755083
183	0x3c00b9ba	0.007856781
184	0xbe8ae475	-0.27127424
185	0xbdcdef2d	-0.10055385
186	0x3e268b03	0.16263966
187	0x3ed135d7	0.4086139
188	0x3e4a1b3b	0.1973695
189	0xbe1fbefe	-0.15600201
190	0xbba66966	-0.0050784824
191	0x3eb6798f	0.35639617
192	0xbd97015e	-0.07373308
193	0xbe587ee4	-0.21142155
194	0xbf162535	-0.58650523
195	0xbd9ed207	-0.07754903
196	0xbe538215	-0.20655091
197	0xbf0573df	-0.5212993
198	0xbe7344ab	-0.23756664
199	0x3e4d297d	0.20035358
200	0xbe1fb74c	-0.15597266
201	0x3e6feb97	0.23429714
202	0xbe9315d4	-0.2872759
203	0x3ee0604a	0.43823463
204	0xbeb18ba5	-0.34676853
205	0xbe93fe70	-0.28905058
206	0xbdec8cf3	-0.115503214
207	0xbe043694	-0.12911445
208	0xbe4a3d48	-0.1974994
209	0x3d76ebca	0.06028346
210	0x3ec7ddfd	0.3903655
211	0xbdec69e4	-0.115436345
212	0xbea2706d	-0.317264
213	0x3daabf63	0.08337285
214	0xbed2eec6	-0.41197795
215	0x3e443795	0.19161828
216	0x3e9a02c3	0.30080232
217	0x3e26fca3	0.16307311
218	0xbed4d9d0	-0.41572428
219	0x3e92ea5e	0.28694433
220	0xbe99d8a8	-0.30048108
221	0x3c91f124	0.01781518
222	0xbcb63fbc	-0.022247188
223	0x3f028ca7	0.5099587
224	0x3eeb2f15	0.45934358
225	0xbd223cdf	-0.039608832
226	0x3e8e58a0	0.2780199
227	0x3e6d8a34	0.23197252
228	0xbecc993e	-0.39960665
229	0x3ec97ed1	0.39354566
230	0xbe850701	-0.25981906
231	0x3df548e4	0.119767934
232	0xbda91b30	-0.08257139
233	0xbe668beb	-0.22514312
234	0xbe33587d	-0.17514224
235	0x3e81b39a	0.25332338
236	0x3d77e127	0.060517456
237	0xbea7da3c	-0.32783687
238	0xbe89fc10	-0.2695012
239	0x3e7f931e	0.24958465
240	0xbd6cebf8	-0.057842225
241	0xbd70db16	-0.058802687
242	0x3da9318f	0.08261406
243	0xbe9b25ae	-0.30302185
244	0x3e275b0b	0.16343324
245	0xbe6e3a2f	-0.23264383
246	0x3ef8e0d4	0.4860903
247	0xbec8dcca	-0.3923095
248	0xbd0f0345	-0.034915227
249	0x3ec7291f	0.3889856
250	0xbe96b90c	-0.29438055
251	0xbdf666d7	-0.12031334
252	0x3d1a3acf	0.03765374
253	0xbe4d1370	-0.20026946
254	0x3e18fdc6	0.14940557
255	0xbd116edc	-0.035506114

bias f4 [64]
0	0x3d60ad7c	0.054852948
1	0xbeab35a2	-0.33439356
2	0xbc843669	-0.016139226
3	0xbe3fde97	-0.18737255
4	0xbe9ab936	-0.3021943
5	0x3e42e072	0.19030932
6	0xbe3d24f9	-0.18471135
7	0xbe801926	-0.25019187
8	0xbe9041b5	-0.2817513
9	0x3d97691a	0.073930934
10	0xbdc4df3d	-0.09612892
11	0xbe5a42e0	-0.21314573
12	0x3d0205f0	0.031743944
13	0x3e297ed4	0.16552287
14	0xbdd2b1c6	-0.10287814
15	0xbce1b7d6	-0.02755348
16	0xbe1ce1cd	-0.15320511
17	0xbeb1ca23	-0.3472453
18	0xbe5a0ac4	-0.2129317
19	0xbebe5323	-0.37172803
20	0xbd105a02	-0.03524209
21	0xbd0a6b30	-0.03379363
22	0xbebe4e64	-0.37169182
23	0xbe6cf1be	-0.23139092
24	0x3da73f5e	0.08166383
25	0xbe87f217	-0.26551887
26	0xbeb6197f	-0.35566327
27	0x3d8d8019	0.06909198
28	0xbe675053	-0.22589235
29	0x3e5b540c	0.2141878
30	0x3e3a2463	0.18177943
31	0x3864c2a5	5.4540713e-05
32	0xbe807301	-0.2508774
33	0xbd99f770	-0.07517898
34	0x3e4e5969	0.20151295
35	0xbd66f462	-0.056385405
36	0xbe21fb09	-0.15818419
37	0xbea903b8	-0.3301065
38	0x3dab3b3b	0.08360907
39	0xbe01fa23	-0.12693076
40	0xbda9e0a8	-0.08294803
41	0x3e393783	0.18087582
42	0xbeae97d0	-0.341002
43	0xbe01d5e9	-0.12679256
44	0x3e46eecc	0.19427031
45	0x3cc7021f	0.024293004
46	0xbc284392	-0.010270016
47	0xbaaf9067	-0.0013394476
48	0xbb7836d2	-0.0037874472
49	0x3e098957	0.13431297
50	0xbcf2c785	-0.029636154
51	0xbddcf073	-0.107880495
52	0x3d807221	0.06271768
53	0x3e388b3c	0.18021864
54	0x3d9fdd9a	0.07805939
55	0xbeaeef43	-0.34166917
56	0xbe964593	-0.29349956
57	0xbd5e3ac1	-0.05425525
58	0x3e36d79b	0.17855684
59	0x3dd8b7b8	0.105819166
60	0xbe4dec80	-0.20109749
61	0xbea9161d	-0.33024684
62	0x3e933d2f	0.28757617
63	0xbe95d6f5	-0.29265562

weight f4 [64, 64, 3]
0	0xbd0f4b40	-0.034983873
1	0xbd83bbbc	-0.06432292
2	0xbcc10a8e	-0.023564603
3	0x3d9ee9d3	0.07759442
4	0xbc9664d6	-0.01835863
5	0x3cdfd433	0.027322864
6	0xbe154258	-0.1457609
7	0xbb87fc3d	-0.004149942
8	0xbd4490ba	-0.047989585
9	0xbdf44f37	-0.119291715
10	0x3d189a4e	0.03725653
11	0x3c3b6606	0.0114378985
12	0xbc9f24fb	-0.019426813
13	0xbdf583c6	-0.119880244
14	0x3cb442e2	0.022004548
15	0xbcecd4d3	-0.028910076
16	0x3c7749e3	0.0150933
17	0xbd754a4c	-0.05988531
18	0x3c731f41	0.0148389945
19	0x3cec4633	0.028842067
20	0x3d946156	0.07245128
21	0x3bc76384	0.0060848612
22	0x3c5c026b	0.013428311
23	0xbcf75a15	-0.030194322
24	0x3d0876fd	0.0333166
25	0x3ca88045	0.020568976
26	0x3d06c2a3	0.032900464
27	0xbcee5c50	-0.029096752
28	0xbd2f5460	-0.042805076
29	0x3c82cbe8	0.01596637
30	0x3d962c9e	0.07332729
31	0xbc12ddee	-0.008964045
32	0x3d7f07ee	0.06226342
33	0x3dd246d8	0.102674186
34	0xbde8cdee	-0.11367403
35	0x3d09abec	0.033611223
36	0xbd85def6	-0.06536667
37	0x3d5c91f2	0.05385012
38	0xbcc85b2e	-0.02445754
39	0xbd662197	-0.056184378
40	0x3c9c5631	0.019084068
41	0xbcc916d8	-0.024547026
42	0x3b076032	0.0020656702
43	0x3d1354f1	0.03596968
44	0xbdb3731d	-0.087621905
45	0xbcfc65aa	-0.030810196
46	0xbd85b6f7	-0.065290384
47	0xbd3b452a	-0.045720257
48	0x3b8f4d0a	0.0043731974
49	0x3d6d1381	0.05787993
50	0xbc9f231d	-0.019425923
51	0x3c0563fc	0.008141514
52	0xbdd98d00	-0.10622597
53	0x3d10bdc9	0.035337243
54	0xbd0dd70e	-0.03462892
55	0xbd1f95b1	-0.038961116
56	0xbd300d3b	-0.042981368
57	0x3d85f53b	0.065409146
58	0xbcee6640	-0.029101491
59	0xbcbb8653	-0.0228912
60	0x3cd88e35	0.026434997
61	0x3cf646c4	0.03006304
62	0xbd80d39f	-0.062903635
63	0x3d10c811	0.03534705
64	0xbebbfbb7	-0.3671548
65	0xbb93335c	-0.0044922065
66	0x3cc00e0a	0.023444194
67	0x3d0c20c9	0.034210954
68	0x3ab05b63	0.001345497
69	0xbdada0db	-0.08477946
70	0x3cccadeb	0.024985274
71	0xbd78228f	-0.060579833
72	0x3d37f848	0.044914514
73	0xbd84b28b	-0.06479367
74	0xbd8365fd	-0.06415937
75	0xbd969b5f	-0.073538534
76	0xbd211d3b	-0.039334517
77	0x3cae0b30	0.021245569
78	0x3db44136	0.088015005
79	0xbdcdd145	-0.100496806
80	0x3cd6e56e	0.026232447
81	0x3cc316b0	0.02381453
82	0xbe7d5a29	-0.24741425
83	0xbce197ef	-0.027538268
84	0xbce3e226	-0.027817797
85	0xbdb683ee	-0.08911882
86	0x3d1f12a9	0.038836155
87	0x3c267080	0.010158658
88	0xbd432bb0	-0.047649086
89	0xbcd3433e	-0.0257889
90	0xbd19a897	-0.037514295
91	0xbcb54fcc	-0.022132777
92	0xbd32af04	-0.04362394
93	0xbd77386a	-0.060356535
94	0x3cd159a5	0.025555441
95	0xbd88a7c3	-0.06672623
96	0x3d3acdc1	0.04560638
97	0x38882206	6.491323e-05
98	0xbcd89370	-0.026437491
99	0xbe76071b	-0.24026148
100	0xbda2cbb0	-0.079490066
101	0xbc052367	-0.008126116
102	0xbd54e1c7	-0.05197313
103	0xbd873350	-0.06601584
104	0xbd1325ea	-0.03592483
105	0xbe495807	-0.19662486
106	0x3d0fc55d	0.03510033
107	0xbd9620bb	-0.073304616
108	0xbe0fbba9	-0.1403643
109	0x3daea5a3	0.085276864
110	0xbd1c61cc	-0.038179204
111	0x3c967b52	0.01836935
112	0x3d871f70	0.06597793
113	0xbc413de5	-0.011794542
114	0x3d719b95	0.058986265
115	0xbd61c532	-0.0551197
116	0xbba02d78	-0.004888233
117	0x3ce265f9	0.027636515
118	0x3ccfa792	0.025348458
119	0x3d157e2c	0.03649728
120	0x3c98a581	0.018633606
121	0xbd5067dd	-0.0508803
122	0x3d04c935	0.03241845
123	0xbcbcf173	-0.02306435
124	0xbcdc2cad	-0.026876772
125	0x3cd2f572	0.025751803
126	0xbdde7439	-0.108620115
127	0x3e1e4faa	0.15460077
128	0x3ca89129	0.02057703
129	0xbd29f4da	-0.041493274
130	0xbb30ff3c	-0.00270076
131	0x3d4117ec	0.047141954
132	0xbd8f4cf2	-0.06997098
133	0xbe0037e9	-0.12521328
134	0xbcc3d130	-0.02390346
135	0xbd089d65	-0.033353228
136	0x3b06ad22	0.0020549973
137	0x3d134974	0.035958722
138	0xbe16c894	-0.14724952
139	0xbd91775e	-0.071028456
140	0x3d549551	0.05190021
141	0xbdc5b24d	-0.09653149
142	0x3d35965d	0.04433285
143	0xbc301013	-0.01074602
144	0xbd9b78d2	-0.07591404
145	0xbe01d6a2	-0.12679532
146	0x3ce8bbc7	0.028409852
147	0x3ce1a503	0.027544504
148	0xbca98ad5	-0.020696083
149	0x3c20cdfc	0.0098147355
150	0x3d81b56d	0.06333432
151	0x3a55d407	0.00081569
152	0xbc5dfd5f	-0.013549178
153	0xbbef0eaf	-0.0072954516
154	0xbdcb1c09	-0.09917457
155	0xbc7e9dda	-0.015540564
156	0xbd850375	-0.064948
157	0x3d9d71df	0.07687735
158	0x3ac918e3	0.00153425
159	0x3d2b2619	0.04178438
160	0xbda62ae9	-0.08113653
161	0xbc8aed1f	-0.016958771
162	0x3d86f48a	0.06589611
163	0xbea57481	-0.32315448
164	0x3cdd4bba	0.027013648
165	0x3de030ac	0.109467834
166	0x3d1e12d8	0.03859219
167	0x3d9e17b1	0.077193625
168	0xbcfb503d	-0.030677909
169	0xbda82d91	-0.08211816
170	0xbcef6b5e	-0.029226001
171	0xbdc7d5e4	-0.09757593
172	0xbdeb4921	-0.114885576
173	0xba753c02	-0.000935495
174	0xbd2644ca	-0.040592946
175	0xbe15be08	-0.14623272
176	0xbd907759	-0.07054014
177	0xbdf03591	-0.11728967
178	0xbd980b5c	-0.07424042
179	0xbc952def	-0.01821038
180	0x3e2cc2de	0.16871211
181	0xbe35f6fd	-0.1777
182	0x3d3bec84	0.045879856
183	0x3d742f0e	0.059615187
184	0x3db3aab9	0.08772797
185	0xbc1ed933	-0.009695339
186	0xbc8dfea4	-0.017333336
187	0x3c877c38	0.016538724
188	0xb97bc812	-0.00024011757
189	0x3e1a5825	0.15072687
190	0xbe814469	-0.25247505
191	0x3de2ba0a	0.110706404
192	0xbd398753	-0.04529507
193	0x3d5c494b	0.053780835
194	0xbdf57390	-0.119849324
195	0xbc866e3c	-0.016409986
196	0x3d628928	0.055306584
197	0x3ba1c213	0.0049364655
198	0x3d1a09bb	0.037606936
199	0x3d4a2aea	0.049357332
200	0xbd85c519	-0.06531734
201	0x3dff4b37	0.12465518
202	0x3d6090ff	0.05482578
203	0x3d979476	0.074013636
204	0x3c549afb	0.012976403
205	0x3dbf57bc	0.09342906
206	0xbd827c7a	-0.06371398
207	0xbdf10c1c	-0.11769888
208	0x3d44fb0d	0.048090983
209	0x3ae6a059	0.0017595395
210	0x3d4009e3	0.04688443
211	0x3cf4e345	0.029893527
212	0x3c9a3ea7	0.018828703
213	0x3d3e7d22	0.046506055
214	0x3ce20435	0.027589897
215	0x3e4a35e9	0.19747128
216	0x3ca5fe9d	0.02026301
217	0xbc26324c	-0.010143828
218	0xbc9ead79	-0.019369828
219	0xbb7b4513	-0.0038340732
220	0xbd6034dd	-0.054737914
221	0xbcc818b9	-0.024425851
222	0xbcb126ad	-0.021624887
223	0x3d67194c	0.05642061
224	0x3ce20ec3	0.02759493
225	0xbde944f7	-0.11390107
226	0x3d41f8fa	0.047356583
227	0x3d8f28e3	0.069902204
228	0x3d7b6cb8	0.06138298
229	0xbca5766f	-0.020198075
230	0x39c29942	0.0003711675
231	0xbde153f3	-0.1100234
232	0xbd1d7fa5	-0.03845181
233	0xbd09b5cf	-0.03362065
234	0xbd260587	-0.040532615
235	0xbdb2c698	-0.08729285
236	0x3c8c0943	0.01709426
237	0xbd9b7218	-0.07590121
238	0xbd0c2fb4	-0.03422518
239	0xbdea8d6a	-0.11452754
240	0x3d49f529	0.04930607
241	0xbe045c27	-0.12925778
242	0xbda4dfc6	-0.08050494
243	0x3d294db8	0.041333884
244	0x3bd1299c	0.006383134
245	0x3ddcad66	0.107752606
246	0xbdea90fc	-0.11453435
247	0x3d7579f9	0.059930775
248	0xbd8551b2	-0.06509723
249	0x3b880ca5	0.004151898
250	0xbcb96ab2	-0.022633884
251	0x3d3420d9	0.04397664
252	0xbbd39ec5	-0.006458136
253	0x3d320bd0	0.043468297
254	0xbd758f50	-0.059951127
255	0xbdcf4d73	-0.10122194

bias f4 [64]
0	0xbb02c72e	-0.0019955146
1	0x3cb669d6	0.022267263
2	0xbd38f9c1	-0.04516006
3	0x3cbf5f80	0.023360968
4	0x3bfed820	0.007777229
5	0x3afc4998	0.0019248007
6	0xbc9f7aaa	-0.01946767
7	0xbd8ff4f3	-0.07029142
8	0x3c48749c	0.012234833
9	0xbc625cd6	-0.013816079
10	0xbd806ac0	-0.06270361
11	0xbd1f32b4	-0.038866714
12	0xbc3a0de2	-0.011355849
13	0x3ca4bc5d	0.02010935
14	0xbd3541f3	-0.044252347
15	0xbc81607b	-0.015793076
16	0xbcd687ea	-0.026187856
17	0x3d2a9521	0.041646127
18	0xbd7891b3	-0.060685825
19	0x3c729ac6	0.014807409
20	0x3c0cd991	0.008596794
21	0xbcb29cf6	-0.02180336
22	0x3ba94872	0.005166107
23	0x3d42e0f9	0.047577832
24	0x3c747185	0.014919643
25	0xbce923da	-0.028459478
26	0x3cce250e	0.025164153
27	0x3c977b39	0.018491374
28	0x3ccc6fd3	0.024955666
29	0xbd0f41d2	-0.03497488
30	0xbc8a5840	-0.016887784
31	0xbc7e936c	-0.015538078
32	0xbd504f3f	-0.050856825
33	0xbc25bcbe	-0.0101158
34	0x3bb1b2fe	0.005422949
35	0xbcb5d711	-0.022197278
36	0xbda20a71	-0.07912148
37	0x3d1fa740	0.03897786
38	0xbcfe0ac6	-0.031010997
39	0xbd1a1fd8	-0.037628025
40	0xbd3ac078	-0.04559371
41	0x3c93041e	0.0179463
42	0xbd6f9b93	-0.058497977
43	0xbd383881	-0.04497576
44	0x3cc21d80	0.023695707
45	0xba225bcc	-0.00061934884
46	0xbd1625a3	-0.036656987
47	0xbc915c1f	-0.017744122
48	0xbd892ad3	-0.06697621
49	0xbda371aa	-0.07980664
50	0xbd593ed6	-0.05303844
51	0xbcefb044	-0.029258855
52	0xbc3c6d73	-0.011500704
53	0x3bbc53b0	0.005747281
54	0xbd10eee7	-0.035384085
55	0x3c1be6b3	0.009515452
56	0xbcbf3329	-0.023339825
57	0xbd16d713	-0.036826205
58	0x3ad5b0d8	0.0016303314
59	0x3bf2c832	0.007409119
60	0x3d2e6b10	0.04258257
61	0x3c8d06ae	0.0172151
62	0x3d3945e6	0.045232676
63	0xbd975371	-0.07388962

weight f4 [64, 64, 3]
0	0xbd4213a8	-0.047382027
1	0x3d6dace9	0.058026228
2	0x3cd95ee6	0.026534509
3	0xbd2dd75a	-0.042441703
4	0x3ded359d	0.115824915
5	0xbd416097	-0.047211256
6	0x3e07d25a	0.13263837
7	0xbcd26d27	-0.025686814
8	0xbd7c005d	-0.061523784
9	0x3ccb9b97	0.024854464
10	0xbdaca578	-0.08429998
11	0x3dd63044	0.10458425
12	0xbdf7ba77	-0.12096112
13	0xbdae6b28	-0.08516532
14	0x3c77d4bf	0.015126406
15	0x3c8c5819	0.017131852
16	0xbd23c0c7	-0.03997877
17	0x3c9b4873	0.018955445
18	0xbe00796f	-0.12546323
19	0x3c975805	0.018474588
20	0xbc3d13bf	-0.011540352
21	0x3c2fc4ef	0.010728105
22	0x3df5c12d	0.11999736
23	0xbd5a590f	-0.05330759
24	0x3db4a6a7	0.08820849
25	0x3df3053f	0.11866235
26	0x3ca0ab0a	0.019612808
27	0x3d94459c	0.072398394
28	0x3d4c1c65	0.049831767
29	0xbbceb7ac	-0.0063085165
30	0xbd953474	-0.07285395
31	0x3cbe349c	0.023218445
32	0x3bf22e87	0.0073908004
33	0xbd21bd57	-0.03948721
34	0xbc201915	-0.009771605
35	0x3d8645df	0.065562956
36	0xbc8d720d	-0.017266298
37	0xbda7e1ba	-0.08197351
38	0x3d04df79	0.032439683
39	0x3d21254c	0.03934221
40	0x3ce41444	0.027841695
41	0xbc30d3ff	-0.010792731
42	0x3ce58bf5	0.028020838
43	0x3e0d9586	0.1382657
44	0xbd7c7da1	-0.061643247
45	0x3d5b37a4	0.05351986
46	0x3e1aeec7	0.15130149
47	0x3d61ebd8	0.05515656
48	0xbde60689	-0.11231715
49	0x3d17fdaf	0.037107166
50	0xbc9258f1	-0.017864676
51	0xbd78ad1c	-0.060711965
52	0x3d6fc99d	0.058541883
53	0xbb9d2f24	-0.0047968794
54	0xbd3b6439	-0.045749877
55	0x3d7c0354	0.06152661
56	0xbd9ada84	-0.0756121
57	0xbba4215c	-0.0050088596
58	0x3d3e0087	0.04638722
59	0x3d205065	0.03913917
60	0xbbeb4351	-0.0071796556
61	0x3cc53103	0.024071222
62	0x3d6f170a	0.05837158
63	0xbd1be376	-0.03805872
64	0xbd43c8f7	-0.047799077
65	0x3d72bb2a	0.059260525
66	0xbccb97f8	-0.024852738
67	0x3e09d642	0.13460639
68	0xba36ea41	-0.00069776556
69	0xbd05d17b	-0.03267048
70	0xbd2de6b3	-0.04245634
71	0xbd97e927	-0.07417517
72	0xbd05e14a	-0.032685556
73	0x3c2183b5	0.009858062
74	0x3dfe7cf9	0.124261804
75	0x3d98b9f6	0.07457344
76	0x3d1b0972	0.037850805
77	0x3d3d7024	0.046249524
78	0xbd849b7f	-0.06474971
79	0xbd0c1bb3	-0.034206104
80	0x3cbd8acc	0.023137473
81	0x3d95b8eb	0.07310661
82	0x3bde1c64	0.006778287
83	0x3cbfea82	0.023427252
84	0xbd16d688	-0.036825687
85	0xbe17dd92	-0.14830616
86	0xbd51ea18	-0.05124864
87	0xbd3b79e2	-0.045770533
88	0xbdcdd9d7	-0.10051315
89	0xbd5203bc	-0.051273093
90	0xbc8541f0	-0.016266793
91	0x3bff387e	0.007788717
92	0xbd76a333	-0.060214233
93	0x3d1dee65	0.03855743
94	0xbdf0c348	-0.11755997
95	0xbe386892	-0.1800864
96	0xbdc0cc5c	-0.094139785
97	0x3e1f6390	0.15565324
98	0x3c8a2101	0.01686144
99	0xbd7463eb	-0.0596656
100	0x3d351243	0.04420687
101	0xbd1e6da7	-0.03867879
102	0xbd7e8f23	-0.062148225
103	0xbca580cf	-0.020203022
104	0x3ccb6643	0.024829036
105	0x3d870322	0.065923944
106	0x3d8e6472	0.06952752
107	0x3e07f20c	0.13275927
108	0x3c69efcd	0.014278364
109	0x3a5e0ca1	0.000847051
110	0x3d70b294	0.058764055
111	0xbcc252c6	-0.02372111
112	0xbcb340c8	-0.021881476
113	0x3da580f0	0.080812335
114	0x3d907fd5	0.07055632
115	0x3c8eade4	0.017416902
116	0x3dbd9570	0.092570186
117	0xbcff9647	-0.031199588
118	0x3dbe0276	0.09277813
119	0x3d449fba	0.04800389
120	0xbe16d8de	-0.14731166
121	0x3d5b998e	0.053613238
122	0x3cc25950	0.023724228
123	0xbc371eb6	-0.011176756
124	0x3cdccadd	0.026952202
125	0x3c3c5bd3	0.011496502
126	0x3d75a561	0.05997217
127	0x3d63855b	0.0555471
128	0x3d54b16a	0.051927008
129	0xbd976894	-0.073929936
130	0x3d32383b	0.043510657
131	0x3d600b01	0.054697994
132	0xbdd3a916	-0.10334985
133	0x3dd300a5	0.10302857
134	0x39017e1f	0.00012349382
135	0x3d8d39d4	0.068957955
136	0x3d31750b	0.04332451
137	0x3c54ec35	0.012995769
138	0xbda2ff5e	-0.07958864
139	0xbd3154b3	-0.043293666
140	0xbd5a3732	-0.053275295
141	0xbc97faa5	-0.018552134
142	0x3d32e18e	0.043672137
143	0xbd8410f7	-0.06448548
144	0xbd5f31d8	-0.054490894
145	0xbd8882cd	-0.06665573
146	0xbd40d8d1	-0.047081772
147	0x3daf36c9	0.08555371
148	0x3c36f1b3	0.011166024
149	0x3c7e9345	0.0155380415
150	0xbca1f935	-0.019772151
151	0x3d4ac61e	0.049505346
152	0xbd3fc329	-0.04681698
153	0x3c8b242f	0.016985027
154	0x3c8c4021	0.017120423
155	0x3c047529	0.008084574
156	0x3c9084cd	0.01764145
157	0x3d015aee	0.031580858
158	0xbdfc6dc7	-0.12325626
159	0x3cca273e	0.024676915
160	0x3d872f09	0.06600768
161	0xbd604b73	-0.054759454
162	0xbdd45c99	-0.10369224
163	0xbba6a45d	-0.0050855116
164	0x3d003883	0.031303894
165	0xbdb619c6	-0.08891635
166	0x3bbbd8b0	0.0057326183
167	0x3c97584d	0.018474722
168	0x3d94fef5	0.07275192
169	0xbd20f1ef	-0.039293226
170	0xbc5dbc4a	-0.013533661
171	0xbda9fa8b	-0.082997404
172	0xbd51fc10	-0.051265776
173	0x3e0a37a2	0.13497785
174	0xbdc79a86	-0.0974627
175	0xbd5d81c3	-0.05407883
176	0xbcf6c232	-0.030121896
177	0xbca1f8b3	-0.01977191
178	0xbd82af88	-0.06381136
179	0x3cc187d0	0.02362433
180	0x3d297e48	0.041380197
181	0x3d760ff8	0.060073823
182	0xbb64d4c8	-0.0034916867
183	0x3cdcacec	0.026937924
184	0xbda97365	-0.08273963
185	0x3d8715de	0.06595968
186	0x3d183e55	0.03716882
187	0x3c85f3fa	0.016351689
188	0x3d08efbc	0.033431754
189	0xbc838b59	-0.016057657
190	0x3cf0f100	0.029411793
191	0x3de5a5c0	0.11213255
192	0x3d658485	0.056034584
193	0xbc62293f	-0.013803779
194	0xbd06ff43	-0.03295828
195	0x3c9e0712	0.01929048
196	0x3db964f8	0.090524614
197	0xbc2c6cc0	-0.010523975
198	0x3d2bed43	0.041974317
199	0x3d217d90	0.039426386
200	0xbca20e07	-0.01978208
201	0x3c694314	0.014237184
202	0x3d22d97c	0.03975819
203	0xbca44e1c	-0.020056777
204	0xbda51e74	-0.08062449
205	0xbc932727	-0.017963005
206	0xbdf920f1	-0.12164486
207	0x3d72038d	0.059085418
208	0xbcdab7f1	-0.026699038
209	0xbdb188e7	-0.0866869
210	0x3c0bf074	0.008541215
211	0x3c480afc	0.01220965
212	0xbcfb1171	-0.030647965
213	0x3dde58a0	0.108567476
214	0xbd91f991	-0.07127679
215	0xbd9794ab	-0.07401403
216	0x3e2166ae	0.15761825
217	0xbcb14aee	-0.021642175
218	0x3d8a5919	0.06755275
219	0x3df36dff	0.118862145
220	0xbc35170f	-0.011052861
221	0xbca08b0e	-0.019597556
222	0xbd2c280e	-0.042030387
223	0x3d580605	0.052740116
224	0xbd556e6d	-0.052107263
225	0xbd60d36d	-0.05488913
226	0xbd791acc	-0.06081657
227	0x3c77cea9	0.015124955
228	0xbd6bd163	-0.057572734
229	0x3d9a410c	0.07531938
230	0xbd3fcec8	-0.04682806
231	0xbd1a94b2	-0.037739463
232	0x3e0b9250	0.13630033
233	0x3c810e85	0.015753994
234	0xbd3ce2e8	-0.046114832
235	0xbd5d194b	-0.0539792
236	0xbda59bb9	-0.08086342
237	0x3d8734dd	0.0660188
238	0x3e07f2b5	0.13276179
239	0xbd1bb066	-0.038010024
240	0xbd25876e	-0.04041236
241	0xbc39aa6f	-0.011332138
242	0xbd53b981	-0.051690582
243	0x3b1a1b8a	0.002351495
244	0x3bd6a9e3	0.006551014
245	0x3d01693a	0.031594492
246	0x3c60ca22	0.013720067
247	0xbc083fd1	-0.008315996
248	0xbdd4278a	-0.10359104
249	0xbdbf8796	-0.09352033
250	0x3d0429dc	0.032266483
251	0x3c7c137e	0.015385507
252	0x3c5519c3	0.01300663
253	0xbcae8611	-0.021304162
254	0x3c58e858	0.013238989
255	0xbd8e3834	-0.06944314

bias f4 [64]
0	0xbd7ee5ef	-0.062231
1	0x3ca5c585	0.020235786
2	0x3b9bc82a	0.004754086
3	0xbc650b97	-0.013979814
4	0x3bc0ab48	0.0058797933
5	0xbdae6172	-0.0851468
6	0xbd7b25eb	-0.06131546
7	0x3ce0ec41	0.027456405
8	0xbc1896dd	-0.009313312
9	0x3c37f576	0.011227956
10	0x3c90c054	0.017669834
11	0xbdd1f31b	-0.10251447
12	0xbdcd7bdf	-0.10033392
13	0xbdb96711	-0.090528615
14	0x3db1867d	0.0866823
15	0xbcdc6b7e	-0.026906725
16	0x3cc5147f	0.024057625
17	0x3cbad53a	0.022806752
18	0x3d1d9424	0.038471356
19	0xbdc2baa1	-0.09508253
20	0x3b43ab69	0.0029856807
21	0xbdcab897	-0.09898489
22	0xbdacfc2c	-0.084465355
23	0x3d2ef7a0	0.042716622
24	0x3d1b7a9f	0.037958737
25	0x3cb9ce56	0.022681396
26	0xbd0ebc69	-0.03484765
27	0x3b3430ff	0.0027495024
28	0x3ba979f8	0.0051720105
29	0x3d748f22	0.059706815
30	0xbb8a08e6	-0.0042124866
31	0x3b957d34	0.0045620445
32	0x3c82d45d	0.015970403
33	0xbcfc9f36	-0.030837636
34	0x3c7880eb	0.015167455
35	0xbccad956	-0.024761837
36	0x3d179195	0.037004072
37	0x3cb66410	0.02226451
38	0x3d21a1eb	0.039461058
39	0xbcb396ed	-0.021922553
40	0xba008cb3	-0.00049037783
41	0xbd25b0f3	-0.040451955
42	0x3caeb423	0.02132613
43	0xbd84826b	-0.06470188
44	0xbc6ea5b3	-0.014565873
45	0xbdc00af1	-0.09377087
46	0x3cea65c3	0.028612977
47	0xbdb333c6	-0.087501094
48	0x3b2db730	0.0026506893
49	0xbd527821	-0.051384095
50	0xbcc789cb	-0.024357697
51	0xbcead3ca	-0.028665442
52	0x3d9cc64b	0.07655009
53	0xbdb51348	-0.08841568
54	0x3d095f63	0.033538233
55	0xbcc188dd	-0.023624832
56	0xbdde0f55	-0.10842768
57	0xbd1811d2	-0.03712637
58	0x3c9d955a	0.019236255
59	0x3c0c89b2	0.008577751
60	0xbddf3729	-0.10899193
61	0x3cb0d9df	0.021588264
62	0xbdac2a78	-0.08406538
63	0x3c9b46e9	0.018954711

weight f4 [64, 64, 3]
0	0x3d06a9e5	0.032876868
1	0x3d368c75	0.044567544
2	0xbcfe7e84	-0.031066187
3	0x3d4c5ec6	0.04989507
4	0xbafd25db	-0.001931365
5	0x3df7e79f	0.12104725
6	0x3d4a4763	0.049384486
7	0x3db66873	0.08906641
8	0x3d0ab4a4	0.03386368
9	0xbc900414	-0.01758007
10	0xbdcf1e77	-0.101132326
11	0xbd46d6c2	-0.048544653
12	0xbcc9fe53	-0.024657404
13	0xbe1446ce	-0.14480135
14	0xbc5b6bb5	-0.013392379
15	0x3dc1d6a1	0.09464765
16	0x3c32e0cd	0.0109178545
17	0x3d598354	0.05310376
18	0x3c9fba44	0.019497998
19	0xbda0c752	-0.07850517
20	0x3ca83c9a	0.02053671
21	0xbd4bc5f4	-0.04974933
22	0xbc99e73c	-0.018787019
23	0xbdb07a69	-0.08617098
24	0xbc4f612d	-0.012657446
25	0xbdc4354c	-0.09580478
26	0xbd7278b3	-0.05919714
27	0x3c7d3982	0.015455605
28	0xbd5bf65c	-0.053701743
29	0xbc544d32	-0.012957858
30	0x3c6e4e92	0.0145451
31	0x3d906bec	0.070518345
32	0xbdc05fbd	-0.09393261
33	0xbdb6da68	-0.089283764
34	0x3daa1064	0.083039075
35	0x3d0b0c98	0.033947557
36	0x3dee176f	0.11625563
37	0xbdb9cd98	-0.09072417
38	0x3d8e25ad	0.0694078
39	0xbd2757c7	-0.040855195
40	0x3c918046	0.01776136
41	0x3c974cd5	0.018469254
42	0xbd0abee2	-0.033873446
43	0x3d6043e7	0.054752257
44	0xbda02932	-0.078203574
45	0xbd1e845e	-0.038700454
46	0xbc6eca81	-0.014574648
47	0x3d737e91	0.059446875
48	0xbc8a1690	-0.016856462
49	0xbc99febc	-0.018798225
50	0xbd1da22d	-0.03848474
51	0x3ce4c77a	0.02792715
52	0xbd929317	-0.071569614
53	0xbc674c71	-0.014117346
54	0xbdb90c87	-0.090355925
55	0xbc530ffd	-0.01288223
56	0xbc8985bd	-0.016787404
57	0x3d985bd1	0.074393876
58	0xbc286ecd	-0.010280323
59	0xbcf2ad46	-0.029623639
60	0x3c96d898	0.018413827
61	0xbd7712f9	-0.060320828
62	0xbd90548c	-0.07047376
63	0x3d8c6ff4	0.06857291
64	0xbd5a4b8c	-0.053294703
65	0x3dfc9ba3	0.12334373
66	0xbd24fffb	-0.040283184
67	0x3d5f9919	0.054589365
68	0xbd551678	-0.05202338
69	0xbd99ace0	-0.075036764
70	0xbce28ffd	-0.02765655
71	0xbc969ed9	-0.018386291
72	0xbc92c14e	-0.01791444
73	0xbe2d8d2f	-0.16948389
74	0xbb0d6dcd	-0.002158034
75	0xbdb9e788	-0.09077364
76	0x3d574bad	0.052562404
77	0xbd5a08f9	-0.053231213
78	0x3df2f663	0.11863401
79	0xbcc56fca	-0.024101157
80	0x3db61467	0.0889061
81	0x3d0acee0	0.033888698
82	0xbcf50a8f	-0.029912261
83	0x3d61c853	0.055122685
84	0x3d82778c	0.06370458
85	0xbda43ff7	-0.08020013
86	0x3d9eb307	0.077489905
87	0xbd0d8934	-0.034554675
88	0xbd19ca75	-0.037546594
89	0xbd388af0	-0.045054376
90	0x3d942512	0.07233633
91	0xbd91bf73	-0.07116594
92	0xbd469534	-0.048482135
93	0x3a4feec3	0.00079320016
94	0x3d7a41b7	0.061097827
95	0xbc9d6522	-0.019213263
96	0x3d1fbe17	0.038999643
97	0x3da41b80	0.08013058
98	0x3d26614b	0.04062013
99	0x39669a15	0.0002199191
100	0xbd957d03	-0.07299235
101	0xbdef780a	-0.116928175
102	0xbcf4a79e	-0.029865082
103	0xbd81ac07	-0.0633164
104	0xbd9d22c5	-0.076726474
105	0x3d7d0b38	0.061778277
106	0xbd1e6af6	-0.038676225
107	0xbd000f01	-0.03126431
108	0xbd3cf8ec	-0.046135828
109	0xbdd96028	-0.106140435
110	0xbd17b3a2	-0.037036546
111	0x3c8a18be	0.016857501
112	0xbd80878d	-0.06275854
113	0x3d422759	0.047400806
114	0xbcc8a8b7	-0.024494512
115	0xbc3962c3	-0.011315051
116	0xbceae183	-0.028671985
117	0xba36dda2	-0.0006975775
118	0x3d0dbcc4	0.03460385
119	0x3d461c06	0.04836657
120	0x3e0f9826	0.14022884
121	0x3b4a4d91	0.0030868987
122	0x3d064567	0.03278103
123	0x3cf7c7a2	0.03024656
124	0xbcc2d78a	-0.023784418
125	0xbd0beaf4	-0.034159616
126	0xbcb8dd03	-0.022566324
127	0x3dd5f850	0.104477525
128	0xbc5e2153	-0.01355775
129	0x3d41df8e	0.04733234
130	0x3d1ed0d5	0.038773376
131	0xbdb81ba7	-0.08989649
132	0x3c80477c	0.015659086
133	0x3d9e9f14	0.077451855
134	0xbd4b0f0c	-0.049574897
135	0x3d8ba37b	0.06818291
136	0x3d56510f	0.052323397
137	0x3d754d6c	0.05988829
138	0xbcdf1fd4	-0.027236857
139	0xbd8f0a23	-0.06984355
140	0x3d3f38da	0.046685077
141	0x3da9b3e0	0.082862616
142	0xbc99f59b	-0.018793872
143	0x3d3213a0	0.043475747
144	0x3d6d9584	0.058003917
145	0xbd608307	-0.054812457
146	0x3ba6c334	0.005089188
147	0xbd9a56d8	-0.075360954
148	0x3b5df696	0.00338689
149	0xbcb95eed	-0.022628272
150	0x3cfdec1f	0.03099638
151	0x3d03915c	0.032121047
152	0xbb887bca	-0.0041651474
153	0xbc30b892	-0.0107861925
154	0xbc1bb079	-0.009502524
155	0x3d962855	0.073319115
156	0xbd36dfd4	-0.044647053
157	0x3c07e27a	0.008293742
158	0xbd3417f6	-0.043968163
159	0xbe275e70	-0.16344619
160	0xbc80e2b3	-0.015733099
161	0xbc9e8971	-0.019352647
162	0xbc8b7062	-0.017021362
163	0xbbc0f79c	-0.0058888923
164	0xbc906703	-0.017627245
165	0xbb826a18	-0.0039799325
166	0x3d9fdbfe	0.07805632
167	0xbdb11771	-0.08647049
168	0x3b00a886	0.0019631698
169	0xbc23a8a7	-0.00998894
170	0x3d8584c4	0.06519464
171	0x3d0d0c9f	0.034435865
172	0xbd1aaf8d	-0.037765075
173	0xbc04e739	-0.008111768
174	0xbd82d67e	-0.063885674
175	0xbd501278	-0.050798863
176	0xbdc0dc00	-0.09416962
177	0x3d7cf862	0.061760314
178	0x3d80e794	0.0629417
179	0xbd923464	-0.07138899
180	0xbdbfc54c	-0.09363803
181	0x3ddc4adb	0.10756465
182	0xbbbecb97	-0.0058226096
183	0x3d3425fa	0.04398153
184	0x3de13860	0.10997081
185	0x3d85e0ce	0.06537019
186	0xbdb66259	-0.08905477
187	0xbd5d836e	-0.05408042
188	0x3e553a9a	0.20823136
189	0xbd92a0ae	-0.071595535
190	0x3d09fbc1	0.033687357
191	0xbd3b8606	-0.04578211
192	0xbc27d1d5	-0.010242899
193	0xbd4e963b	-0.05043624
194	0x3e271c40	0.1631937
195	0x3cc777b2	0.024349067
196	0xbd407c06	-0.046993278
197	0x3c3a6e63	0.011378857
198	0xbcf1b005	-0.029502878
199	0x3c9048fd	0.017612929
200	0xbd1d1d57	-0.03835806
201	0x3d7ec240	0.06219697
202	0xbb550a4f	-0.0032507365
203	0xbdcf9ef7	-0.10137742
204	0x3d8cb938	0.06871265
205	0xbd965206	-0.073398635
206	0xbd89d7e5	-0.06730632
207	0x3c3ebda0	0.01164189
208	0x3d547628	0.051870495
209	0x3d8127ab	0.06306394
210	0x3e06585a	0.13119641
211	0x3caea8e9	0.021320777
212	0x3c095170	0.008381233
213	0xbd91f465	-0.07126693
214	0xbda35743	-0.07975628
215	0xbd55bcf3	-0.05218215
216	0xbbc6aae7	-0.0060628536
217	0xbe149360	-0.14509344
218	0x3b67a36b	0.0035345207
219	0xbd987f55	-0.07446162
220	0xbdf9a4e6	-0.12189655
221	0xbcc088d4	-0.023502745
222	0x3bf26ef0	0.0073984787
223	0xbe0bd408	-0.13655102
224	0xbd6ed8d4	-0.058312252
225	0xbd059f42	-0.032622583
226	0x3d2b3435	0.041797835
227	0x3c0d6fb4	0.008632589
228	0x3d8e8d8d	0.069605924
229	0x3cfc125f	0.030770479
230	0x3dae0cf0	0.084985614
231	0x3d80cbf4	0.06288901
232	0xbce3ee2f	-0.027823536
233	0x3d190c38	0.03736517
234	0xbdf233d3	-0.11826291
235	0xbda5c2ae	-0.08093773
236	0x3c97fbb4	0.018552639
237	0xbb211617	-0.0024579817
238	0x3e088842	0.13333228
239	0x3e09bec4	0.13451678
240	0xbc8e8dc7	-0.01740159
241	0xbd7c2f8e	-0.06156879
242	0x3c552bab	0.0130109
243	0xbd198c21	-0.037487153
244	0xbdc3675a	-0.09541197
245	0x3c984a03	0.018589979
246	0xbdb66db1	-0.08907641
247	0x3bd69097	0.006547998
248	0xbdc705ed	-0.09717927
249	0xbcf00006	-0.029296886
250	0xbdc77f1b	-0.0974104
251	0x3d9805a9	0.074229546
252	0x3cf9b99c	0.030484013
253	0xbd9e89f7	-0.077411585
254	0xbc24f407	-0.010067946
255	0xbdbcffd3	-0.09228482

bias f4 [64]
0	0x39de6681	0.0004241951
1	0xbd0bd94a	-0.03414277
2	0x3c89cc22	0.01682097
3	0x3d2cd7f4	0.042198136
4	0xb98d098d	-0.00026900732
5	0x3c9c307e	0.019066092
6	0xbd662197	-0.056184378
7	0xbcb58718	-0.022159144
8	0xbd324590	-0.04352337
9	0xbd382720	-0.044959188
10	0xbc00e4be	-0.007867036
11	0xbdaf0366	-0.0854557
12	0xbdc30408	-0.09522253
13	0xbdecb8e0	-0.115586996
14	0x3d9ff7b2	0.07810916
15	0xbdb1234e	-0.08649312
16	0xbd555e62	-0.052091964
17	0x3d2c972f	0.042136367
18	0xbd03cf35	-0.03218003
19	0xbda98e7a	-0.082791284
20	0xbd6e1a96	-0.058130823
21	0xbc88a173	-0.016678547
22	0xbdcd05dd	-0.10010884
23	0x3c9ea7c5	0.019367108
24	0xbdf47843	-0.119370006
25	0x3c1f59a2	0.00972596
26	0xbdac8880	-0.08424473
27	0xbd9fadca	-0.077968195
28	0x3bcdb725	0.006277936
29	0x3c9bf6be	0.019038554
30	0xbc563006	-0.013072973
31	0x3d5735fb	0.052541714
32	0xbe02a2d3	-0.12757425
33	0xbdd6ce30	-0.10488546
34	0xbd8b12bc	-0.06790683
35	0xbd095b94	-0.0335346
36	0xbc5508f6	-0.013002625
37	0x3bf1c6e8	0.007378448
38	0xbd8548dc	-0.065080374
39	0x3ceda6d3	0.029010212
40	0xbd945afc	-0.072439164
41	0x3c295b83	0.0103367595
42	0xbcdbdb30	-0.026837915
43	0xbcddb8aa	-0.027065594
44	0xbd82f041	-0.06393481
45	0xbd9c4b72	-0.076315776
46	0x3bad46cf	0.005287982
47	0xbc5c7bf7	-0.01345729
48	0xbd242086	-0.04007008
49	0xbcf91eb2	-0.030410144
50	0xbd9c8221	-0.076420076
51	0xbd719ed3	-0.058989357
52	0xbd33cd8c	-0.043897197
53	0xbd3a3b94	-0.045466974
54	0xbda22d5e	-0.07918809
55	0xbc8d9547	-0.017283095
56	0xbdafac01	-0.08577729
57	0xbd425bf2	-0.047450967
58	0x3cb2162c	0.021739088
59	0xbb90b143	-0.0044156625
60	0xb927cebc	-0.00016003376
61	0xbd1e2668	-0.038610846
62	0xbe015ae4	-0.12632328
63	0xbdde73a4	-0.108619004

weight f4 [64, 64, 3]
0	0x3be00527	0.0068365517
1	0x3d632ac4	0.055460706
2	0x3cf4f2d7	0.029900951
3	0x3ba12bff	0.004918575
4	0x3d2098eb	0.039208334
5	0xbe046607	-0.12929545
6	0x3ba9e74c	0.0051850434
7	0xbd8820b9	-0.06646866
8	0x3c6b0172	0.014343606
9	0x3db49bf0	0.08818805
10	0x3d17db56	0.03707441
11	0x3da7e17d	0.08197305
12	0x3ca7128a	0.020394582
13	0xbe0f9072	-0.14019945
14	0xbe0ffef1	-0.14062096
15	0xbd3e88b3	-0.046517085
16	0xbd5284ac	-0.051396057
17	0x3ce4fe9f	0.027953444
18	0x3d0b23e1	0.033969764
19	0x3ce2772a	0.027644712
20	0x3d5299ea	0.051416315
21	0xbd6593f6	-0.05604931
22	0xbd6280d8	-0.055298656
23	0xbde86e16	-0.11349122
24	0x3e0e126e	0.13874218
25	0xbd8d9898	-0.069138706
26	0x3d984907	0.07435804
27	0x3d1268e3	0.03574456
28	0x3c6be1e6	0.01439712
29	0x3d7945ba	0.060857512
30	0x3c8bcf50	0.017066628
31	0x3dc082fa	0.09399982
32	0xbd8ffaf5	-0.07030288
33	0x3d37741e	0.044788472
34	0xbd88c622	-0.06678416
35	0x3dc6863b	0.09693571
36	0xbd325502	-0.0435381
37	0x3c5a9e20	0.013343364
38	0xbd6e6748	-0.058203965
39	0x3dccb8d8	0.09996194
40	0x3d29a86d	0.04142039
41	0xbc481bbe	-0.0122136455
42	0x3e23dc5c	0.16002029
43	0x3d47ea04	0.04880716
44	0xbd6e6124	-0.05819811
45	0x3e0d21b1	0.13782384
46	0x3d79cff8	0.06098935
47	0x3c66795d	0.014067021
48	0xbd6efe03	-0.058347713
49	0x3d9a7c95	0.075432934
50	0x3db13185	0.08652023
51	0x3d876369	0.06610758
52	0x3b91f22e	0.004453919
53	0x3d3a6bc3	0.045512926
54	0xbc431c1a	-0.011908555
55	0xbd2f8657	-0.042852726
56	0x3d0fe968	0.035134703
57	0xbdbf4714	-0.09339729
58	0xbd89df56	-0.06732051
59	0x3d632eb7	0.055464473
60	0xbd63f854	-0.055656746
61	0xbdb17457	-0.08664768
62	0xbc374a7e	-0.011187194
63	0xbc9740f2	-0.018463586
64	0x3d98ff28	0.07470542
65	0xbd6aa1f3	-0.057283353
66	0x3db7a64c	0.089672655
67	0x3e0faad3	0.14030008
68	0x3e284bc3	0.16435151
69	0x3cefe935	0.029286006
70	0xbd6af162	-0.057359107
71	0xbd0825fa	-0.033239342
72	0x3c88ed6c	0.016714774
73	0x3d8cf792	0.06883158
74	0x3ba52e86	0.0050409464
75	0xbd27ee87	-0.04099896
76	0xbddb7398	-0.10715407
77	0x3c4b5f6a	0.012412885
78	0xbdaa3fca	-0.08312948
79	0xbcd72064	-0.026260562
80	0xbd1eeb6b	-0.03879873
81	0xbc2cedfc	-0.010554787
82	0x3d8dc0e1	0.06921554
83	0xbd5a204a	-0.05325345
84	0xbc6b8125	-0.014374052
85	0x3cf1b329	0.029504376
86	0xbd5eb9dd	-0.05437647
87	0xbd1db31b	-0.038500886
88	0xbc69a44e	-0.014260365
89	0xbe308e68	-0.17241824
90	0x3ce92e20	0.028464377
91	0x3da9c588	0.08289629
92	0xbba1384f	-0.0049200426
93	0xbd1cbee9	-0.038268004
94	0xbcf455b6	-0.029826026
95	0xbd6d3a20	-0.05791676
96	0x3c96ece4	0.018423505
97	0x3dc161d8	0.0944249
98	0x3e21ae7e	0.1578922
99	0xbd85e3e9	-0.06537611
100	0xbdbc5b45	-0.09197096
101	0xbdda91d4	-0.10672346
102	0xbbc4e5aa	-0.0060088234
103	0xbdf6456f	-0.12024962
104	0x3e15af99	0.14617766
105	0x3d96001e	0.07324241
106	0x3e1e81e2	0.15479234
107	0xbaea3be4	-0.0017870632
108	0x3cae0c57	0.021246118
109	0x3d7815de	0.06056773
110	0xbbe76554	-0.00706164
111	0x3d1c30c7	0.038132455
112	0x3d92ff3a	0.07177587
113	0xbc9e2b76	-0.019307833
114	0xbdbd375f	-0.09239077
115	0xbe0277e2	-0.12741044
116	0x3c845284	0.016152628
117	0x3d2567e0	0.040382266
118	0xbb0b54ec	-0.0021260334
119	0x3cb8bcdb	0.02255099
120	0xbd456bc2	-0.04819847
121	0x3dfac9b6	0.122455046
122	0x3da2f4af	0.07956826
123	0xbd850d09	-0.06496627
124	0x3cbd5ccc	0.023115538
125	0x3bc39e0b	0.005969768
126	0x3d333f3d	0.04376148
127	0x3daef894	0.08543506
128	0x3db9db74	0.090750605
129	0xbcfcffe0	-0.03088373
130	0xbd220f45	-0.039565343
131	0xbca04a47	-0.019566668
132	0x3cde74ec	0.027155362
133	0xbd33f448	-0.043934137
134	0x3b94525a	0.0045264186
135	0xbba2d88e	-0.004969663
136	0xbd9cd717	-0.07658213
137	0x3d82c972	0.06386079
138	0xbd614d3e	-0.055005305
139	0xbda9aca2	-0.0828488
140	0xbc7b90c7	-0.015354342
141	0x3c9cbed1	0.019133957
142	0xbd53b2c8	-0.05168417
143	0xbd13253e	-0.03592419
144	0x3cbcb23a	0.023034204
145	0xbdafeabe	-0.085896954
146	0x3dd11df9	0.10210795
147	0xbd59cb7c	-0.053172573
148	0x3e7d7c7c	0.24754518
149	0x3d18aa49	0.03727177
150	0x3d4f6451	0.05063278
151	0xbd25d4d8	-0.040486187
152	0x3b372970	0.0027948283
153	0xbe115ed2	-0.14196327
154	0xbe05156b	-0.12996452
155	0xbd0f5a2f	-0.034998115
156	0x3cd85053	0.02640549
157	0xbe2e920b	-0.17047898
158	0xbd8a07d6	-0.06739776
159	0xbd92e371	-0.07172287
160	0x3c3ae58f	0.01140727
161	0x3def48f5	0.11683837
162	0x3cb3b79f	0.021938143
163	0xbdd28d37	-0.10280841
164	0x3dac39e5	0.0840948
165	0x3ce7f6ae	0.028315868
166	0x3c0bd2a4	0.008534107
167	0xbd9f2210	-0.07770169
168	0x3ab3e204	0.0013723974
169	0x3c09ffb2	0.008422779
170	0xbda62eea	-0.08114417
171	0xbd2cf7ee	-0.04222863
172	0x3e0b310a	0.13592926
173	0x3c8cf158	0.017204925
174	0xbd2c2bbe	-0.042033903
175	0x3dea7e69	0.11449892
176	0x3cde8971	0.027165147
177	0x3d90d6f2	0.070722476
178	0xbb707c24	-0.0036695087
179	0xbc19aa5a	-0.009378994
180	0xbd5f126e	-0.054460935
181	0xbcc1bf4f	-0.023650793
182	0xbd3daac7	-0.046305444
183	0x3cac6d98	0.021048352
184	0x3d9e819a	0.07739563
185	0x3b9ee6ed	0.004849306
186	0x3c8dd537	0.017313583
187	0x3dc219d5	0.09477583
188	0x3be845df	0.0070884074
189	0x3d2d3f7f	0.042296883
190	0x3d479ee3	0.04873551
191	0xbcf65b03	-0.030072695
192	0xbc7931f2	-0.015209662
193	0x3d01cc3b	0.03168891
194	0xbd0812a7	-0.033220913
195	0x3dd1776b	0.10227855
196	0x3bb53b1a	0.005530727
197	0xbd36c824	-0.044624463
198	0x3d8a02ae	0.06738792
199	0xbd83b9dd	-0.06431935
200	0x3b0ebba8	0.0021779332
201	0x3cfd7ad7	0.030942364
202	0xbd3eddd3	-0.046598267
203	0xbcba2c6b	-0.022726258
204	0xbca67cac	-0.02032312
205	0xbcee933f	-0.029122947
206	0x3d19e5f1	0.037572805
207	0xbc4d4873	-0.01252948
208	0x3ba7a8db	0.0051165647
209	0xbda24e69	-0.07925112
210	0xbc5d4270	-0.013504609
211	0x3c376573	0.011193621
212	0x3d77ea1e	0.060526006
213	0xbd27ef42	-0.04099966
214	0x3d189900	0.037255287
215	0xbb9621fa	-0.004581687
216	0x3e460570	0.19338012
217	0x3c940114	0.01806692
218	0xbd80b238	-0.062839925
219	0xbd8dad42	-0.06917812
220	0x3cb34dad	0.021887625
221	0x3d39c4e8	0.0453538
222	0x394cce7f	0.00019531882
223	0xbd707d61	-0.05871332
224	0xbda68a8e	-0.08131896
225	0x3d0408f9	0.03223512
226	0x3d9c5b91	0.076346524
227	0x3d8a329b	0.067479335
228	0x3dc7b8bc	0.09752032
229	0x3bfc289e	0.0076952716
230	0x3d1371a8	0.035997063
231	0xbd283ef7	-0.041075673
232	0x3d6ba282	0.057528026
233	0xbd082d49	-0.033246312
234	0x3cb5baa0	0.022183716
235	0xbdaad9df	-0.08342337
236	0xbd9d7980	-0.0768919
237	0xbda6b270	-0.08139503
238	0x3d2a71eb	0.041612547
239	0x3d13dc93	0.036099028
240	0xbd0cbd80	-0.03436041
241	0x39deff8b	0.00042533534
242	0x3ce6a250	0.028153569
243	0x3bb4872a	0.005509277
244	0xbdd3265f	-0.10310053
245	0x3cb9d2c3	0.022683507
246	0x3dc43171	0.09579743
247	0x3d861623	0.06547191
248	0x3d4b049e	0.04956495
249	0x3cb49aee	0.022046532
250	0x3df4396b	0.11925014
251	0x3d8c267e	0.06843279
252	0xbcd1159a	-0.025522996
253	0xbd04290b	-0.032265704
254	0xbbd62c87	-0.00653607
255	0xbd9a0002	-0.07519533

bias f4 [64]
0	0xbdb46237	-0.088077955
1	0xbdf33ea6	-0.118771836
2	0xbc1a3102	-0.009411098
3	0x3d30c0dd	0.04315268
4	0x3c63ace4	0.013896201
5	0xbe014a47	-0.12625991
6	0xbd788ca6	-0.060681008
7	0xbce9fa99	-0.028561877
8	0xbd4645ad	-0.04840629
9	0x3c9371c8	0.017998591
10	0xbd522c5e	-0.051311843
11	0xbd818784	-0.06324676
12	0xbd4994a8	-0.049214035
13	0x3c5420b3	0.012947249
14	0x3d93d78e	0.07218848
15	0xbdba9267	-0.09109955
16	0x3c7f325c	0.015575971
17	0xbd1edd54	-0.038785294
18	0xbd945a4f	-0.072437875
19	0x3d274ab4	0.040842727
20	0x3cb3d545	0.02195228
21	0xbd055a27	-0.03255668
22	0x3d9a6e1e	0.075405344
23	0xbd4085bb	-0.047002535
24	0x3cb37f6a	0.021911342
25	0x3d5ec90b	0.05439095
26	0x3d919d46	0.07110076
27	0xbcb93a62	-0.022610847
28	0xbd9bf15c	-0.07614395
29	0xbca0c693	-0.019625938
30	0xbd9da3e4	-0.07697275
31	0xbd2968a5	-0.041359562
32	0xbc2e7153	-0.010647136
33	0xbd328bd8	-0.043590397
34	0xbe026964	-0.12735516
35	0x3d310a73	0.043222856
36	0x3cebccdc	0.028784208
37	0xbd70a42c	-0.058750317
38	0xbd61aa9a	-0.05509434
39	0x3d3fb065	0.046799082
40	0xbd4875a4	-0.048940316
41	0xbc10ff44	-0.008849923
42	0x3c36aced	0.011149627
43	0xbd386a99	-0.045023534
44	0xbde3dc8e	-0.11126052
45	0xbd121f8b	-0.035674613
46	0xbc7defc6	-0.015499061
47	0xbc10ceb9	-0.008838349
48	0x3d0bee91	0.03416306
49	0xbb586c24	-0.0033023441
50	0xbd827736	-0.06370394
51	0xbd81e9aa	-0.06343396
52	0xbd47478d	-0.04865222
53	0x3c39727e	0.011318801
54	0xbd98f38a	-0.074683264
55	0x3b572b62	0.0032832255
56	0xbce521fe	-0.02797031
57	0xbdd19604	-0.10233691
58	0xbd39d3ac	-0.04536788
59	0xbd5153c2	-0.05110527
60	0xbd493f84	-0.04913284
61	0xbdffaf2a	-0.12484582
62	0xbd2c91ac	-0.04213111
63	0x3d5ed192	0.05439908

weight f4 [64, 64, 3]
0	0x3d8c478a	0.068495825
1	0xbcb947fc	-0.022617333
2	0xbdc26c9f	-0.09493374
3	0x3da322ca	0.0796562
4	0x3d7749f5	0.060373265
5	0x3dccef72	0.10006608
6	0xbd3591dc	-0.044328555
7	0xbd66db90	-0.056361735
8	0xbd9b7323	-0.0759032
9	0xbdc52e23	-0.096279405
10	0xbd77e904	-0.060524955
11	0xbd517532	-0.051137157
12	0x3c934ac0	0.01797998
13	0xbd9ca79b	-0.07649156
14	0x3d14da8b	0.03634123
15	0xbd936bdc	-0.07198307
16	0x3dc8a066	0.097962186
17	0x3bbbac34	0.0057273153
18	0x3d34d028	0.044143826
19	0xbdafab80	-0.08577633
20	0x3c94efb1	0.0181807
21	0x3c4a0d27	0.012332237
22	0xbc04e741	-0.008111776
23	0x3b31b80e	0.0027117762
24	0xbd9b74a5	-0.075906076
25	0xbcd0048a	-0.02539279
26	0x3c8c9a4e	0.017163422
27	0xbcea8dcd	-0.028632069
28	0xbc01638c	-0.007897269
29	0x3ca6ca4e	0.020360138
30	0xbd1bc62e	-0.038030796
31	0x3da73048	0.08163506
32	0xbdc626cc	-0.09675369
33	0x3dac947d	0.084267594
34	0x3d3a1328	0.045428425
35	0x3cb3d2c3	0.021951085
36	0xbd9a3907	-0.07530408
37	0xbda8eaa4	-0.08247879
38	0xbce3328e	-0.027734067
39	0xbd506ea2	-0.050886758
40	0xbd9d3d56	-0.076777145
41	0xbda8eb88	-0.08248049
42	0xbe09d87d	-0.1346149
43	0xbd379776	-0.04482218
44	0xbc50674a	-0.0127199385
45	0x3d10f9e0	0.03539455
46	0x3df869a3	0.121295236
47	0xbdb2199b	-0.0869629
48	0x3dadf86a	0.08494647
49	0xbd7f05c1	-0.062261347
50	0x3e22a400	0.15882874
51	0xbda53c8f	-0.08068191
52	0xbb1e5314	-0.0024158405
53	0xbd13b21b	-0.036058526
54	0x3cdd685c	0.027027301
55	0xbcc4a7a5	-0.02400572
56	0x3d2f8dd6	0.042859875
57	0x3c673571	0.0141118625
58	0xbc554c67	-0.013018704
59	0x3cd845c7	0.02640046
60	0xbd9eaf18	-0.0774824
61	0xbc4ef5fc	-0.012631889
62	0xbcee4e49	-0.029090064
63	0xbdab3786	-0.083602
64	0xbda65158	-0.08120984
65	0x3dbc63ec	0.09198746
66	0xbd144c45	-0.03620555
67	0x3cb2ea08	0.02184011
68	0xbcb536c3	-0.022120839
69	0x3d66aba6	0.05631604
70	0xbbca75f0	-0.00617861
71	0x3e75fdd7	0.24022613
72	0xbd70c8a0	-0.05878508
73	0xbca3cdcc	-0.019995593
74	0x3d69efdf	0.057113525
75	0x3dab3062	0.08358838
76	0xbdb5dc19	-0.08879871
77	0x3c95d5e7	0.018290473
78	0xbd394e7f	-0.045240875
79	0xbcf42fb0	-0.029807895
80	0xbd4f158a	-0.05055765
81	0xbddc6dad	-0.107631065
82	0xbd4698f7	-0.048485722
83	0x3d82e23c	0.06390807
84	0x3cdfa1ac	0.02729877
85	0x3dd40a29	0.103535004
86	0x3d83b3b6	0.064307615
87	0xbd758a22	-0.059946187
88	0xbd24178f	-0.04006153
89	0xbd493d07	-0.049130466
90	0xbc920437	-0.017824275
91	0x3dc41daa	0.095759705
92	0x3d46a960	0.048501372
93	0x3dc63719	0.09678478
94	0x3d14f245	0.03636386
95	0x3dd3832a	0.10327752
96	0xbcff2eaf	-0.03115019
97	0xbc2734ab	-0.010205428
98	0xbde4e74f	-0.11176931
99	0xbd16a33b	-0.036776762
100	0x3d8474b0	0.06467569
101	0x3d1b7e6f	0.037962373
102	0xbd43c004	-0.047790542
103	0x3c1c5135	0.009540846
104	0x3d87cf74	0.066313654
105	0x3d8f8081	0.07006932
106	0x3dd6255f	0.10456347
107	0x3dd7be6e	0.105343685
108	0x3d86dbe3	0.06584909
109	0x3c390ecb	0.011295031
110	0x3c8c0acd	0.017094994
111	0x3c784141	0.0151522765
112	0xbc9ff15c	-0.019524269
113	0x3d2e9502	0.042622574
114	0x3b6627ed	0.0035119012
115	0xbd051987	-0.032495048
116	0x3e192658	0.14956033
117	0xbd10a5e3	-0.035314452
118	0x3d0323d6	0.032016598
119	0x3d35f952	0.044427224
120	0xbd39d4b4	-0.045368865
121	0xbcb81502	-0.022470955
122	0xbd40a5ac	-0.047032997
123	0x39997726	0.00029271207
124	0x3e21e1a7	0.15808736
125	0x3c1076ac	0.008817356
126	0x3d06e01b	0.032928567
127	0x3de11a1a	0.109913066
128	0x3d76e3f8	0.060276
129	0x3c09421f	0.008377581
130	0xbd5497a7	-0.05190244
131	0x3d955248	0.072910845
132	0xbe0dba19	-0.13840522
133	0xbc8fc695	-0.017550746
134	0xbd941141	-0.072298534
135	0xbbef8962	-0.0073100785
136	0xbc129dad	-0.008948726
137	0x3d988c48	0.074486315
138	0xbdd1cd1f	-0.10244202
139	0x3dd96965	0.106158055
140	0x3d6844d0	0.05670625
141	0xbd27e439	-0.040989134
142	0xbd9356a4	-0.0719426
143	0x3da2a3f6	0.07941429
144	0xbc9460d8	-0.018112585
145	0xbe506f87	-0.20355044
146	0xbcee13a5	-0.029062102
147	0xbd3fe7ac	-0.0468518
148	0xbb6643c4	-0.0035135606
149	0xbbda8c67	-0.0066695693
150	0xbd0370bc	-0.032089934
151	0x3c6be61a	0.014398122
152	0x3d49b257	0.049242344
153	0x3ad876e0	0.001651492
154	0xbea35912	-0.31903893
155	0x3d8ac6f1	0.06776226
156	0xbcaba8f6	-0.02095459
157	0xbda03cdf	-0.0782411
158	0xbd2bdc74	-0.041958287
159	0x3b888778	0.0041665398
160	0xbe0a683f	-0.13516329
161	0x3c885ba9	0.01664527
162	0xbcaf0996	-0.021366876
163	0x3d83c437	0.064339094
164	0x3d0013d4	0.03126891
165	0x3c36e795	0.011163612
166	0x3d588df3	0.05286975
167	0x3d48ccd8	0.04902348
168	0xbdff9c0b	-0.12480935
169	0xbdbcbd75	-0.092158236
170	0xbc892498	-0.016741082
171	0xbca17e3f	-0.01971352
172	0x3d3c84da	0.046025135
173	0xbba8c17f	-0.0051500197
174	0xbaa90055	-0.0012893776
175	0xbc0c7b38	-0.0085742995
176	0xbd8e0924	-0.06935337
177	0x3d172bff	0.036907192
178	0xbd06d255	-0.032915432
179	0x3d50546c	0.05086176
180	0x3b524f54	0.003209074
181	0xbe02ec9c	-0.12785572
182	0x3da3b5e5	0.07993678
183	0x3d9ba292	0.07599367
184	0x3d83d58f	0.064372174
185	0x3e1e4c73	0.1545885
186	0xbdcd0b92	-0.100119725
187	0xbdf490b5	-0.11941663
188	0xbd9c24c0	-0.07624197
189	0xbd64a927	-0.05582538
190	0x3cf06da8	0.029349163
191	0xbcdd6198	-0.027024075
192	0xbdf60cb6	-0.12014143
193	0xbc52dff3	-0.0128707765
194	0xbd583250	-0.052782357
195	0x3d93ad13	0.07210746
196	0x3debd1ce	0.115146264
197	0xbd7ef693	-0.06224687
198	0xbdd8632d	-0.10565791
199	0xbde7c894	-0.11317554
200	0x3c3da2a3	0.01157442
201	0x3cd00668	0.02539368
202	0xbd114239	-0.035463545
203	0xbd117374	-0.035510495
204	0xbd86fcf4	-0.06591216
205	0xbc084d58	-0.008319221
206	0x3dbed048	0.0931707
207	0xbd1eb34a	-0.038745202
208	0x3d4dbcdc	0.05022894
209	0x3d4deefe	0.05027675
210	0x3dd5d352	0.10440697
211	0xbc91af4a	-0.01778378
212	0xbc551f1d	-0.013007906
213	0x3c8f11d0	0.017464548
214	0xbbba3142	-0.0056821415
215	0x3ac44b16	0.0014975991
216	0x3d829a32	0.06377067
217	0x3d220d8c	0.0395637
218	0x3dc01d5d	0.093806006
219	0xbde2f4d2	-0.11081852
220	0x3cce3a03	0.025174147
221	0x3bca1e1f	0.0061681415
222	0xbd801ed3	-0.06255879
223	0x3dff8bc7	0.12477832
224	0x3cd54919	0.026035832
225	0xbc56404c	-0.013076853
226	0x3e143c21	0.14476062
227	0xbddd8366	-0.10816078
228	0xbd55d64e	-0.05220633
229	0xbc88cfc7	-0.016700638
230	0xbc1f299c	-0.00971451
231	0xbd76a747	-0.06021812
232	0xbd7a75c6	-0.061147474
233	0xbd60c3ba	-0.05487416
234	0xbc4444c3	-0.011979285
235	0xbe713340	-0.23554707
236	0x3d48d63c	0.049032435
237	0xbc966a40	-0.01836121
238	0x3d38d48c	0.045124575
239	0xbd9753d3	-0.07389035
240	0x3de816bd	0.11332462
241	0x3d082266	0.03323593
242	0x3d23b830	0.039970577
243	0xbd86dde4	-0.06585291
244	0xbb981765	-0.0046414607
245	0x3e1fe93d	0.15616317
246	0xbdf7080e	-0.12062083
247	0xbca48ad8	-0.020085737
248	0x3e36cd03	0.17851643
249	0x3d81b90d	0.06334124
250	0xbd0efd55	-0.034909565
251	0x3dafb2fd	0.08579061
252	0xbddee72b	-0.108839355
253	0x3d2cb0c1	0.042160753
254	0x3c5ff7e2	0.01366994
255	0xbd323af1	-0.043513242
