models/HisarCNN2019_20_last.pt (torch, 651666 bytes, 20 tensors)

weight f4 [64, 2, 3]
0.24516787 -0.3105226 0.4110124 -0.12270405 -0.04124553 -0.4328118 -0.17499663 -0.16442597
0.2834834 -0.39506555 0.3449465 -0.024201998 0.35933128 0.048356775 0.3831989 -0.3655085
-0.21806733 0.034395926 -0.38188776 -0.3738074 0.3430999 -0.36727306 0.4209435 0.26853064
0.18908034 -0.37515742 -0.25803912 0.35148513 -0.24002162 0.13432187 0.12394923 0.3940446
-0.31814495 -0.01722595 -0.083984084 0.2438669 0.22210124 -0.12344807 -0.024413431 0.26990125
-0.097068906 -0.06425185 0.38333142 -0.38435665 -0.27840772 -0.092339 -0.46135673 -0.32443887
-0.06756392 0.15349784 0.17128806 -0.09431699 0.25730726 -0.15576711 0.3708729 -0.086747214
0.08552846 0.08008222 -0.35326353 -0.42553824 -0.21238425 0.15412118 -0.046696976 -0.3562419
0.11019622 -0.068731636 0.12157103 0.13818589 -0.015120667 -0.00081997924 0.23153132 -0.13772038
0.2406764 0.15848467 -0.2562929 0.19738394 -0.25064358 0.24641018 0.3318065 -0.08056825
-0.2827698 0.026005115 -0.108137 0.4549128 0.21077718 -0.34775892 0.00602743 0.34556752
-0.18665789 -0.31764448 -0.15798436 0.041821484 -0.049332563 0.27729085 0.32869756 0.20394953
0.3722253 0.041783787 0.20587023 0.30839974 0.1832279 0.12414736 -0.3907235 0.014092762
0.30491474 -0.29870448 0.018109052 0.14994909 -0.34997803 0.4270931 0.27427256 0.10668196
0.102721386 -0.2566116 -0.3940296 0.29081088 0.100980975 -0.019818803 0.011497783 0.19582413
-0.40616602 0.18702227 0.07643558 0.11726593 0.077615865 0.046463788 -0.16934833 0.15182836
-0.27545872 -0.00791446 -0.018062668 -0.3233563 0.15468587 0.30247873 -0.2054202 0.31683385
0.34055054 0.26079428 0.21945801 0.288926 -0.23794428 0.4287211 0.40574887 0.21833149
-0.06785845 0.2354258 0.20617034 0.17952074 0.35351068 0.26255545 -0.10176276 0.25944024
-0.047691006 -0.20445998 0.1532429 -0.12469547 -0.00050048187 0.2756573 -0.39054218 -0.19386064
-0.13548326 -0.2307526 0.27576038 0.19952062 0.055207446 0.11090974 -0.32587335 0.20731968
-0.10133038 -0.3056591 0.049100995 -0.04132823 0.09563654 0.17279953 0.39328295 -0.10887588
-0.24490486 -0.4111808 0.025896693 0.32900763 -0.34907982 0.11203093 -0.0276511 -0.3945107
0.022678783 0.34965336 0.3855461 0.14287798 -0.21309476 -0.12783885 0.40996626 0.17493767
0.0070709595 0.25377357 0.3338242 0.17518292 -0.17585105 -0.00071261934 0.06413503 -0.3566049
-0.28623548 -0.24713685 0.26890492 -0.17320323 0.026541201 0.33593586 0.29055795 0.34996083
-0.3886567 0.36087802 -0.26960233 0.22594576 -0.010605184 0.32518232 0.19099216 -0.2999998
0.29111946 -0.10595346 0.08670807 -0.34905118 0.15382151 0.115326926 0.15217438 -0.062389627
-0.23344123 -0.16385421 0.4196493 0.27380237 -0.22444192 -0.37114766 0.009283013 -0.042427965
-0.33162162 -0.29197726 -0.035795946 0.35947058 0.17950368 -0.13712636 -0.33322656 0.1308043
0.090543434 0.080052465 -0.29963556 -0.19890285 0.20111732 0.30820772 0.37771544 -0.024856443
0.12931778 -0.35280746 0.081311285 0.20983057 0.23352362 -0.04783872 -0.32262465 0.24942768
00000000: 490d 7b3e d1fc 9ebe 3870 d23e 434c fbbd
00000010: 13f1 28bd 8299 ddbe 5132 33be 485f 28be
00000020: bc24 913e 0846 cabe d49c b03e 4543 c6bc
00000030: 45fa b73e c111 463d a532 c43e ee23 bbbe
00000040: 0b4d 5fbe bee2 0c3d cb86 c3be af63 bfbe
00000050: caaa af3e 370b bcbe e885 d73e d97c 893e
00000060: 479e 413e a214 c0be b41d 84be dcf5 b33e
00000070: 3ac8 75be ac8b 093e 18d9 fd3d 37c0 c93e
00000080: e5e3 a2be 6f1d 8dbc d9ff abbd 3fb8 793e
00000090: 826e 633e 57d2 fcbd adfe c7bc 7f30 8a3e
000000a0: 10cc c6bd 7996 83bd 0444 c43e 65ca c4be
000000b0: 758b 8ebe 3b1c bdbd f336 ecbe da1c a6be
000000c0: f45e 8abd 8a2e 1d3e 2366 2f3e 4429 c1bd
000000d0: c7bd 833e 6a81 1fbe 0ee3 bd3e 86a8 b1bd
000000e0: 8c29 af3d 2602 a43d f5de b4be 26e0 d9be
000000f0: 427b 59be f1d1 1d3e 5445 3fbd 5765 b6be
00000100: 8eae e13d 2cc3 8cbd 3bfa f83d 9a80 0d3e
00000110: adbc 77bc e0f3 56ba 8c16 6d3e 9206 0dbe
00000120: e073 763e ce49 223e d338 83be 041f 4a3e
00000130: 5b54 80be f352 7c3e 8be2 a93e f700 a5bd
00000140: 34c7 90be ae08 d53c ee76 ddbd 55ea e83e
00000150: f9d5 573e 750d b2be bf81 c53b 3aee b03e
00000160: 3f23 3fbe 4ca2 a2be a7c6 21be 014d 2b3d
00000170: f110 4abd 11f9 8d3e 0c4b a83e 25d8 503e
00000180: 5194 be3e 7a25 2b3d a5cf 523e 92e6 9d3e
00000190: 18a0 3b3e f940 fe3d e90c c8be 54e5 663c
000001a0: c91d 9c3e cbef 98be 6f59 943c 418c 193e
000001b0: 5230 b3be f2ab da3e 746d 8c3e 127c da3d
000001c0: 975f d23d 9862 83be 3fbe c9be 2ae5 943e
000001d0: 1dcf ce3d 0b5b a2bc 3261 3c3c 1f86 483e
000001e0: fef4 cfbe c482 3f3e 428a 9c3d 1f29 f03d
000001f0: 11f5 9e3d d050 3e3d a669 2dbe e578 1b3e
00000200: ed08 8dbe a7ab 01bc 29f8 93bc f58e a5be
00000210: f965 1e3e 7ede 9a3e ac59 52be 0c38 a23e
00000220: a45c ae3e d486 853e 9ab9 603e 1cee 933e
00000230: aaa7 73be 5581 db3e 51be cf3e 4a92 5f3e
00000240: 5ff9 8abd 7613 713e 511e 533e 49d4 373e
00000250: 5aff b43e ab6d 863e fe68 d0bd 5ad5 843e
00000260: a557 43bd f55d 51be b5eb 1c3e 5760 ffbd
00000270: c532 03ba f422 8d3e 25f5 c7be 6783 46be
00000280: 20bc 0abe 694a 6cbe 7730 8d3e 224f 4c3e
00000290: 3421 623d a524 e33d dfd8 a6be 9c4b 543e
000002a0: 4d86 cfbd 597f 9cbe 201e 493d ca47 29bd
000002b0: 17dd c33d 5cf2 303e 625c c93e 51fa debd
000002c0: 57c8 7abe 4a86 d2be 4d25 d43c b073 a83e
000002d0: 97ba b2be 7970 e53d 8f84 e2bc 4efd c9be
000002e0: dbc8 b93c c405 b33e 4c66 c53e 9b4e 123e
000002f0: 8335 5abe 30e8 02be 19e7 d13e dc22 333e
00000300: 82b3 e73b 9cee 813e 01eb aa3e 2763 333e
00000310: 4c12 34be 13cf 3aba 3a59 833d eb94 b6be
00000320: 758d 92be 7111 7dbe e8ad 893e 305c 31be
00000330: ef6c d93c c9ff ab3e 03c4 943e 112e b33e
00000340: 03fe c6be 01c5 b83e 5109 8abe 535e 673e
00000350: 5ec1 2dbc 4c7e a63e 7393 433e 9399 99be
00000360: 9c0d 953e 21fe d8bd 0094 b13d d6b6 b2be
00000370: 6383 1d3e 8630 ec3d 9ad3 1b3e 448c 7fbd
00000380: 380b 6fbe 66c9 27be 46dc d63e d32f 8c3e
00000390: 1ad4 65be 1107 bebe c717 183c f2c8 2dbd
000003a0: 4fca a9be 0b7e 95be c59e 12bd 870c b83e
000003b0: d0cf 373e da6a 0cbe ac9c aabe 90f1 053e
000003c0: d66e b93d 8cf2 a33d d569 99be 30ad 4bbe
000003d0: b3f1 4d3e 67cd 9d3e eb63 c13e bd9f cbbc
000003e0: e16b 043e 2ea3 b4be 8886 a63d d3dd 563e
000003f0: d120 6f3e 89f2 43bd 0f2f a5be f869 7f3e

bias f4 [64]
-0.15029587 -0.023839884 -0.1218398 -0.27870914 0.026330585 0.04367098 0.11348946 -0.36003104
0.030710101 -0.13537148 0.08981397 0.1620754 -0.08621812 -0.3694539 -0.26001412 0.12577964
-0.30152327 -0.28521058 0.017347502 -0.15665573 0.063532986 0.14887269 0.14165838 -0.2283317
0.17213143 0.14607249 0.103191525 0.09361346 0.2624362 -0.02597361 -0.38540256 -0.36500055
0.17449453 0.14924884 -0.3924395 0.25295946 -0.20674418 -0.012766237 -0.3729912 -0.3316902
-0.14036708 0.3149917 -0.022433875 -0.1671236 -0.27984843 0.19809988 0.2417184 -0.2802091
0.34352615 -0.1386531 -0.24982966 -0.12617011 0.2699218 -0.2721207 -0.013639992 -0.067131415
-0.20196016 -0.108324505 0.15440789 0.19035016 -0.12669076 0.30885938 0.3246597 0.26943663
00000000: 29e7 19be dc4b c3bc 2587 f9bd f7b2 8ebe
00000010: 3db3 d73c 57e0 323d 296d e83d fd55 b8be
00000020: c093 fb3c d29e 0abe 63f0 b73d 18f7 253e
00000030: 2093 b0bd 1029 bdbe 9220 85be 61cc 003e
00000040: 4261 9abe 1f07 92be 591c 8e3c 5c6a 20be
00000050: 951d 823d 1572 183e e50e 113e c9cf 69be
00000060: 3943 303e 0794 153e 1456 d33d 6ab8 bf3d
00000070: 0a5e 863e 9cc6 d4bc 7c53 c5be 5ae1 babe
00000080: b2ae 323e b0d4 183e d5ed c8be e783 813e
00000090: bfb4 53be 7b29 51bc b4f8 bebe 4cd3 a9be
000000a0: 63bc 0fbe 9846 a13e 3fc7 b7bc 7322 2bbe
000000b0: 4b48 8fbe b2da 4a3e 0785 773e 9177 8fbe
000000c0: a9e2 af3e 14fb 0dbe 59d3 7fbe bd32 01be
000000d0: 3133 8a3e 6853 8bbe 467a 5fbc 327c 89bd
000000e0: a5ce 4ebe 3dd9 ddbd 1a1d 1e3e 27eb 423e
000000f0: 39bb 01be d122 9e3e cc39 a63e 99f3 893e

weight f4 [64, 64, 3]
-0.08823571 0.059144057 -0.028214363 -0.04579273 -0.020700015 0.025147907 0.0063085174 -0.06691395
0.067568325 0.034101058 -0.025741706 0.048564225 0.003720154 -0.042222362 0.04629527 -0.052624438
-0.04378881 0.006318738 0.033752643 -0.039935797 -0.0596495 0.06023581 -0.043716747 -0.011679924
-0.07630093 0.0024218936 0.054036774 -0.072515905 0.032924373 -0.052342046 -0.051205184 -0.0149053745
0.056451656 0.0041776197 0.04115535 -0.035583343 0.025478343 -0.04166144 0.031937707 0.038916282
0.05432686 0.0022846363 0.033325966 0.053924248 0.049108334 0.06309868 -0.017304571 -0.03848635
-0.044983134 -0.0006932555 0.07081986 -0.03833126 -0.061693516 -0.05683576 -0.0109362975 -0.08119435
-0.031174663 -0.025300836 -0.061706576 -0.034075134 -0.028637426 -0.09194565 0.045359 -0.021711152
0.03947735 0.04930266 -0.028199749 0.008696974 -0.06259392 -0.053406868 -0.016556516 -0.03090252
-0.07257777 -0.07203985 0.022229578 -0.012235748 0.018359855 -0.03593164 -0.01609399 -0.05034791
0.027891247 0.03815613 -0.07561995 0.0059612985 0.04016927 -0.06908264 -0.032578453 0.09416349
-0.094267145 -0.0056992047 0.018143672 -0.06899309 0.061213877 -0.023840664 -0.044658694 0.05450494
-0.030080196 0.011291593 0.032080263 -0.038432863 0.05453695 -0.011985708 0.016892133 0.010204519
0.060653437 0.012382566 0.016576191 0.07248434 0.09227251 -0.16976695 0.025501879 -3.5084224e-05
-0.04206118 0.085049525 -0.05851219 0.034040023 -0.0034925314 0.0067550773 -0.0610141 -0.011377812
0.0590579 -0.06122607 0.030304903 0.044991367 -0.06571934 0.026095375 -0.001760484 -0.020825436
0.040178947 -0.05763546 -0.07380976 0.061184615 -0.026441213 -0.04473006 0.09423546 -0.031435575
0.012632793 -0.023683717 -0.0063125207 -0.046503194 -0.008439444 0.03750006 -0.12688477 0.045847442
-0.06745318 0.014547215 0.033746995 -0.02818156 0.0065915524 -0.041158542 0.01582888 -0.042300794
-0.055708364 -0.08581381 0.04354933 0.058765497 -0.05485593 0.051165655 0.025494488 0.026847111
0.023558507 -0.04502275 -0.015266399 -0.03161522 0.022040969 -0.011376018 -0.07631032 0.06274997
-0.015279286 -0.040014733 0.09090107 -0.023231335 0.031995375 -0.030581206 -0.026382592 -0.0069731283
0.034169115 -0.07272438 0.070911475 -0.057761334 -0.055921286 -0.04105401 0.078084685 -0.050140277
-0.08189648 0.071626596 0.04656155 0.032104697 -0.062314365 0.045031056 -0.047655717 0.02242358
-0.019737188 0.047769547 0.046655424 -0.093621865 0.029938824 -0.013465023 0.012037571 -0.06627699
-0.042329255 0.024504911 0.039839707 -0.017870232 0.062280778 0.0134136025 -0.060345627 0.03648038
-0.012448115 0.058832195 0.0032782233 -0.05488029 -0.057976726 -0.019497707 0.041617364 -0.0035563493
-0.07472758 -0.09610332 -0.0273356 -0.07288305 -0.013619436 -0.022674749 -0.008405643 -0.06790455
0.009595107 0.0243492 -0.030276744 -0.063704245 -0.033753168 0.012862927 0.07471708 0.0022177915
-0.07019002 -0.012275965 0.007597742 -0.06253911 -0.04676291 -0.069440186 -0.076502964 0.00898548
0.044073727 -0.06667845 -0.012761891 0.015313761 -0.01354598 0.018945077 0.015625086 -0.049203902
0.014142353 0.01363274 0.012744788 0.032408338 -0.042595327 -0.051672578 0.01609657 -0.021253115
00000000: edb4 b4bd 0a41 723d cf21 e7bc 2891 3bbd
00000010: 1493 a9bc fc02 ce3c aeb7 ce3b 2e0a 89bd
00000020: 4361 8a3d 8dad 0b3d 45e0 d2bc 48eb 463d
00000030: d4cd 733b 5bf1 2cbd 1ca0 3d3d b98c 57bd
00000040: e55b 33bd 6b0d cf3b 3640 0a3d b893 23bd
00000050: 0953 74bd d3b9 763d 5510 33bd 275d 3fbc
00000060: a943 9cbd a2b8 1e3b aa55 5d3d 3883 94bd
00000070: b5db 063d 9d64 56bd 87bc 51bd ac35 74bc
00000080: da39 673d 6ae4 883b 8392 283d d7bf 11bd
00000090: f5b7 d03c 30a5 2abd 1dd1 023d ae66 1f3d
000000a0: d785 5e3d d6b9 153b cf80 083d acdf 5c3d
000000b0: d225 493d e139 813d 51c2 8dbc dda3 1dbd
000000c0: 3c40 38bd 97bb 35ba 010a 913d 3d01 1dbd
000000d0: 57b2 7cbd 9dcc 68bd 282e 33bc 3949 a6bd
000000e0: 0262 ffbc b343 cfbc 09c0 7cbd 5e92 0bbd
000000f0: 0999 eabc 004e bcbd 5cca 393d 96db b1bc
00000100: 00b3 213d 96f1 493d 2903 e7bc c17d 0e3c
00000110: 3e31 80bd 29c1 5abd 88a1 87bc 4827 fdbc
00000120: a7a3 94bd a189 93bd ce1a b63c 7278 48bc
00000130: 6867 963c 0e2d 13bd 8bd7 83bc 9c39 4ebd
00000140: 2f7c e43c 9a49 1c3d a2de 9abd ff56 c33b
00000150: 8888 243d 337b 8dbd fc70 05bd cad8 c03d
00000160: 220f c1bd 65c0 babb 0aa2 943c 404c 8dbd
00000170: 67bb 7a3d 7f4d c3bc 09ec 36bd 9240 5f3d
00000180: be6a f6bc 6000 393c 9866 033d c76b 1dbd
00000190: 2362 5f3d b45f 44bc 5f61 8a3c db30 273c
000001a0: bd6f 783d 3fe0 4a3c cbca 873c ab72 943d
000001b0: 5ff9 bc3d 63d7 2dbe 51e9 d03c 6627 13b8
000001c0: 5848 2cbd 722e ae3d 7aaa 6fbd 8d6d 0b3d
000001d0: f4e2 64bb b259 dd3b ece9 79bd 016a 3abc
000001e0: b2e6 713d 30c8 7abd fd41 f83c de48 383d
000001f0: dd97 86bd f8c5 d53c 0ac0 e6ba 1b9a aabc
00000200: ae92 243d 2913 6cbd 9229 97bd b89c 7a3d
00000210: 3e9b d8bc de36 37bd 85fe c03d 97c2 00bd
00000220: c6f9 4e3c 5b04 c2bc 43d9 cebb 227a 3ebd
00000230: 9845 0abc aa99 193d 15ee 01be 87ca 3b3d
00000240: e524 8abd 7157 6e3c 4a3a 0a3d 04dd e6bc
00000250: f3fd d73b dc95 28bd 91ab 813c 9943 2dbd
00000260: 742e 64bd 27bf afbd c860 323d 17b4 703d
00000270: 9db0 60bd 1493 513d d1d9 d03c 79ee db3c
00000280: c5fd c03c c669 38bd eb1f 7abc f67e 01bd
00000290: 438f b43c 7a62 3abc 9648 9cbd 0e83 803d
000002a0: f855 7abc 7de6 23bd 572a ba3d a44f bebc
000002b0: 950d 033d 7085 fabc 4e20 d8bc d77e e4bb
000002c0: eaf4 0b3d 85f0 94bd 093a 913d 2697 6cbd
000002d0: b80d 65bd 4028 28bd ddea 9f3d e45f 4dbd
000002e0: 57b9 a7bd f7b0 923d 53b7 3e3d 3780 033d
000002f0: 593d 7fbd 7c72 383d a432 43bd a8b1 b73c
00000300: e2af a1bc 00aa 433d c219 3f3d d2bc bfbd
00000310: 4442 f53c 669c 5cbc 3b39 453c 3bbc 87bd
00000320: 7161 2dbd 86be c83c f62e 233d 9864 92bc
00000330: 211a 7f3d bac4 5b3c fa2c 77bd 736c 153d
00000340: 2ef3 4bbc 07fa 703d 76d7 563b 28ca 60bd
00000350: 0179 6dbd a8b9 9fbc f876 2a3d a411 69bb
00000360: c60a 99bd d1d1 c4bd e9ee dfbc b543 95bd
00000370: 0e24 5fbc 65c0 b9bc d2b7 09bc 8a11 8bbd
00000380: cc34 1d3c f977 c73c ef06 f8bc 5f77 82bd
00000390: c340 0abd 07bf 523c 4505 993d 5e58 113b
000003a0: c9bf 8fbd 2121 49bc 7bf6 f83b 8114 80bd
000003b0: 778a 3fbd a836 8ebd 96ad 9cbd d637 133c
000003c0: a786 343d b68e 88bd 4017 51bc 92e6 7a3c
000003d0: f5ef 5dbc b532 9b3c 2e00 803c 088a 49bd
000003e0: 54b5 673c db5b 5f3c 84cf 503c 9bbe 043d
000003f0: 7078 2ebd a0a6 53bd f4dc 833c 031b aebc

bias f4 [64]
-0.06717175 0.016812634 0.04650852 0.04500794 0.005819635 -0.06481099 0.022879861 -0.05340666
-0.00832747 -0.051765412 -0.022528213 0.045646254 0.06253783 0.005809042 -0.015612148 0.03306483
0.035678193 0.01950398 -0.069943585 -0.045252565 -0.0509969 -0.04679933 0.033681378 -0.046739317
0.022406718 0.0113762235 -0.056963786 -0.041530043 0.022465695 0.042008366 0.04904497 -0.06705089
-0.05989557 0.013472558 0.027895438 0.019356163 -0.029797338 -0.029621191 0.057215244 -0.07057959
-0.0047840313 -0.04560538 0.027075265 -0.012300243 -0.029719109 -0.024490502 -0.001297362 -0.060579814
0.032347236 -0.014040137 -0.06481226 0.01726148 0.03356085 0.04958973 0.03828677 0.02641211
0.04089206 -0.023209203 0.002687477 -0.044149615 0.030232986 -0.062215704 -0.007251731 0.0066508465
00000000: 5891 89bd a6ba 893c b87f 3e3d 3f5a 383d
00000010: a3b2 be3b a0bb 84bd 8c6e bb3c f1c0 5abd
00000020: f16f 08bc f807 54bd 168d b8bc 91f7 3a3d
00000030: d513 803d c759 be3b 18ca 7fbc fd6e 073d
00000040: 4c23 123d d0c6 9f3c 953e 8fbd c15a 39bd
00000050: 20e2 50bd a7b0 3fbd 7cf5 093d ba71 3fbd
00000060: 4b8e b73c 5763 3a3c dc52 69bd 681b 2abd
00000070: fa09 b83c f710 2c3d 61e3 483d fa51 89bd
00000080: 0f55 75bd 01bc 5c3c f984 e43c d190 9e3c
00000090: 8c19 f4bc 24a8 f2bc 885a 6a3d 088c 90bd
000000a0: 5dc3 9cbb b5cc 3abd f2cc dd3c f586 49bc
000000b0: 7d75 f3bc 4ea0 c8bc 3f0c aaba 8a22 78bd
000000c0: 897e 043d 9a08 66bc 4abc 84bd f367 8d3c
000000d0: 1a77 093d 9a1e 4b3d 97d2 1c3d 365e d83c
000000e0: 6f7e 273d 3a21 bebc 6220 303b 3ad6 34bd
000000f0: 2bab f73c e5d5 7ebd ee9f edbb 58ef d93b

weight f4 [64, 64, 3]
0.005105605 0.08915742 -0.08853212 -0.04542014 -0.0050837025 -0.08505716 -0.0090593295 -0.01991895
-0.0041979356 0.008423061 0.03849549 -0.057880234 -0.05669139 0.05793578 -0.0040157507 0.046071377
0.016578522 0.02762473 0.050427973 -0.009762515 0.038819533 0.07633446 0.06027699 -0.016324127
-0.030816799 -0.026113028 -0.0063683856 -0.038151685 -0.059892707 -0.014103491 -0.023061203 0.062302705
0.000104990104 -0.014587748 -0.03699841 0.044099975 -0.036450855 0.029221281 0.05957359 -0.01540651
-0.05996159 0.08309229 -0.006144462 0.06314156 0.06303936 -0.0113833165 -0.005777585 -0.05929815
0.01705742 -0.046385173 -0.011961274 0.011798988 0.045985848 0.120299235 0.09382251 0.07682991
-0.01861068 -0.08387821 0.007300824 -0.06814683 0.05948278 0.016480597 -0.02520957 -0.06443093
0.010127235 0.056825846 0.023402384 0.024959303 -0.0021382263 0.02444798 -0.062372547 0.020041604
-0.0006644011 0.07590628 -0.057338927 -0.06993455 -0.0065531232 -0.026573978 -0.072321504 -0.009888688
-0.0032193107 0.049264885 0.04634458 -0.0059775943 -0.00062981213 -0.036179382 -0.0019774523 0.065453485
-0.016194588 0.038944505 -0.08271551 -0.027222568 0.021638578 0.029213212 -0.017713202 0.09192323
-0.042194016 -0.077139616 -0.043480136 -0.037431672 0.043447718 0.018207511 -8.539219e-05 0.01156198
0.022488285 -0.011502551 0.0028174054 0.08934831 -0.020618822 -0.08100224 0.08321792 0.047431108
-0.055050943 -0.006247719 0.021057345 -0.03396911 -0.056755304 0.0041572964 0.020389955 -0.017288355
-0.009064123 0.06686377 -0.042057365 -0.0022225073 0.08989819 0.080913186 -0.03266642 -0.02450186
-0.023841908 -0.015287196 0.069267936 -0.06969938 -0.0159541 0.007068664 -0.09263332 0.02339038
0.06893347 0.0016857224 0.022571659 0.0750219 -0.04031973 -0.085107885 0.012948476 0.0565852
0.013596669 -0.011319367 -0.047129434 -0.024455812 0.0666362 -0.039155304 -0.005723102 -0.0070902896
-0.07216163 -0.003430379 0.0029408783 -0.0453014 -0.04681804 0.03412941 -0.07462021 -0.03942821
0.07118482 -0.008558735 -0.024920953 -0.034772776 0.077654496 -0.043892812 -0.033945307 0.005758953
-0.037641842 0.025408845 -0.049665388 0.013413546 -0.0021286947 0.07419376 0.0072526704 -0.0217265
0.031129751 -0.026610175 0.06384477 -0.07159846 -0.0075106383 -0.033617258 0.045649532 0.029813224
-0.052535277 -0.04437409 -5.9531605e-05 -0.0598143 -0.024725234 -0.026172796 -0.0045441873 -0.024442235
0.010210021 0.062316876 -0.05529058 -0.018220399 -0.012308416 -0.0065016737 0.044369698 0.0014262785
-0.018214723 -0.020655742 -0.034496732 0.04487757 0.05430108 0.013740317 -0.02279014 -0.028572664
-0.065308094 -0.054196794 -0.04117359 0.052519042 -0.0081649 -0.038628705 -0.06112185 -0.055026792
-0.032465287 0.03612414 0.043682713 0.023889923 -0.027834108 -0.039067592 -0.06589007 0.005510871
0.04055098 0.012841358 0.06375667 -0.048308503 0.022553436 -0.054262076 -0.03068985 0.020989968
0.05252497 0.021175493 0.02834537 -0.031526055 0.07074138 -0.054407816 0.025509395 0.027584843
-0.013708302 -0.04076789 -0.08742514 0.03416578 -0.051661342 0.082093716 0.052401952 0.017077155
0.0014278123 0.05318449 -0.040626045 0.022044268 0.0038746488 -0.023578102 -0.008358601 -0.0049176393
00000000: eb4c a73b 2a98 b63d 5450 b5bd 780a 3abd
00000010: 3095 a6bb 7332 aebd 956d 14bc 112d a3bc
00000020: d68e 89bb e100 0a3c 72ad 1d3d d313 6dbd
00000030: 3b35 68bd 124e 6d3d 8f96 83bb 57b5 3c3d
00000040: aecf 873c 424d e23c 908d 4e3d f5f2 1fbc
00000050: 3b01 1f3d 3e55 9c3d 01e5 763d 2dba 85bc
00000060: 8373 fcbc fdea d5bc e4ad d0bb f144 1cbd
00000070: 0e52 75bd 5412 67bc d9ea bcbc 1f31 7f3d
00000080: 222e dc38 7301 6fbc a58b 17bd 2da2 343d
00000090: 7e4d 15bd 7861 ef3c 7003 743d 966b 7cbc
000000a0: 499a 75bd 4a2c aa3d 7c57 c9bb 5d50 813d
000000b0: c81a 813d 1781 3abc e551 bdbb 9ee2 72bd
000000c0: 01bc 8b3c 61fe 3dbd 38f9 43bc 8b50 413c
000000d0: a85b 3c3d 725f f63d 0426 c03d 0059 9d3d
000000e0: 6d75 98bc 57c8 abbd c03b ef3b 9190 8bbd
000000f0: 37a4 733d 5102 873c 4d84 cebc 5df4 83bd
00000100: b4ec 253c 38c2 683d 5bb6 bf3c 7477 cc3c
00000110: 7c21 0cbb 2147 c83c 5b7a 7fbd 4a2e a43c
00000120: 342b 2eba c074 9b3d 39dc 6abd d839 8fbd
00000130: 95bb d6bb acb1 d9bc 4c1d 94bd 2a04 22bc
00000140: 12fb 52bb fac9 493d d0d3 3d3d b2df c3bb
00000150: fa19 25ba d530 14bd 2598 01bb 7a0c 863d
00000160: 83aa 84bc 4684 1f3d c066 a9bd dd01 dfbc
00000170: 6343 b13c 8c50 ef3c 471b 91bc 3f42 bc3d
00000180: a2d3 2cbd 60fb 9dbd 3a18 32bd f451 19bd
00000190: 3cf6 313d eb27 953c 9514 b3b8 756e 3d3c
000001a0: 5a39 b83c 3275 3cbc 38a4 383b 3ffc b63d
000001b0: cee8 a8bc 81e4 a5bd 286e aa3d 1f47 423d
000001c0: 197d 61bd aab9 ccbb 7480 ac3c 3223 0bbd
000001d0: 4078 68bd ee39 883b d608 a73c 4fa0 8dbc
000001e0: b081 14bc dfef 883d 5844 2cbd 7ca7 11bb
000001f0: 8b1c b83d d0b5 a53d 39cd 05bd 20b8 c8bc
00000200: 1b50 c3bc 2677 7abc 59dc 8d3d 8cbe 8ebd
00000210: 2cb2 82bc 40a0 e73b 8ab6 bdbd 2f9d bf3c
00000220: fe2c 8d3d 75f3 dc3a 33e8 b83c 15a5 993d
00000230: 4d26 25bd 0b4d aebd d825 543c e2c5 673d
00000240: 90c4 5e3c de74 39bc cb0a 41bd 8e57 c8bc
00000250: 8f78 883d 5061 20bd dc88 bbbb a955 e8bb
00000260: 7ac9 93bd 36d0 60bb c0bb 403b f68d 39bd
00000270: 46c4 3fbd 48cb 0b3d 7bd2 98bd 7a7f 21bd
00000280: 59c9 913d f039 0cbc 0727 ccbc e66d 0ebd
00000290: 5209 9f3d f3c8 33bd 3c0a 0bbd 99b5 bc3b
000002a0: 552e 1abd 3626 d03c ef6d 4bbd 7dc4 5b3c
000002b0: 9281 0bbb e6f2 973d cfa7 ed3b c6fb b1bc
000002c0: d203 ff3c 95fd d9bc 0cc1 823d 37a2 92bd
000002d0: cd1b f6bb 40b2 09bd 01fb 3a3d dd3a f43c
000002e0: 3b2f 57bd 9bc1 35bd 93b1 79b8 d7ff 74bd
000002f0: 938c cabc 5568 d6bc 68e7 94bb 153b c8bc
00000300: ef47 273c fb3f 7f3d 6078 62bd f242 95bc
00000310: 3da9 49bc fe0b d5bb 00bd 353d f7f1 ba3a
00000320: 0b37 95bc 3b36 a9bc 724c 0dbd 8bd1 373d
00000330: cf6a 5e3d 111f 613c 63b2 babc 3811 eabc
00000340: 40c0 85bd 75fd 5dbd a3a5 28bd 351e 573d
00000350: 13c6 05bc 2239 1ebd e85a 7abd c663 61bd
00000360: 52fa 04bd e8f6 133d a5ec 323d cdb4 c33c
00000370: 5b04 e4bc 5705 20bd 5ff1 86bd 8994 b43b
00000380: c918 263d 8f64 523c db92 823d 23df 45bd
00000390: fcc1 b83c e941 5ebd 4869 fbbc 27f3 ab3c
000003a0: 6c24 573d 3a78 ad3c 8d34 e83c 7721 01bd
000003b0: dbe0 903d bbda 5ebd 14f9 d03c 9cf9 e13c
000003c0: c998 60bc 3bfc 26bd f40b b3bd 6bf1 0b3d
000003d0: d89a 53bd c020 a83d 6ea3 563d 64e5 8b3c
000003e0: 6e25 bb3a fbd7 593d 7f67 26bd 2e96 b43c
000003f0: d2ed 7d3b dd26 c1bc 83f2 08bc 2624 a1bb

bias f4 [64]
-0.06328567 -0.05446876 -0.04348743 0.03329437 -0.06317565 0.0316015 0.022364687 -0.07637363
0.030317906 0.051547825 0.023252577 -0.06046691 0.012230091 -0.070613265 0.01882471 -0.07592017
0.006765141 -0.022087164 0.018671907 -0.07144132 -0.043080226 -0.002347771 0.008471582 -0.005038183
0.06787432 0.011979708 -0.008710971 -0.0430059 -0.059611347 -0.01649796 -0.07150679 -0.05968528
-0.020778237 -0.08873571 -0.06849099 0.049682412 0.015030926 0.020610565 -0.04679725 -0.044389006
-0.0717194 0.022533273 -0.034737248 -0.052584644 0.0009953335 0.009799359 0.026907627 0.02368561
-0.0060079102 0.03706563 -0.037669186 0.02573234 -0.06399593 0.046187922 -0.02905181 0.018205825
0.035166584 -0.055051323 -0.016326373 0.024282856 0.03469417 -0.013803608 -0.05004317 0.02722457
00000000: eb9b 81bd a21a 5fbd e01f 32bd ad5f 083d
00000010: 3c62 81bd 9370 013d 2636 b73c c769 9cbd
00000020: 425d f83c d023 533d 307c be3c 27ac 77bd
00000030: b860 483c b09d 90bd 4736 9a3c 097c 9bbd
00000040: 1eae dd3b 24f0 b4bc d4f5 983c d44f 92bd
00000050: e474 30bd 10dd 19bb 64cc 0a3c 5817 a5bb
00000060: b101 8b3d 8a46 443c 76b8 0ebc f426 30bd
00000070: 072b 74bd bb26 87bc 2772 92bd 8d78 74bd
00000080: 1f37 aabc 11bb b5bd 0145 8cbd c97f 4b3d
00000090: 4644 763c 7dd7 a83c 79ae 3fbd 3fd1 35bd
000000a0: 9fe1 92bd b397 b83c a548 0ebd ff62 57bd
000000b0: da75 823a 7e8d 203c 626d dc3c 5308 c23c
000000c0: 01de c4bb 21d2 173d 014b 1abd a1cc d23c
000000d0: 4c10 83bd 8c2f 3d3d 10fe edbc 6224 953c
000000e0: d60a 103d 7f7d 61bd e3be 85bc d7ec c63c
000000f0: 791b 0e3d 8728 62bc 11fa 4cbd 1006 df3c

weight f4 [64, 64, 3]
0.021060007 -0.0039092726 0.042492174 -0.0112244515 -0.053037193 0.02679819 0.0005046166 0.070820905
-0.013066684 0.039677843 0.0022251178 0.041435275 -0.050286707 0.019556021 0.046976656 -0.042505153
0.070815 -0.00033430514 0.005820258 0.023520837 -0.030909259 0.03331962 -0.060892865 0.010326743
0.053834066 -0.05596546 -0.043298937 0.01948256 -0.03212729 0.030880833 0.0058799065 -0.053356405
-0.0059697856 0.036806077 0.032121286 -0.054571707 -0.021317832 -0.009474127 0.06417098 0.013355646
0.03343493 -0.07133272 -0.003978016 -0.015512598 0.04406491 0.0039697755 -0.056601617 -0.08412577
0.07347964 0.0026509487 -0.02839359 -0.009006501 0.05011672 -0.0070406995 0.058029126 -0.04007894
-0.025402775 -0.038051672 -0.031612895 -0.028593851 0.0039341785 -0.059013937 -0.00419561 -0.04552447
0.035397507 0.06954572 -0.041243333 0.059826165 -0.012704536 -0.0750026 0.042472057 -0.008405682
-0.047612704 0.055961337 -0.024830906 -0.071441814 -0.024022037 0.0014712255 -0.04955185 0.015100892
-0.013542442 -0.0150850145 0.039505653 0.03248067 0.06258467 0.03287412 -0.05421167 -0.016380448
-0.022792462 -0.03263797 0.07003806 -0.012800505 -0.0079329945 0.04333024 0.060753945 0.023715403
-0.041121352 -0.011134466 0.008754274 0.023980733 -0.041381035 -0.053823523 0.06626735 0.07099394
0.02580144 -0.04252554 -0.022229688 -0.049945448 -0.018644456 0.0050289747 0.0714996 -0.042587772
0.055913795 0.057612866 0.011486397 0.020487823 0.069597974 0.054459237 -0.051032253 -0.007173055
-0.06422433 1.6669173e-05 0.08222959 0.0041285586 0.0144008305 0.06178602 -0.05648478 -0.049884636
0.028169585 0.03179316 0.024938844 -0.06762465 0.032721814 0.0079482505 0.0021909522 -0.0408201
-0.0021527365 0.043344002 -0.0391832 -0.034338195 -0.02454735 0.0059246793 -0.034018982 -0.06489484
-0.032978408 0.034578342 -0.031726755 0.02240809 5.2528508e-06 -0.04889989 -0.016136326 0.027231663
0.019282458 -0.035895493 -0.011429523 0.05230774 0.010631857 -0.02591613 0.04579234 0.03992305
-0.012223721 0.037697397 -0.037990965 0.040052146 0.0020971044 -0.068458416 0.007429734 0.03333956
-0.06369619 0.0050305696 -0.04178148 -0.0481696 0.022429 -0.030727668 0.035591763 0.035568286
-0.051256835 -0.022381917 0.00071457523 -0.027252283 -0.027980506 -0.0626181 -0.07157217 -0.015029496
0.06615829 -0.07385297 -0.017803026 0.02635984 -0.06099402 -0.07137391 -0.013010765 0.055451646
-0.014139968 -0.0055989847 -0.011025035 0.023561252 0.047844946 0.044758298 -0.010774404 0.06260193
-0.117165826 -0.027564075 0.064007215 0.054283373 0.002356722 0.0035326157 0.004762399 -0.021069366
0.02168645 0.016064918 0.01238225 -0.048276342 0.02458908 -0.04488889 -0.03786263 0.047068287
-0.031478427 0.03608859 0.013312848 0.07324353 0.07352596 -0.034465652 0.015954802 0.012076957
0.026657838 -0.043698534 -0.0046457974 0.011246821 0.010795281 -0.00142666 -0.04548905 -0.008864801
-0.014623526 0.028589891 0.00343895 0.0026820635 -0.032230217 0.036850665 0.005769077 -0.065268524
0.047527183 -0.033352453 -0.09845113 -0.010420306 0.044205267 0.021623202 -0.052254196 0.006455043
0.06436828 0.10332796 0.061202023 0.062016863 0.05987381 -0.056420278 0.022575239 0.05359814
00000000: 0986 ac3c 5b19 80bb 460c 2e3d c3e6 37bc
00000010: 873d 59bd e187 db3c 3f48 043a 8d0a 913d
00000020: a515 56bc 3c85 223d 48d3 113b 09b8 293d
00000030: 6ff9 4dbd f333 a03c 986a 403d e219 2ebd
00000040: 7407 913d ad45 afb9 ddb7 be3b c5ae c03c
00000050: 6a35 fdbc 277a 083d cc6a 79bd 8031 293c
00000060: 1c81 5c3d 0a3c 65bd 3a5a 31bd e499 9f3c
00000070: e897 03bd cdf9 fc3c 3bac c03b 3f8c 5abd
00000080: 319e c3bb f8c1 163d 9c91 033d 9586 5fbd
00000090: bca2 aebc 5e39 1bbc 136c 833d a4d1 5a3c
000000a0: 11f3 083d e416 92bd 045a 82bb 8d28 7ebc
000000b0: 687d 343d e414 823b 19d7 67bd 224a acbd
000000c0: 7e7c 963d 8abb 2d3b ad99 e8bc 0190 13bc
000000d0: 3147 4d3d abb5 e6bb f3af 6d3d d129 24bd
000000e0: 7b19 d0bc 12dc 1bbd 867c 01bd a73d eabc
000000f0: 48ea 803b 99b8 71bd 547b 89bb de77 3abd
00000100: fafc 103d fd6d 8e3d c5ee 28bd 480c 753d
00000110: b026 50bc f79a 99bd 2ef7 2d3d fcb7 09bc
00000120: 8a05 43bd b737 653d 2f6a cbbc 1650 92bd
00000130: ddc9 c4bc 23d6 c03a e1f6 4abd bb69 773c
00000140: 1ee1 5dbc 2327 77bc aed0 213d 730a 053d
00000150: 642c 803d 03a7 063d 0e0d 5ebd 4a30 86bc
00000160: 42b7 babc 64af 05bd 1d70 8f3d 36b9 51bc
00000170: 64f9 01bc 0d7b 313d 21d9 783d ce46 c23c
00000180: dd6e 28bd 566d 36bc 166e 0f3c 3e73 c43c
00000190: 297f 29bd 0e76 5cbd 2db7 873d 4565 913d
000001a0: 8b5d d33c 432f 2ebd 091b b6bc 9993 4cbd
000001b0: 42bc 98bc 19ca a43b 626e 923d 8470 2ebd
000001c0: dd05 653d 78fb 6b3d 7131 3c3c 14d6 a73c
000001d0: 6289 8e3d a610 5f3d 3207 51bd f20b ebbb
000001e0: 0c88 83bd c7d4 8b37 fd67 a83d dc48 873b
000001f0: 76f1 6b3c 5613 7d3d 965c 67bd d553 4cbd
00000200: e7c3 e63c 8b39 023d 8c4c cc3c cb7e 8abd
00000210: 4f07 063d 6139 023c 1496 0f3b fa32 27bd
00000220: ed14 0dbb 7b89 313d 907e 20bd 35a6 0cbd
00000230: 8617 c9bc d023 c23b 7d57 0bbd 96e7 84bd
00000240: 5e14 07bd 05a2 0d3d eaf3 01bd 2c91 b73c
00000250: a541 b036 404b 48bd 5430 84bc f014 df3c
00000260: 3ff6 9d3c 2707 13bd e542 3bbc a440 563d
00000270: 3e31 2e3c 104e d4bc c090 3b3d 5a86 233d
00000280: 0046 48bc 9668 1a3d 6a9c 1bbd b80d 243d
00000290: 936f 093b ed33 8cbd 2075 f33b 108f 083d
000002a0: 2673 82bd 7ad7 a43b 0f23 2bbd 7d4d 45bd
000002b0: 06bd b73c 97b8 fbbc abc8 113d 0db0 113d
000002c0: b0f2 51bd 485a b7bc 5552 3b3a 2e40 dfbc
000002d0: 6037 e5bc eb3d 80bd 6e94 92bd 463e 76bc
000002e0: ff7d 873d 3a40 97bd a7d7 91bc 97f0 d73c
000002f0: ded4 79bd 7c2c 92bd 1b2b 55bc 4421 633d
00000300: 53ab 67bc b077 b7bb 59a2 34bc 8703 c13c
00000310: 10f9 433d 7a54 373d 2087 30bc 7135 803d
00000320: a3f4 efbd 0ece e1bc 3716 833d 3e58 5e3d
00000330: 3c73 1a3b 7583 673b e60d 9c3b aa99 acbc
00000340: c8a7 b13c 939a 833c ecde 4a3c 6abd 45bd
00000350: 0a6f c93c 6add 37bd d815 1bbd adca 403d
00000360: 86ef 00bd a1d1 133d 221e 5a3c b400 963d
00000370: c794 963d db2b 0dbd a5b3 823c 6ede 453c
00000380: 8a61 da3c 3cfd 32bd c63b 98bb 9644 383c
00000390: b1de 303c c4fe baba ba52 3abd ac3d 11bc
000003a0: 8397 6fbc 5935 ea3c 0260 613b 8fc5 2f3b
000003b0: d503 04bd b9f0 163d 870a bd3b 81ab 85bd
000003c0: ddab 423d 959c 08bd bfa0 c9bd eeb9 2abc
000003d0: 9510 353d 2423 b13c 7f08 56bd d384 d33b
000003e0: 84d3 833d 9c9d d33d f9ae 7a3d 6505 7e3d
000003f0: 3d3e 753d f318 67bd b5ef b83c b989 5b3d

bias f4 [64]
-0.02556209 -0.033340406 -0.058939047 -0.0075455196 -0.053174566 0.02993227 -0.07498777 -0.034626756
-0.017341377 0.052871298 -0.0010378888 -0.07359903 0.046217147 0.024422826 0.0011178163 0.005795094
0.058625076 0.011460561 -0.033505343 0.030632526 -0.005954712 0.018996205 0.049356364 -0.043323413
-0.07234037 0.0068296944 -0.077445224 -0.075821415 -0.0074861096 -0.005854936 -0.05262126 0.026488919
-0.018990392 0.026754651 -0.008203085 0.03094309 0.059765752 -0.032808162 0.0113760885 -0.026515491
0.0046254885 -0.02819638 0.0049896855 -0.050273705 0.006840554 0.03742534 -0.017437587 -0.07435821
0.0061931396 0.014435235 -0.060344607 -0.019505773 0.061816696 -0.016979646 -0.039898135 0.04152741
-0.042496428 -0.058147304 0.044414055 0.008051777 -0.02006998 0.001770493 -0.00046636316 0.0074824397
00000000: 9767 d1bc f38f 08bd 126a 71bd 6840 f7bb
00000010: 93cd 59bd 8534 f53c 3093 99bd c9d4 0dbd
00000020: 810f 8ebc 938f 583d c509 88ba 17bb 96bd
00000030: 314e 3d3d 6112 c83c b183 923a c6e4 bd3b
00000040: d920 703d 14c5 3b3c e63c 09bd 10f1 fa3c
00000050: bf1f c3bb ee9d 9b3c e629 4a3d e473 31bd
00000060: 3027 94bd a1cb df3b 9a9b 9ebd 4248 9bbd
00000070: 0a4e f5bb c3da bfbb 6489 57bd 4aff d83c
00000080: bd91 9bbc 922c db3c 3b66 06bc 5d7c fd3c
00000090: efcc 743d da61 06bd c662 3a3c 0437 d9bc
000000a0: 6991 973b 18fc e6bc 8480 a33b cdeb 4dbd
000000b0: ba26 e03b 504b 193d 45d9 8ebc 1e49 98bd
000000c0: d2ef ca3b c481 6c3c e82b 77bd 92ca 9fbc
000000d0: 8133 7d3d e618 8bbc 3a6c 23bd a518 2a3d
000000e0: bc10 2ebd de2b 6ebd 83eb 353d 9aeb 033c
000000f0: cc69 a4bc e30f e83a 3482 f4b9 412f f53b

weight f4 [64, 64, 3]
0.027479805 -0.014108512 -0.04102827 -0.05651716 -0.024500862 0.027970253 -0.06215102 -0.016019888
0.04383061 0.015170615 -0.020010522 -0.037249994 0.021033956 -0.040691108 0.0065348656 -0.029865725
-0.07438863 -0.005003812 -0.07300346 -0.0047696317 -0.075248554 -0.05738593 -0.030677969 -0.087599
-0.053975273 0.0048256326 -0.028521597 -0.051635068 -0.003964693 -0.036560412 -0.06550961 -0.084397666
-0.10263876 0.10003794 0.045829356 0.0465316 0.038407084 0.040565215 0.028759578 -0.004679098
-0.062707655 -0.04943533 -0.0659739 -0.031458687 -0.07617244 0.018675972 -0.00669942 -0.010135673
-0.0450239 0.016879702 -0.004473183 -0.028015055 -0.021482239 -0.022082033 0.02666657 -0.027978728
0.05408908 0.01336004 -0.078610085 0.025588064 0.026564093 -0.030015538 0.007023897 -0.08282318
-0.0442082 0.032162063 0.044885155 -0.040956046 -0.008762431 -0.061870586 -0.0028732833 -0.0012678746
0.032298025 -0.051434424 -0.025715256 0.052243195 -0.0005816851 -0.045642693 -0.00848776 -0.068238586
0.01662726 0.020750405 0.043133415 0.05710437 0.062024206 -0.019713856 -0.016610725 0.008486316
0.02628928 0.014500497 0.014291498 -0.039717246 0.050122816 0.001440715 -0.058259122 0.0031894655
-0.014277429 0.0018316419 -0.031878646 -0.041660327 0.03509604 0.04103467 -0.042948995 0.013307763
0.05294807 -0.060761973 0.0034593672 0.000773103 -0.051384952 -0.091435105 -0.00033456276 -0.05472404
0.01319437 -0.040050853 0.05299811 -0.08238231 0.060281236 0.0017163691 -0.006143171 -0.0026929423
-0.017940782 0.00080915197 -0.089836985 0.01755101 0.005993671 -0.051026642 0.06936419 -0.029442927
-0.020349726 0.0062361243 2.5816018e-06 0.0474673 0.0057787052 -0.033110544 -0.00933536 -0.066645846
-0.06778784 0.019062731 -0.047962483 -0.07156786 -0.033910207 0.023837356 0.04370091 -0.055342015
-0.038361456 -0.0294591 0.012019309 0.015994461 -0.028527962 0.03957015 -0.020112893 0.044640504
-0.055093188 -0.012961565 0.015422525 0.064427435 -0.046514925 0.007456076 -0.033796925 -0.02136701
0.0033142283 0.006137042 -0.02531652 -0.061427467 -0.04753831 -0.0123696225 -0.03945759 0.026260855
0.014031795 0.064241335 -0.0003989891 0.039319918 -0.012202738 0.010832736 0.01682878 -0.0275186
0.05397307 0.033336993 -0.08267176 -0.037374474 0.020698791 0.031131135 -0.0060755815 0.029389383
-0.012233436 -0.03627623 0.07215692 0.0032998663 -0.029897276 -0.06604024 0.031075427 -0.023939217
0.028401833 0.04802008 0.03733435 -0.027167473 0.0565277 -0.022245636 -0.008930104 0.03269232
0.06950051 0.04201895 -0.01592594 0.0020561588 -0.040658988 0.02471331 -0.017050596 0.015662637
0.0016502232 -0.090960905 -0.00074742624 0.059016027 -0.0028055322 0.0052736904 0.044318497 0.06867221
0.019486057 0.029148558 0.004549049 0.023229955 0.0031549602 -0.031352352 0.009343673 0.10049497
0.0046880003 0.035091467 0.05064941 -0.0058441083 0.05244778 -0.011032037 0.03305365 0.048873723
0.035792474 -0.00044495362 -0.004440456 -0.0010157784 -0.06986137 -0.020516021 0.023161717 -0.0057055596
0.06277353 0.055429485 -0.012398825 0.04939139 0.06446076 -0.0142899165 4.617923e-05 0.075542144
-0.03072375 0.054737333 0.0053498247 -0.013123386 0.05075514 0.006216876 0.041559495 -0.029544804
00000000: 541d e13c 6327 67bc 420d 28bd 8a7e 67bd
00000010: 08b6 c8bc df21 e53c 1192 7ebd 243c 83bc
00000020: ba87 333d 2c8e 783c 1bed a3bc 7393 18bd
00000030: 674f ac3c b8ab 26bd 6d22 d63b f7a8 f4bc
00000040: 1159 98bd 04f7 a3bb d782 95bd 924a 9cbb
00000050: ea1b 9abd 820d 6bbd 5d50 fbbc 1b67 b3bd
00000060: 2d15 5dbd 5720 9e3b 20a6 e9bc 4b7f 53bd
00000070: 41ea 81bb 5fc0 15bd e729 86bd afd8 acbd
00000080: 4534 d2bd b1e0 cc3d 90b7 3b3d eb97 3e3d
00000090: bf50 1d3d b627 263d 3599 eb3c 1e53 99bb
000000a0: df6c 80bd b37c 4abd 531d 87bd d3da 00bd
000000b0: 4c00 9cbd 5afe 983c cf86 dbbb 1810 26bc
000000c0: fb6a 38bd 4d47 8a3c c793 92bb d47f e5bc
000000d0: 85fb afbc 61e5 b4bc da73 da3c a533 e5bc
000000e0: 838c 5d3d 12e4 5a3c 53fe a0bd 0f9e d13c
000000f0: f19c d93c 25e3 f5bc b828 e63b 339f a9bd
00000100: a813 35bd 5ebc 033d 7fd9 373d 87c1 27bd
00000110: 4d90 0fbc 036c 7dbd b24d 3cbb d02e a6ba
00000120: ef4a 043d e7ac 52bd cda8 d2bc f6fc 553d
00000130: 3a7c 18ba d5f3 3abd 3f10 0bbc acc0 8bbd
00000140: e435 883c c1fc a93c aaac 303d 46e6 693d
00000150: 180d 7e3d f47e a1bc 3713 88bc 300a 0b3c
00000160: 9e5c d73c 7e93 6d3c e326 6a3c 8dae 22bd
00000170: 954d 4d3d 60d6 bc3a 1ea1 6ebd 5a06 513b
00000180: e1eb 69bc b413 f03a 2f93 02bd 05a4 2abd
00000190: dec0 0f3d f813 283d 49eb 2fbd ce08 5a3c
000001a0: 13e0 583d 8ce1 78bd 8db6 623b 10aa 4a3a
000001b0: 0779 52bd 5442 bbbd 4168 afb9 5126 60bd
000001c0: 332d 583c 5d0c 24bd 8c14 593d 0eb8 a8bd
000001d0: 75e9 763d caf7 e03a a74c c9bb 137c 30bb
000001e0: 8cf8 92bc 451d 543a 74fc b7bd 23c7 8f3c
000001f0: 8e66 c43b 5001 51bd d00e 8e3d 4b32 f1bc
00000200: 78b4 a6bc 6758 cc3b 953f 2d36 126d 423d
00000210: 4b5b bd3b ec9e 07bd 56f3 18bc 9e7d 88bd
00000220: 5ad4 8abd 7229 9c3c 4f74 44bd 2c92 92bd
00000230: 6ee5 0abd 8f46 c33c baff 323d 4fae 62bd
00000240: e720 1dbd 3654 f1bc a3ec 443c d106 833c
00000250: 79b3 e9bc 4f14 223d cbc3 a4bc f6d8 363d
00000260: 65a9 61bd be5c 54bc c2ae 7c3c 88f2 833d
00000270: 6f86 3ebd 1952 f43b a56e 0abd de09 afbc
00000280: 8633 593b 3d19 c93b 9764 cfbc 5e9b 7bbd
00000290: 88b7 42bd f5a9 4abc 489e 21bd 0121 d73c
000002a0: 9de5 653c f690 833d 692f d1b9 ec0d 213d
000002b0: feed 47bc ca7b 313c 82dc 893c b06e e1bc
000002c0: de12 5d3d 5f8c 083d d04f a9bd fa15 19bd
000002d0: 8390 a93c b906 ff3c ac15 c7bb 01c2 f03c
000002e0: c06e 48bc 6296 14bd 02c7 933d 9242 583b
000002f0: 22eb f4bc 1b40 87bd e591 fe3c 2d1c c4bc
00000300: f6aa e83c b4b0 443d e7eb 183d 528e debc
00000310: 9789 673d 7b3c b6bc 924f 12bc 62e8 053d
00000320: 4956 8e3d 101c 2c3d 1e77 82bc 9fc0 063b
00000330: 0a8a 26bd 9173 ca3c b1ad 8bbc ee4e 803c
00000340: 4d4c d83a b649 babd edee 43ba caba 713d
00000350: 05dd 37bb ecce ac3b 5087 353d 04a4 8c3d
00000360: 39a1 9f3c f5c8 ee3c 3010 953b bf4c be3c
00000370: 73c3 4e3b 536b 00bd 3416 193c 4fd0 cd3d
00000380: cc9d 993b 12bc 0f3d c175 4f3d ef7f bfbb
00000390: 7cd3 563d b8bf 34bc 4463 073d d02f 483d
000003a0: 219b 123d aa48 e9b9 3f81 91bb de23 85ba
000003b0: 7a13 8fbd 3711 a8bc a4bd bd3c b4f5 babb
000003c0: 698f 803d 070a 633d 7124 4bbc a04e 4a3d
000003d0: 0104 843d 4120 6abc 92b0 4138 d7b5 9a3d
000003e0: 60b0 fbbc 4134 603d 954d af3b 7803 57bc
000003f0: 9fe4 4f3d f0b6 cb3b 4a3a 2a3d f207 f2bc

bias f4 [64]
0.046864245 -0.043830402 0.025255524 0.024729278 0.049889054 0.025238715 0.012976486 0.033030204
-0.038159974 0.04829967 0.07223971 0.006607779 -0.03926771 -0.05401873 -0.07403567 0.0058173584
0.04730094 -0.0085429605 0.047475368 -0.03591226 -0.017007714 -0.016811319 0.03042515 -0.06812768
-0.008591788 -0.035099447 -0.0074165175 0.0028305613 -0.0749173 -0.001034582 0.0039741336 -0.007933042
-0.05506353 -0.042195186 0.011385504 0.029190645 -0.011754073 0.0071900054 -0.016125858 -0.009127066
-0.054751564 -0.04060578 0.005215875 -0.053980365 -0.02018338 -0.052711926 0.0010688785 0.06867027
-0.051573943 0.058513187 -0.05150313 -0.028932491 -0.02068357 -0.04011732 0.00020482742 0.054619208
0.04413172 0.032952994 -0.054738495 0.014590441 0.03511112 -0.067937754 0.029098785 0.038305644
00000000: b9f4 3f3d 8287 33bd ace4 ce3c 0e95 ca3c
00000010: 7758 4c3d 6cc1 ce3c 549b 543c ae4a 073d
00000020: a24d 1cbd e0d5 453d 6af2 933d 1186 d83b
00000030: 2ed7 20bd be42 5dbd 03a0 97bd 8a9f be3b
00000040: a1be 413d c6f7 0bbc 8875 423d bc18 13bd
00000050: c353 8bbc e4b7 89bc 2a3e f93c 8686 8bbd
00000060: 92c4 0cbc 70c4 0fbd 4206 f3bb f080 393b
00000070: 3e6e 99bd d09a 87ba 7339 823b 97f9 01bc
00000080: 4c8a 61bd dcd4 2cbd 448a 3a3c 3821 ef3c
00000090: 2894 40bc 239a eb3b 601a 84bc b089 15bc
000000a0: 2d43 60bd 3f52 26bd eee9 aa3b 841a 5dbd
000000b0: 9e57 a5bc 76e8 57bd 9c19 8c3a 00a3 8c3d
000000c0: 333f 53bd 86ab 6f3d f2f4 52bd d503 edbc
000000d0: 9770 a9bc 0f52 24bd f1c6 5639 64b8 5f3d
000000e0: 76c3 343d b8f9 063d 7935 60bd bf0c 6f3c
000000f0: aed0 0f3d f322 8bbd 9360 ee3c 61e6 1c3d

weight f4 [64, 64, 3]
0.04053234 -0.027864713 -0.01777037 -0.044220433 -0.04197777 -0.030579712 0.053183075 -0.017587148
-0.008478336 -0.0057098814 -0.010086161 0.03938192 0.057112385 -0.030319346 0.054234087 -0.024291452
0.003836076 -0.025587114 0.0011486897 -0.0037384913 0.054813154 0.009548776 0.002078897 0.040940084
0.011078134 0.029687988 -0.029721035 0.0059307246 0.008542559 0.064799204 0.045048285 0.029254058
0.03657186 -0.027715752 0.0409444 0.068345875 0.025910847 -0.009067886 -0.015909567 0.030359045
0.023818582 0.058716666 -0.02768519 0.051883563 0.034403738 0.03962995 -0.037691407 -0.043968357
-0.036445074 -0.049545676 0.0067372336 0.016602466 -0.010035358 0.033144508 0.03388505 0.076426424
0.012885217 -0.005592773 0.08104847 -0.031117076 -0.049709063 0.060862772 -0.04237619 0.053686857
0.05357554 -0.004745636 -0.02814151 0.051487815 -0.015247626 0.0028595442 0.07174265 -0.00505872
0.037607264 0.07721413 0.095560536 0.050380304 -0.0050566555 0.005839413 -0.0183423 0.004528822
0.025537135 -0.04882789 -0.0472131 -0.050906718 0.028117588 0.02774352 0.035949897 0.003301445
0.07770798 0.06072502 -0.08300915 -0.030437887 0.020776192 0.03857828 0.037798826 0.005990957
0.07817685 0.07381657 0.054215755 0.04304374 0.08728012 0.07906739 0.057413407 0.045919165
-0.050965197 -0.04001619 -0.019476548 -0.040477145 -0.04037353 -0.029287012 0.064890094 0.0014758349
0.057432532 -0.0349439 0.013134811 -0.01909004 -0.058669 -0.0604693 -0.009028327 -0.033851497
0.006478535 -0.061127156 0.036385424 0.07744032 0.076751605 0.044995997 0.038692597 0.0046194736
-0.027510673 0.028725345 0.0102406405 0.06499608 0.03099915 0.03504243 -0.0040748897 -0.03218751
0.012923687 -0.061648164 0.02896115 0.025599549 0.00083108427 -0.007658368 0.047736015 0.012086034
-0.009823178 0.030315466 0.047248006 -0.022259628 0.021683203 0.061142992 0.07507461 0.07063821
0.07044261 -0.033776734 0.04528887 0.03843208 0.051558226 0.046771888 0.046004206 0.015374538
0.041520894 -0.012189682 0.027009832 0.019668922 -0.030569823 0.0007643124 -0.0001291664 0.053270463
0.037386574 0.030707927 -0.01821462 -0.0032062512 -0.021469288 -0.016440034 0.025656343 0.005034494
-0.034260903 0.02423575 0.057353955 0.058381032 -0.02566292 0.057314888 0.063393936 -0.022362078
0.073249646 0.018873522 0.03659609 0.057676103 0.07048052 0.04122575 0.027229408 0.046377786
0.04169263 0.026765864 0.048493177 0.016299253 -0.0154803805 0.07274142 -0.006152051 -0.03210966
-0.0012793228 -0.054220553 -0.019458706 -0.0036875776 0.026261976 0.07297065 0.08126408 0.019411944
0.011945177 -0.010300766 0.0033384603 -0.024999557 -0.013899176 -0.01807747 0.021995207 -0.03461222
0.039951812 -0.01796576 0.0055262973 0.07504296 0.043107193 -0.026538003 -0.0703721 -0.022089912
0.0095474385 -0.0013098008 -0.015667753 0.056282815 0.06893925 0.06868687 0.050374795 0.059796296
0.05228747 0.013034289 0.03588149 0.10118249 0.048860118 -0.062267628 -0.072646804 -0.061536018
0.06853421 -0.02122482 0.047320634 0.060807854 -0.054285876 0.00095437263 -0.021366619 0.02575455
0.010465677 0.04562134 -0.01126905 0.0065161474 0.048057076 -0.06121572 0.031125646 -0.03459231
00000000: 3d05 263d 8a44 e4bc 2b93 91bc 7c20 35bd
00000010: e2f0 2bbd 4e82 fabc 7fd6 593d ec12 90bc
00000020: b8e8 0abc f519 bbbb 6d40 25bc f04e 213d
00000030: adee 693d 4760 f8bc 9024 5e3d defe c6bc
00000040: ad66 7b3b 119c d1bc a18f 963a 7a01 75bb
00000050: c283 603d 7872 1c3c 1b3e 083b cab0 273d
00000060: 1081 353c 3934 f33c 8779 f3bc 8656 c23b
00000070: 17f6 0b3c 72b5 843d 8d84 383d 35a6 ef3c
00000080: 60cc 153d 250c e3bc 51b5 273d ecf8 8b3d
00000090: fc42 d43c 7891 14bc c854 82bc 88b3 f83c
000000a0: 301f c33c e380 703d 0dcc e2bc dc83 543d
000000b0: efea 0c3d 0453 223d 4e62 1abd 2a18 34bd
000000c0: 6e47 15bd 68f0 4abd 03c4 dc3b e501 883c
000000d0: 586b 24bc 89c2 073d 0dcb 0a3d 7585 9c3d
000000e0: 841c 533c 9543 b7bb befc a53d 3de9 febc
000000f0: bb9b 4bbd 3e4b 793d a892 2dbd c0e6 5b3d
00000100: 0772 5b3d 4881 9bbb 0689 e6bc e3e4 523d
00000110: 2ed1 79bc 3167 3b3b cfed 923d 9ec3 a5bb
00000120: 130a 1a3d 7122 9e3d 3eb5 c33d 945b 4e3d
00000130: 4db2 a5bb 8c58 bf3b 9742 96bc 8366 943b
00000140: 4133 d13c c1ff 47bd 8662 41bd 9083 50bd
00000150: db56 e63c 6146 e33c 3340 133d 0e5d 583b
00000160: 5d25 9f3d ccba 783d b400 aabd e058 f9bc
00000170: d532 aa3c 4204 1e3d f1d2 1a3d ca4f c43b
00000180: 2f1b a03d 242d 973d 5711 5e3d a24e 303d
00000190: ebbf b23d 15ee a13d 522a 6b3d bc15 3c3d
000001a0: e2c0 50bd 04e8 23bd 488d 9fbc 5dcb 25bd
000001b0: b75e 25bd 51eb efbc 19e5 843d cd70 c13a
000001c0: 603e 6b3d 5621 0fbd 6433 573c b762 9cbc
000001d0: e84e 70bd a8ae 77bd 8ceb 13bc dea7 0abd
000001e0: e449 d43b 7860 7abd e208 153d 0899 9e3d
000001f0: f22f 9d3d b94d 383d 217c 1e3d f45e 973b
00000200: 105e e1bc 6a51 eb3c 5cc8 273c aa1c 853d
00000210: eef1 fd3c a788 0f3d a786 85bb 0dd7 03bd
00000220: dfbd 533c c982 7cbd ef3f ed3c 25b6 d13c
00000230: 1fdd 593a 0cf3 fabb d786 433d 8004 463c
00000240: 65f1 20bc 2458 f83c 2087 413d d359 b6bc
00000250: f9a0 b13c 1371 7a3d b8c0 993d c4aa 903d
00000260: 3744 903d 7959 0abd d280 393d f56a 1d3d
00000270: b82e 533d e193 3f3d e86e 3c3d 7ce5 7b3c
00000280: d011 2a3d 3bb7 47bc b943 dd3c b820 a13c
00000290: 916d fabc 235c 483a d770 07b9 2132 5a3d
000002a0: aa22 193d 318f fb3c d436 95bc f81f 52bb
000002b0: 5ce0 afbc 40ad 86bc 402d d23c 66f8 a43b
000002c0: 2955 0cbd 0d8a c63c fbeb 6a3d f320 6f3d
000002d0: 0b3b d2bc 04c3 6a3d aed4 813d ad30 b7bc
000002e0: e903 963d a59c 9a3c c8e5 153d c73d 6c3d
000002f0: 1758 903d 55dc 283d 3510 df3c a2f6 3d3d
00000300: e4c5 2a3d 1644 db3c c8a0 463d 0386 853c
00000310: 6ca1 7dbc 74f9 943d 2597 c9bb 6b85 03bd
00000320: f3ae a7ba 5f16 5ebd dd67 9fbc 49ab 71bb
00000330: 5b23 d73c a371 953d c86d a63d cc05 9f3c
00000340: b4b5 433c 8bc4 28bc 12ca 5a3b dfcb ccbc
00000350: 5fb9 63bc 3417 94bc 4b2f b43c 8bc5 0dbd
00000360: 83a4 233d ee2c 93bc f115 b53b 20b0 993d
00000370: 2b91 303d 3a66 d9bc 3f1f 90bd e7f5 b4bc
00000380: dc6c 1c3c 9fad abba a959 80bc cf88 663d
00000390: 0630 8d3d b4ab 8c3d cd55 4e3d f6ec 743d
000003a0: 632b 563d c58d 553c 78f8 123d c438 cf3d
000003b0: 8c21 483d 570c 7fbd d9c7 94bd 310d 7cbd
000003c0: aa5b 8c3d acdf adbc 48d3 413d a811 793d
000003d0: de5a 5ebd dd2e 7a3a 0c09 afbc 35fb d23c
000003e0: 3b78 2b3c 71dd 3a3d d2a1 38bc 6885 d53b
000003f0: 7fd7 443d 56bd 7abd 36fb fe3c abb0 0dbd

bias f4 [64]
0.032464787 0.036730193 0.04622518 0.04640505 -0.00015131675 0.017632084 0.026031395 -0.046105154
-0.029362336 0.010270654 0.032548632 0.051519662 0.008839303 0.03914732 -0.026386399 0.017071849
-0.021418856 0.05324051 -0.010586268 -0.048629776 0.03128214 0.018907016 -0.045331288 0.014424573
-0.055449236 0.016710496 0.04927303 0.066948436 0.0103494115 -0.02455256 -0.010063755 -0.0151769705
-0.056378078 0.07215446 0.035255637 -0.066775404 -0.034216035 -0.02788794 -0.027669515 0.014688886
0.051565066 0.025358528 0.016626177 0.023717785 -0.04122957 0.032517225 0.039285924 -0.0020661503
0.02039952 -0.06731692 0.054086 0.03392662 -0.047524072 0.010157627 -0.002516227 0.0154575845
-0.060270194 -0.05445248 0.05336018 0.026943468 0.030047322 0.019784082 0.017197238 0.02102648
00000000: ccf9 043d 6672 163d 9d56 3d3d 3913 3e3d
00000010: c8aa 1eb9 2971 903c cb3f d53c c2d8 3cbd
00000020: 4889 f0bc 3f46 283c b751 053d 4806 533d
00000030: b9d2 103c f158 203d 4a28 d8bc 43da 8b3c
00000040: 9976 afbc b912 5a3d 0772 2dbc 0430 47bd
00000050: b421 003d e3e2 9a3c 4dad 39bd 0b55 6c3c
00000060: bd1e 63bd 73e4 883c 84d2 493d 431c 893d
00000070: 9490 293c 7322 c9bc 73e2 24bc d4a8 78bc
00000080: b3ec 66bd b8c5 933d 3768 103d 8bc1 88bd
00000090: 1d26 0cbd 4075 e4bc 2eab e2bc a7a9 703c
000000a0: e435 533d b0bc cf3c 9f33 883c cd4b c23c
000000b0: 56e0 28bd c830 053d 47ea 203d 4068 07bb
000000c0: e51c a73c 74dd 89bd 4889 5d3d a4f6 0a3d
000000d0: 9aa8 42bd 2d6c 263c 49e7 24bb cf41 7d3c
000000e0: e1dd 76bd 9009 5fbd 3490 5a3d 8cb8 dc3c
000000f0: cd25 f63c 3a12 a23c 39e1 8c3c b93f ac3c
