models/HisarCNN2019_100_best.pt (torch, 651690 bytes, 20 tensors)

weight f4 [64, 2, 3]
000000 bd 42 a7 3d da c2 e1 3e eb 24 0f bd 66 be 5a be
       0.08167026 0.44093972 -0.034947317 -0.21361694
000010 45 24 c1 3e 11 28 e1 be ab 12 b5 3d f7 46 0d 3e
       0.37722984 -0.4397588 0.08841451 0.13796602
000020 b5 c3 2e bd 88 0d 64 3e 0d d6 e9 bd 42 5d c7 3e
       -0.04266711 0.22270787 -0.1141778 0.38938338
000030 ec bc 8f be 9e b9 20 3e 4e be 99 3e ac 04 d8 bc
       -0.28073823 0.15695807 0.30028003 -0.026369415
000040 64 5a a0 3d 03 50 97 be 7c e9 89 bd 7f 0a ef bd
       0.07829741 -0.29553232 -0.06733987 -0.11671924
000050 16 96 d7 3d b6 a2 e5 3e cc b0 f1 3e 3c e2 62 3e
       0.105266735 0.448507 0.47205198 0.22156614
000060 45 23 f1 3d 14 b0 a4 be f2 fd 8f be 0c 8f 2d bd
       0.11774305 -0.32165587 -0.28123432 -0.04237275
000070 cb b2 c4 3e f3 1b 9f 3e 22 cc eb 3d dc a9 da 3e
       0.38417658 0.3107601 0.115135446 0.42707717
000080 16 57 7c be 65 0c a8 bd b9 60 c6 be 43 05 8e 3e
       -0.24642596 -0.08205489 -0.3874567 0.2773839
000090 1f 5f 04 3c 37 f8 18 bf 8b 2e ca bd b3 ac 5b be
       0.008079319 -0.59753746 -0.098721586 -0.21452598
0000a0 3a e4 8c be 2c 45 89 3e 62 af c0 be 8d 96 cb be
       -0.27517873 0.26810586 -0.37633806 -0.397633
0000b0 f0 df 13 3e 21 e0 5e 3e 1a ee 46 3e 35 cd 28 3e
       0.14440894 0.21765186 0.19426766 0.1648453
0000c0 1c 03 75 be f8 60 64 3e 67 05 49 be 62 d2 66 bd
       -0.23926967 0.22302616 -0.19630967 -0.05635298
0000d0 75 bf 1b 3d b8 4b 94 3d 0b 6f 51 3e 57 69 c0 bd
       0.038024385 0.07241005 0.20452516 -0.09395092
0000e0 1f 8a b3 3e 0f ed 3b 3e 2f 45 c8 bc a4 de c6 3e
       0.35066316 0.1835215 -0.024447052 0.38841736
0000f0 ca 37 38 bd 54 16 fb 3e 72 24 aa be fa b2 e0 bd
       -0.04497508 0.49040473 -0.3323093 -0.10971637
000100 c8 ad 44 be e4 c8 26 be 57 73 85 3d 19 94 95 3e
       -0.19206917 -0.16287571 0.0651614 0.29214552
000110 aa b2 40 3d 1a 7e 3d 3e cd ca b4 be 38 b2 f3 bd
       0.047045387 0.18505135 -0.35310975 -0.11899227
000120 a6 65 a9 3e af 9b 0f 3f 10 52 e3 3e a0 d8 a5 3e
       0.33085364 0.5609693 0.44398546 0.32391834
000130 6b c2 d7 3d 6a 3d bb be 40 fe b3 3e 5d 52 3e be
       0.10535129 -0.36570293 0.35154915 -0.18586107
000140 5a e4 47 be ea 7b 03 be ad 15 c7 3d 78 a3 aa bd
       -0.19520703 -0.12840238 0.09720931 -0.083319604
000150 b5 07 e1 3e c4 85 ef 3e 87 dc 80 3e d0 6b 4a 3e
       0.43951192 0.46781743 0.2516825 0.1976769
000160 9a 3b b7 3e 94 7b 8d 3d 59 9f 8f be 1b 8d df bd
       0.3578766 0.06908336 -0.2805126 -0.109155856
000170 b8 a0 f5 3d 53 c9 38 3e 8e ef 1a be 92 5c cb 3e
       0.11993545 0.18045549 -0.15130445 0.39719063
000180 a8 2a 80 3e b1 4a e5 3e 38 9e d4 be f6 63 f8 3d
       0.25032544 0.44783548 -0.4152696 0.12128441
000190 3c d5 88 3e 6b bd e1 3e 52 f9 97 3e be 60 89 be
       0.26725185 0.44089827 0.29682404 -0.2683162
0001a0 6a 83 c0 3e 71 fe 9e 3e e0 e5 93 be c2 6a 25 3d
       0.3760026 0.31053498 -0.28886318 0.040385015
0001b0 2e 34 5b be 41 45 ad 3e 0c 77 b0 3e 09 3b 53 be
       -0.21406624 0.338419 0.34465826 -0.20627989
0001c0 76 b3 b0 be 4a bf ac 3d 2a c6 43 3c 5b 1b 9a be
       -0.34511918 0.08434923 0.011949101 -0.30098996
0001d0 51 dc c3 bb f4 18 05 bd ab 19 81 3e 54 51 f3 3e
       -0.0059771915 -0.0324945 0.25214896 0.47522986
0001e0 a5 74 70 3e 6b 2f aa 3e ea 5a 9f 3e 25 3b 6c bd
       0.23481996 0.33239302 0.3112405 -0.057673592
0001f0 9f ef de be e7 0c bf be 9e 01 87 3e e9 5b 83 3e
       -0.4354219 -0.3731453 0.2636842 0.2565606
000200 56 c7 8c bc a5 13 04 be 42 db bf be 9e bf c8 be
       -0.017184895 -0.12898119 -0.37471968 -0.39208692
000210 f2 27 68 be 39 7f 22 3e 84 af d4 bd c1 da bd be
       -0.22671488 0.15868844 -0.103850394 -0.37080958
000220 bb 8e bc 3e 32 19 70 3e 64 27 82 bd b8 a1 da be
       0.36827645 0.23447111 -0.063551694 -0.42701507
000230 0e a0 b1 be 19 ee a8 bd c7 22 d5 be 75 92 c1 3e
       -0.34692425 -0.082485385 -0.41628096 0.3780705
000240 6e e0 1d 3e eb d0 5e be 69 01 08 be 62 45 99 be
       0.15417644 -0.21759383 -0.13281788 -0.29935747
000250 f1 7e 25 be 4d b7 9f be a9 e8 9e 3e a5 5c a7 be
       -0.16161706 -0.31194535 0.3103688 -0.3268787
000260 ad cf 9e 3e fd 4f b6 3e 3f 8d 47 3e da aa e2 3d
       0.3101782 0.356079 0.19487475 0.110677436
000270 d7 b2 da 3c 8e ea 9b 3e e0 df 90 3e 6b b8 38 bd
       0.026696606 0.3045239 0.28295803 -0.04509775
000280 90 b1 dc 3d 6d ad ba 3e 1d 93 00 3f fb b6 85 3e
       0.10776055 0.36460438 0.5022448 0.26116166
000290 ed f8 c5 3e 85 ef 21 be 93 ec 18 bd a6 b1 7d 3e
       0.38666478 -0.15814026 -0.03733499 0.24774799
0002a0 66 00 5d be 47 46 bb 3c 17 ad 73 be f5 d9 02 3c
       -0.21582183 0.02286066 -0.23796497 0.007986535
0002b0 5d 6e 8f be 40 2f 5e be 7d 5e bd 3c f4 09 04 3e
       -0.28013888 -0.21697712 0.023116345 0.12894422
0002c0 cd 67 26 bf 76 0d 1f 3e 18 09 8a 3e 77 1a 21 bf
       -0.6500214 0.15532479 0.26960063 -0.6293101
0002d0 6d 73 45 3e bf 2a d7 3e 6e d2 81 3e a9 cf 5f bd
       0.19282313 0.420248 0.25355858 -0.0546414
0002e0 ab 74 d3 3d 7e 74 e0 3d 00 e7 ad bc 7d ed a2 3c
       0.10324987 0.10959719 -0.021228313 0.019888634
0002f0 b8 1f e3 3c e5 fb d0 3e 2f 01 93 be 24 69 57 bc
       0.027725086 0.4081718 -0.2871184 -0.013147626
000300 5f fb 09 3c 79 85 98 bd aa 2b 9b 3e 54 9f 70 3e
       0.008421748 -0.07447333 0.3030675 0.23498279
000310 86 4f f4 3e 05 15 62 3c fb 3c c7 3e ec 69 dd 3e
       0.47716922 0.013798957 0.38913712 0.43244874
000320 66 c2 73 3e 7e b6 4d be bb 1c c8 be 5a 60 f0 3d
       0.23804626 -0.20089146 -0.3908442 0.117371276
000330 6f 99 4f be 04 71 c4 bd bd 34 7b bc 74 e4 71 3e
       -0.20273374 -0.095918685 -0.015332398 0.23622304
000340 34 bd 26 3e b7 90 12 3d b7 54 ef 3e b7 6c c9 3d
       0.16283113 0.035782542 0.4674432 0.09835189
000350 07 0b d3 3e 2d 75 3e be 1e e2 19 bd d9 34 09 be
       0.4121935 -0.18599387 -0.037569158 -0.13399066
000360 59 9e 92 3e f8 2a 2c bc 57 ab 1a 3e 11 3c b0 3d
       0.28636435 -0.010508291 0.15104423 0.08605207
000370 94 04 9e 3e 94 5e 87 3e 34 d7 dd 3e d2 56 82 3e
       0.30862868 0.26439345 0.4332825 0.25456864
000380 ab 19 5f 3e 75 ca 7c be d8 cc fe 3e e6 d3 94 3e
       0.21787135 -0.24686606 0.49765658 0.29067916
000390 5f 74 61 be 4b 0f de be 8a a4 0d be de 43 37 3c
       -0.22017048 -0.43371043 -0.13832298 0.011185614
0003a0 25 23 77 be d7 39 b8 3e 11 f5 30 3c 05 4a 88 3e
       -0.241345 0.35981628 0.010800616 0.26618972
0003b0 a5 d1 c1 be 5a 99 8e 3e ba 6c 67 3e bd 75 53 3e
       -0.3785526 0.27851373 0.2260007 0.20650382
0003c0 a6 7c ba be 6d d7 d5 be 6d f2 c0 be 93 6f c1 be
       -0.36423224 -0.4176592 -0.37684956 -0.37780437
0003d0 71 2d 8d 3e 9b a3 a1 be 61 ac 2c bd 91 6e c5 bd
       0.27573732 -0.31570134 -0.04215658 -0.096402295
0003e0 70 67 a4 3e 68 52 3f 3d 9a 18 cd 3e 5f b7 db 3e
       0.32110167 0.046709448 0.40057832 0.4291334
0003f0 c2 0c 09 3e ad c5 aa 3e b7 2c 74 3d 56 be 9c be
       0.13383773 0.3335394 0.059612956 -0.30613965

bias f4 [64]
000000 56 9b 87 be cb da b1 bc 0c ab 8c 3c d5 26 0b bd
       -0.264857 -0.021710774 0.017171405 -0.03397258
000010 7d e0 4e be a2 b8 8e be d4 7d 9f be f3 8f 98 be
       -0.20202823 -0.2787524 -0.31150687 -0.29797325
000020 d1 22 26 be 79 00 88 3d a3 1f df bd 7d 32 d2 3d
       -0.16224219 0.06640715 -0.10894706 0.10263536
000030 af 3c c2 be 31 9e 8b 3e 37 94 eb bc 5a df 3a be
       -0.37936923 0.27269128 -0.028757198 -0.18249264
000040 cb 95 76 be 41 ae 36 bd 9f 76 ce 3c 45 ec a7 bd
       -0.24080579 -0.044599775 0.025203047 -0.08199362
000050 41 53 94 3e 78 0f 3c 3e 25 a4 32 be 74 d7 94 be
       0.28969768 0.18365276 -0.17445429 -0.29070628
000060 69 6e a2 3e 82 6d 13 be a6 79 20 3e d9 d1 d6 bd
       0.3172486 -0.14397243 0.15671405 -0.10489244
000070 52 5c 5a 3e 4f 5b 5d bd 5e 68 2c bc fd b4 35 be
       0.2132428 -0.054042157 -0.01052293 -0.17744823
000080 90 7b 1b 3e 16 2f 9f 3d 79 5d 46 3e 56 d5 1e be
       0.15183854 0.07772653 0.19371594 -0.15511069
000090 3e f0 c1 bd 6b ab 52 bd 73 7b b1 3e a8 9a 8c 3d
       -0.09469651 -0.05143301 0.34664497 0.06865436
0000a0 82 67 63 bd a2 48 bb be b8 ef 30 3e 06 6f 9f 3e
       -0.055518635 -0.36578852 0.17278945 0.31139392
0000b0 f4 8c ac be 34 8c ad be 71 66 a0 3d 10 fe 90 bc
       -0.3370129 -0.3389603 0.07832039 -0.017699271
0000c0 a4 dd 49 3d 14 45 41 3e 0d 1b 90 bd 99 32 79 3e
       0.04928364 0.18874007 -0.070364095 0.24335708
0000d0 9b e9 cb bd 55 f5 be bd 3a 46 64 bd 2c 18 0c be
       -0.09956666 -0.09324137 -0.055731036 -0.13681096
0000e0 81 ac a5 3e 1a 2a 65 bd f0 4e af 3e e4 da a1 bd
       0.32358173 -0.055948354 0.34239912 -0.07903078
0000f0 ff a7 b0 be 4d f6 e7 3c 58 a0 12 3e ef 03 2f 3d
       -0.3450317 0.028315688 0.14318979 0.04272836

weight f4 [64, 64, 3]
000000 93 57 08 bd ba b9 1b bd e1 06 27 3d e2 c9 70 bd
       -0.033286642 -0.03801892 0.040778045 -0.05878628
000010 a3 1c 91 bd 4c e2 d4 bc 37 01 fa bd 27 4a 8d bc
       -0.0708554 -0.025986813 -0.12207263 -0.017247273
000020 74 2c e9 3b 16 a9 d7 3a 9f 56 29 3d a3 5e 78 bb
       0.007115895 0.001645359 0.041342374 -0.0037898205
000030 b9 9d 76 3c ba 00 a8 bc 44 02 23 bc 3c 6a 62 bc
       0.015052252 -0.020508159 -0.009949271 -0.013819274
000040 76 32 58 bd 99 fc 7a 3d d4 80 1c 3d 99 71 85 3d
       -0.0527825 0.061276052 0.038208798 0.06515808
000050 87 cf f8 3b f0 0a 8f bd ff f1 34 3c ad 5c af 3d
       0.0075930986 -0.06984508 0.0110440245 0.085625984
000060 da 2a 3a 3d af c6 82 bc 25 b9 ad 3b f1 9d 55 bd
       0.045451023 -0.01596388 0.005301612 -0.052152578
000070 1a a0 00 3c 7b 3c a3 bd 1d a2 33 3d c9 0c 0b 3d
       0.007850671 -0.0797052 0.043855775 0.03394774
000080 33 28 45 3d 1d a1 ec 3a 4f 57 85 bd dd bb 16 3d
       0.04813404 0.0018053387 -0.065107934 0.036800254
000090 24 13 88 bd d4 a6 c3 3d 9a 75 27 3d d8 42 52 bd
       -0.06644276 0.09553304 0.040883638 -0.05133328
0000a0 c7 b4 a1 3c 2f c7 80 3d 88 d6 70 bc f9 38 31 bd
       0.019739522 0.06287991 -0.014699586 -0.043267224
0000b0 0c ee f0 3d 2c 2e 8d bd 93 f4 63 b9 a6 f5 59 3c
       0.11764154 -0.06893572 -0.00021739518 0.013303196
0000c0 a1 02 62 bd 18 f6 99 bd 2f 76 cc 3d ab 10 10 bd
       -0.05517829 -0.07517642 0.09983479 -0.035172146
0000d0 cc 4b 1f bd 60 fc 82 bd 05 ca 19 bd 7f 28 bb 3c
       -0.038890645 -0.06395793 -0.037546176 0.022846458
0000e0 6f fc 93 3d 03 62 11 3d 17 3a 26 bd 0b a5 8c bd
       0.07225882 0.035493862 -0.040582743 -0.06867417
0000f0 e8 45 17 bd 7f 8c 62 bd 89 1c 47 bb 8a 15 76 bc
       -0.036931902 -0.05530977 -0.0030381999 -0.015019784
000100 df 66 e4 3c f6 22 6e 3d 07 09 29 3d 76 02 a1 bd
       0.027881084 0.05813881 0.041268375 -0.078617975
000110 67 86 ae 3d 11 d1 7d bd e9 3b 56 3d 23 59 4b bb
       0.08521729 -0.06196696 0.05230323 -0.0031028471
000120 7f de e9 bc b3 2e 77 3d 7b fc b7 bc 7f 68 ff bc
       -0.028548477 0.06034727 -0.02245926 -0.031177757
000130 42 0c 5b bc 4e f5 94 bc d2 f4 fa 3c 8e 5f 86 bd
       -0.013369622 -0.018183377 0.030634318 -0.06561194
000140 a9 20 2e 3d e4 2a 1a bd 2a 23 8c bc d9 47 8d 3d
       0.042511616 -0.03763856 -0.017106611 0.068984695
000150 42 40 d1 3c d2 05 3f bd d9 cf ed bc 34 76 10 bc
       0.025543336 -0.04663641 -0.029029774 -0.008817244
000160 99 7a f4 bb a6 c9 3c 3c e2 5d 6d bd 42 40 8d bb
       -0.007460904 0.011522686 -0.05795086 -0.0043106386
000170 f6 fd de 3d 7f a5 64 bd 49 90 26 3d 5a 62 90 bb
       0.10888283 -0.055821892 0.040664945 -0.0044062557
000180 e8 e2 97 bc 56 47 8b bd de 96 15 3d 03 57 51 3b
       -0.018540815 -0.068007156 0.03652083 0.0031942732
000190 17 70 b9 3b a6 cb 26 bb ed b5 81 bb 92 9a f2 3b
       0.005659114 -0.0025450974 -0.003958455 0.00740368
0001a0 af 8f 6e 39 07 43 af bd ab 00 3d bd 14 bd 03 bd
       0.00022750975 -0.08557706 -0.046143215 -0.03216274
0001b0 73 58 ab bb 8f 12 10 bd 4b df 4d bd 9d 3b 04 bd
       -0.00522905 -0.03517395 -0.050261777 -0.032283414
0001c0 59 94 36 bd ea 58 cf 3d ae 1b 9c bd 52 da 42 bc
       -0.04457507 0.10124381 -0.07622467 -0.011892872
0001d0 9b 50 0e 3c 05 16 db bc 37 dc 28 bc f0 8d 45 3a
       0.00868621 -0.026743898 -0.01030641 0.0007536104
0001e0 86 2c 4a 3d cd 3e 6c 3d 77 79 86 3d 60 15 3a 3c
       0.049358867 0.05767708 0.06566136 0.011357635
0001f0 1c ad 95 3d 71 a7 60 3d 3a 48 42 3d 0c 25 10 be
       0.073084086 0.054847185 0.047432162 -0.14076632
000200 b8 d3 0b 3d f7 be 0b 3d 9e ca cf bb 0a 95 64 3d
       0.034137458 0.034117665 -0.0063412925 0.055806197
000210 47 39 b0 bc f2 92 f7 3a 17 b3 50 3d ff eb a4 bd
       -0.021511687 0.0018888398 0.050952043 -0.08052825
000220 a6 9d 21 bd b2 d2 b0 bc dc d1 d4 bc fa 4f 14 bd
       -0.039456986 -0.021584842 -0.025978975 -0.036209084
000230 54 55 39 3d 8d 6c e4 3b 7a 01 8f 3c 2e 97 73 bd
       0.04524739 0.006970948 0.017456759 -0.059470348
000240 23 e0 c8 bc b5 d1 92 bd 21 c4 04 3d de 09 90 bd
       -0.02452094 -0.07168905 0.032413606 -0.07033132
000250 21 84 ea bc a2 b8 7e bd db 2a d3 bc 0c 7e 97 3b
       -0.028627457 -0.0621878 -0.025777271 0.0046231803
000260 fb 75 b2 3d 71 61 22 bc 6b 9f 26 bc e9 cd 2d 3d
       0.08713909 -0.009910927 -0.010169844 0.0424327
000270 8a fd ae 3c 32 d2 95 3c ec 6e ac 3d 5e 96 53 bd
       0.021361131 0.018288705 0.08419594 -0.051657073
000280 c4 41 2e 3d dd 82 2b 3c bf dd 4c bb 87 7b 06 3d
       0.042543188 0.010468212 -0.00312601 0.03283265
000290 ba ad 9f 3d 4f d5 80 bd 7f d0 10 3d b0 1a fc 3c
       0.077968076 -0.062906854 0.035355087 0.030774444
0002a0 47 09 a8 3c 1e 26 99 3c 9d 92 c0 3c 01 42 be bc
       0.020512236 0.018694934 0.02350741 -0.023224832
0002b0 3b 26 f4 bb 29 4b a1 bc 72 f3 7c 3c 8c 12 20 3d
       -0.0074508465 -0.01968916 0.015438901 0.039080188
0002c0 59 db f3 bc 90 1d 9e bc 21 25 d8 bc 3f 4f 74 3d
       -0.029767679 -0.019301206 -0.026384892 0.059645887
0002d0 72 7a 7f bd 0f 0c 69 3d e4 e3 98 3d ec 9f 87 bd
       -0.062372632 0.056896266 0.07465342 -0.066222996
0002e0 fe 35 3a 3d 81 e7 62 3d 03 82 23 3d 97 9a f8 bc
       0.045461647 0.05539656 0.03991891 -0.030347152
0002f0 3c bf 73 3d 0b b0 12 bd 5d 2c 0d bd 87 1c 84 3c
       0.059508547 -0.03581242 -0.034466136 0.016126884
000300 24 ed 2e 3d f1 5e 00 3e 25 e2 8c 3c 5e 5d 35 bd
       0.042706624 0.12536217 0.017197678 -0.044278495
000310 19 13 b2 3d 15 bd 67 bd b7 00 5d 3b 47 4b ae 3c
       0.08695049 -0.056576807 0.003372235 0.02127613
000320 cb 99 51 bd f5 b0 16 bc 72 ce 97 3d e0 93 85 bc
       -0.05117206 -0.009197463 0.07412423 -0.016305864
000330 f6 fa d4 3d fc 9d 82 3d c4 92 81 bd bb af 01 bd
       0.103994295 0.063777894 -0.063268214 -0.03166173
000340 07 62 0f 3e 0d 7a ae bb 67 dd 76 3d 29 dd f6 bb
       0.14002238 -0.005324608 0.06026974 -0.0075336886
000350 d6 7b 8a bd de e5 72 3d ca 42 c6 3c 5c 71 05 bb
       -0.06761901 0.05930125 0.02420177 -0.0020361757
000360 2c 22 ef bc bd 55 4c 3c 6b 6c ae 3c e5 62 51 3d
       -0.0291911 0.0124716135 0.021291932 0.051119704
000370 fd 97 ab bc 2f 2e 5f bd d2 d4 29 bd 9c 90 13 3d
       -0.020946497 -0.054487403 -0.041462727 0.036026582
000380 d5 3f 9f bd dc 80 00 3d 39 21 7f 3d 87 f8 17 bd
       -0.07775847 0.03137289 0.062287543 -0.03710225
000390 6f de a7 bc d6 66 5f 3c fc f2 bc bc 7d f2 1a bc
       -0.020491807 0.013635358 -0.023065083 -0.009457228
0003a0 1d 4e 6c 3c f4 58 84 bc 44 9b 74 3c 6b 4c cd bb
       0.0144229205 -0.016155697 0.014929596 -0.0062652132
0003b0 07 f2 e3 3b 06 2c cc bb e8 ec 27 3d 6e 91 2f 3d
       0.006956342 -0.006230834 0.040997416 0.042863302
0003c0 13 2f a1 bd 36 e4 de 3c 1e 19 29 bd 5c ba 0d 3d
       -0.07870307 0.027208429 -0.04128372 0.034601554
0003d0 fb a2 7d 3d 7b e2 9d 3a 5a 44 f5 bc 0e 61 80 3d
       0.06192301 0.0012045646 -0.02993982 0.06268512
0003e0 bd 01 46 bd ce 05 89 bc 37 bb 69 bd fb e1 b5 bd
       -0.0483415 -0.0167264 -0.057063308 -0.08880993
0003f0 68 cd dc bb 67 6c a2 bb ac 78 a8 bd db a0 3a bc
       -0.0067383535 -0.00495677 -0.08226141 -0.01139089

bias f4 [64]
000000 95 55 7a bd b3 58 f2 3a 21 47 bb 3c 71 1f 43 bd
       -0.061116774 0.0018489569 0.022861065 -0.047637407
000010 45 20 00 bc 6a 4e 02 bd 9e e4 c3 bc 5f 88 93 bd
       -0.007820194 -0.031813063 -0.023912724 -0.07203745
000020 1f 56 b2 3c 1c a9 6b bd 3d 0e dd 3c 3d 74 64 bd
       0.021769581 -0.057534322 0.026984328 -0.055774916
000030 13 66 6b bd 22 6d 20 bd 91 17 f1 ba 96 6a 1e 3d
       -0.057470392 -0.039166577 -0.0018393864 0.038675867
000040 cc 79 a4 bd 15 9c 9b 3c 12 d4 86 bd 3f 53 de bc
       -0.080310434 0.018995324 -0.06583418 -0.027139304
000050 ce 1a 2f 3d ec de e4 bc 68 b2 28 bd c6 dc 34 3c
       0.042750172 -0.027938329 -0.041185766 0.011038965
000060 f0 05 dc 3c a2 e9 9b bd 97 5e 92 3c 83 9c e4 3c
       0.0268583 -0.07612921 0.01786737 0.027906662
000070 cd b3 b4 bc ba 7e 3c 3c 36 8f c0 3c af b1 99 bd
       -0.022058392 0.011504823 0.023505788 -0.075045936
000080 ba 64 aa 3c 6c dd 88 bb 8f d7 a0 bd 3b 16 82 39
       0.020799983 -0.004176786 -0.078536145 0.00024812095
000090 a5 24 14 3d fe aa 84 3d 7c 5c 46 3d eb 83 ad 3c
       0.03616776 0.06477927 0.048428044 0.021181067
0000a0 92 5c 29 3d 47 25 7f bc d3 85 4f 3c 3d 9b b1 3c
       0.041348048 -0.015572852 0.0126661835 0.021680469
0000b0 3a cf f9 3c 91 6b 9b bc 87 45 76 3c c3 e5 02 bd
       0.030494321 -0.01897219 0.015031225 -0.0319574
0000c0 42 ba ab 3d ba 64 5f 3d aa c8 72 bd 9a 5d 56 bd
       0.08385135 0.05453942 -0.0592734 -0.05233536
0000d0 b2 f6 56 bd 4c 40 b0 bd 71 41 52 bd 07 9e 45 3d
       -0.05248136 -0.08606014 -0.05133194 0.04824641
0000e0 00 74 c4 3c 14 3f 60 3d 96 1c 2a 3d ea 49 0f bd
       0.023981094 0.054747656 0.041531168 -0.0349826
0000f0 9e eb 07 bd 96 7f 7c bc 3f 46 07 3c 45 b6 df bc
       -0.033183686 -0.015411278 0.008256494 -0.027308593

weight f4 [64, 64, 3]
000000 62 ed 6c 3d d4 01 3c bd b2 24 23 bc 6a ac c3 bc
       0.057843573 -0.04590018 -0.009957479 -0.023885924
000010 c6 8c 79 bd b1 eb 20 3d c6 4d b9 3d cb 88 ac bc
       -0.060925268 0.039287273 0.09048037 -0.021061322
000020 00 db 74 bc 38 98 08 bd a4 6a 6c bc 59 56 3a bd
       -0.014944792 -0.033348292 -0.014429722 -0.045492504
000030 e3 61 56 bd 29 04 4f 3d d9 80 76 bd c1 56 11 3d
       -0.052339446 0.050541077 -0.060181472 0.035483126
000040 50 f6 2e be 88 40 15 3d 99 8f 96 3c 6c 7b e5 3d
       -0.17086148 0.036438495 0.01837902 0.112051815
000050 99 38 94 bd a1 43 16 bd 10 29 9b 3d 58 ba 95 3b
       -0.07237358 -0.03668559 0.075761914 0.004569333
000060 89 9e 2f 3d 3e d7 79 bc 8a df f6 bc 98 7a 04 3d
       0.0428758 -0.015249072 -0.030135889 0.032343477
000070 d3 54 4f bd 2c af b4 bd c9 7d bb bc 6c f7 74 3d
       -0.050618004 -0.08822474 -0.022887127 0.059806272
000080 6a b1 00 3d 10 db 82 bd bb ba 93 3d f4 1b 7c 3d
       0.031419195 -0.06389439 0.072133504 0.061550096
000090 bd de 04 3d 8f a9 5f bd f6 c8 71 3d dd ad 5d 3b
       0.032438982 -0.054605063 0.059029542 0.0033825554
0000a0 5a a0 56 bd e8 23 1b bd 6c ae f4 3c b5 12 30 3d
       -0.052399017 -0.03787604 0.029868327 0.04298659
0000b0 2f eb 4a 3c b5 fa c5 bc 01 ef 1f bc 95 c1 b4 bd
       0.012385174 -0.024167398 -0.009761573 -0.08825985
0000c0 c4 36 74 3c 5b a2 7b 3d 49 58 83 bc e3 57 34 bd
       0.014905635 0.06143413 -0.016033309 -0.044029128
0000d0 2d 14 63 bd 00 ee b7 bc 4e 58 d6 3d 50 6b a1 3d
       -0.055439163 -0.022452354 0.104660615 0.07881796
0000e0 7a 17 1a 3e 22 f4 1e 3b ee 0d 51 3c 64 40 cf bc
       0.15048018 0.0024254401 0.012759669 -0.025299259
0000f0 82 55 88 bb 63 1d e7 3c ef f0 39 3d 85 9b 43 3d
       -0.004160584 0.028212255 0.045395788 0.047755737
000100 45 ac f9 3c 68 5e a3 3c 92 24 14 bb 8b 51 a9 3c
       0.030477652 0.019942477 -0.0022604805 0.020668766
000110 f4 94 07 3d b3 d7 ac 3d 4b 83 4e 3d 1e 5c ec bb
       0.033101037 0.08439579 0.05041818 -0.0072131297
000120 cb 0c ac bc 80 ab 9e 3d 54 5b d1 3c 99 f7 9e 3c
       -0.021002194 0.07747555 0.025556244 0.019405173
000130 8b fd e7 bd 6b bf 95 3d cc 00 ab bc 2c 1d 6e 3d
       -0.11327656 0.07311901 -0.020874403 0.05813329
000140 f3 cd 6e bb 84 ff 36 3c 0a 21 27 3d e0 48 37 3d
       -0.0036438673 0.011169318 0.040802993 0.044747233
000150 88 4a 8f 3d aa 94 97 3c 67 f0 24 bd 2e 71 06 bd
       0.069966376 0.018503506 -0.040268328 -0.03282278
000160 b3 69 00 3d f8 c5 66 bd 2b 66 8d 3d 32 30 82 bd
       0.031350803 -0.05634114 0.069042526 -0.06356849
000170 9d f4 02 bc a8 b0 a6 bd 3d a9 3d 3b f7 d1 4b 3d
       -0.007992891 -0.08139163 0.0028939985 0.049760785
000180 89 c8 38 3d cc 8b 02 be d6 a3 0f 3d 52 1b 17 3d
       0.04511312 -0.12748641 0.035068356 0.03689129
000190 48 13 bb bc 91 a0 18 bd 0a 6d a0 3c 23 e1 24 3d
       -0.022836342 -0.037262503 0.019583244 0.04025377
0001a0 1a ee 1e 3d 7d 23 f4 3c db 97 8f 3c 52 d1 c4 bd
       0.03880129 0.029802078 0.017528465 -0.09610237
0001b0 86 61 e2 bc 3b ea 3d bd 07 b7 92 bd 99 c1 3c bd
       -0.027634393 -0.046365958 -0.07163816 -0.046083067
0001c0 0a 12 79 bb 47 f7 22 bc 10 97 ae bd b4 6f 50 bd
       -0.0038005137 -0.009946651 -0.08524907 -0.05088778
0001d0 2b d9 eb 3c 45 31 0f 3d ee cd dd 3c ce 21 8e bc
       0.028790077 0.034959096 0.027075734 -0.017350104
0001e0 31 28 9d 3c 1b 42 79 3d 90 97 e7 3d a4 ff 07 bb
       0.019184204 0.06085406 0.11308205 -0.002075174
0001f0 e2 25 94 bd 5a 8f 94 3d 25 10 40 3d 78 d4 23 3d
       -0.07233788 0.07253905 0.046890397 0.039997548
000200 3e 55 b2 3d e1 e9 8f 3d 30 de 33 bc 9d 0d a2 bd
       0.08707665 0.07027031 -0.010978267 -0.07912753
000210 2e 06 6b bd 06 71 2c 3d d9 dd 1b bd 1e 44 63 bc
       -0.05737894 0.042099975 -0.038053367 -0.013871221
000220 38 de d0 b9 9b 06 49 3d 24 de 24 bd 09 ce ba bd
       -0.00039838417 0.049078565 -0.040250912 -0.09121329
000230 5a 6c 85 3d cd 63 dd bc 21 06 16 bd 89 20 84 bd
       0.06514807 -0.027025128 -0.03662694 -0.06451518
000240 17 86 80 bd 87 6c 62 bd 14 50 44 bd d0 1c b5 bb
       -0.062755756 -0.05527928 -0.04792793 -0.0055271164
000250 63 19 ee b8 8f 33 82 bc 4b 93 96 3b 9b df fe bc
       -0.00011353453 -0.015893726 0.0045951954 -0.031112483
000260 fa a2 9e 3d 65 50 2b bd 63 fc e7 bb 2e 58 3f bd
       0.07745929 -0.041824717 -0.0070796474 -0.046714954
000270 82 08 a7 bd 70 aa 99 3d ce a6 81 bd 07 9f ff 3c
       -0.081559196 0.075032115 -0.063306436 0.03120376
000280 e9 bd 80 bd b7 e1 7d 3d bb 82 a3 3d 2b 2d a0 3c
       -0.062862225 0.061982837 0.07983919 0.019552788
000290 e8 b9 84 3d cf 99 70 3d 84 51 b7 bd b3 e9 a6 bc
       0.06480771 0.058740433 -0.08951095 -0.020375108
0002a0 6c 16 37 bd 06 a8 8e 3d db 32 17 3c 58 30 0f 3d
       -0.044699118 0.06965642 0.0092284335 0.034958214
0002b0 27 31 8b bd ec b3 8f 3d c4 da 4b 3d 41 be b5 3d
       -0.067964844 0.07016739 0.049769178 0.08874179
0002c0 66 c6 72 bd ad c6 91 bd e8 a4 bf bc 2c 35 85 bd
       -0.05927124 -0.071179725 -0.023394063 -0.06504282
0002d0 1c 30 dd 3c 16 a9 5f bd f3 a9 4b 3d 6a 06 5c bc
       0.02700048 -0.054604612 0.049722623 -0.013429264
0002e0 67 23 cc 3b 19 42 bd 3d 99 14 a0 3c 39 56 9f bd
       0.006229806 0.09241123 0.019541072 -0.077801175
0002f0 d5 1b 36 bd bc e1 aa 3d fb 27 62 3d 2f 1e 04 bc
       -0.044460136 0.08343837 0.05521391 -0.008063837
000300 c5 1b dc 3c 41 79 f2 3c 20 e6 97 bd d3 f5 0b 3d
       0.02686871 0.029598834 -0.0741694 0.034169983
000310 89 ec c0 3c 01 43 7a bd 92 de 98 3d e6 bf e9 3c
       0.023550289 -0.061099056 0.07464327 0.028533887
000320 96 17 1c 3b fa 27 69 bd 66 a3 d8 3c 2b d1 47 bc
       0.002381777 -0.05692289 0.026445102 -0.012195866
000330 5d ec 76 3d ab f4 fb bc 49 23 8c 3c 6e b0 ac 3d
       0.060284007 -0.030756315 0.017106669 0.08432089
000340 df 4e f7 bc 66 5d 74 3d 0d 81 e1 3b 49 3d cf 3c
       -0.030188976 0.059659384 0.006881839 0.025297778
000350 63 13 b8 3c 72 c2 bf 3c 97 0c e7 bc 38 77 4a bc
       0.022470182 0.023408148 -0.028204245 -0.0123575255
000360 63 0e a4 3d b3 cd ba 3c 8a c0 30 bc d1 99 f7 bc
       0.080105565 0.022803163 -0.010788092 -0.030224713
000370 7f bb 91 bc ac 5a 07 3d d6 5c b7 3d e7 39 5c bd
       -0.0177896 0.033045456 0.08953254 -0.053766157
000380 e6 ca 3a bc 84 f7 0d bd df 3e e1 bc fc 70 15 bc
       -0.011400914 -0.034659877 -0.0274958 -0.009121176
000390 9f 78 76 3c 28 94 c9 3d f1 f2 4d 3d 44 4e 19 bd
       0.015043407 0.09842712 0.050280515 -0.037428156
0003a0 8b 49 83 3d 95 59 26 bd 6c 75 88 bd 23 85 37 3d
       0.064105116 -0.040612776 -0.066630214 0.044804703
0003b0 35 57 8f 3c ce 2d 9b bd 53 9c 48 3d 74 18 7e bc
       0.017497638 -0.07577096 0.048977207 -0.01550876
0003c0 a5 da 4b 3c 83 56 f5 bc 5c 2a 5a 3d f1 ab 55 bd
       0.012442266 -0.029948479 0.053263053 -0.05216593
0003d0 3c b8 ea 3c 61 5c 36 bb f1 a9 43 bd 6f 27 86 3d
       0.028652303 -0.0027826058 -0.04776949 0.0655049
0003e0 e8 07 8b ba 7d 70 64 3d aa 22 55 bd 3f 32 a4 ba
       -0.0010607215 0.05577134 -0.05203501 -0.0012527182
0003f0 72 0f 10 bd 47 89 80 3d e0 5d 8c 3d 43 e3 e3 3c
       -0.03517098 0.062761836 0.06853843 0.027818328

bias f4 [64]
000000 71 77 41 bd ad 4c bf bd 2d 16 ae bc 7a 32 8f 3c
       -0.04723305 -0.093407966 -0.021250809 0.017480124
000010 39 aa 87 bd 3b e6 29 bb 48 f4 d8 3c 07 82 aa 3b
       -0.06624264 -0.0025924582 0.02648367 0.0052034887
000020 e7 ec 0b bc 27 43 85 bd 9a ec 10 3c d5 a2 c0 bc
       -0.008540369 -0.06506949 0.008845473 -0.023515144
000030 a9 cc 47 3c 8c cc 0a bd 40 cf be bc 3e 92 ce bc
       0.012194791 -0.033886477 -0.023292184 -0.025216218
000040 09 18 a0 bd 26 53 8e bc d7 d8 1b bc 2b 33 5a 3c
       -0.07817084 -0.017373633 -0.009512148 0.013317863
000050 31 bb 44 3d 1f 60 64 3c 03 86 c0 3c f9 61 9b bd
       0.048030082 0.013938933 0.023501402 -0.07587046
000060 ed ac 83 bd db b0 53 bd 50 46 05 3d 01 14 65 bd
       -0.06429467 -0.051682334 0.03253776 -0.05592728
000070 7d 68 1d 3d 33 c4 e1 bc 42 bb b6 3c d6 45 1d bc
       0.038429726 -0.027559375 0.022306088 -0.00959917
000080 d8 14 82 bd b0 9f bd 3a 7b 21 bd bc ea 64 94 bd
       -0.06351632 0.0014467146 -0.023087254 -0.0724581
000090 3d db 5a 3c 6e 53 2a bd 3e f1 31 3d c8 60 1e bd
       0.013357935 -0.04158347 0.043442957 -0.038666517
0000a0 d4 78 18 3a d1 99 23 bd d5 d0 b6 bd 84 1b 31 3d
       0.00058163446 -0.039941613 -0.0892655 0.04323913
0000b0 9d a0 b7 bc 51 f9 f3 3c ac c6 b6 bd 4e 4c ec bc
       -0.022415454 0.02978197 -0.089246124 -0.028844979
0000c0 8b 05 28 bd 9f 4b 96 bd 78 ef 4a bd 50 da 51 3d
       -0.04102091 -0.07338642 -0.04954478 0.05123359
0000d0 7f d8 de bc b5 4c c9 bc 42 81 c2 bd 36 1a 8a bd
       -0.027202843 -0.02457271 -0.0949731 -0.067432806
0000e0 04 1b ed 3b d0 a4 f1 bb de 21 b9 bd 3e 5a 3d 3a
       0.0072358865 -0.0073743835 -0.09039663 0.0007223225
0000f0 c3 a8 a2 3d 6e e8 18 3d 2a 87 69 bd 4f d2 03 bd
       0.07942345 0.037331037 -0.057013668 -0.032182988

weight f4 [64, 64, 3]
000000 75 5e 46 bb 4c cd 9d bd ce b4 7b bd 32 cc 5b bd
       -0.0030268703 -0.07705173 -0.061451726 -0.053661533
000010 5f 05 95 3c 33 e2 2f 3d 9e 48 a9 bd 91 21 03 3d
       0.018191038 0.04294033 -0.08265804 0.032014433
000020 85 b7 6f 3d cb 71 d8 bd ae 0c 3e 3d a6 11 40 bd
       0.058524627 -0.10568579 0.04639881 -0.04689183
000030 59 4e 64 bc ee 47 03 3d 90 31 51 bd 1b 3d 4e bd
       -0.013934695 0.03205102 -0.051072657 -0.050351243
000040 8d 4e e4 3d b9 46 70 3d 76 60 d7 bc 47 a2 8a bd
       0.11147795 0.058661196 -0.026291113 -0.06769233
000050 f9 28 71 3d 30 4e 96 bd 38 4f 5f bc 69 96 b3 bc
       0.058876965 -0.07339132 -0.013629727 -0.021922307
000060 59 45 12 bd 1b 10 40 bd 11 47 ab 3b 24 1d d9 bb
       -0.035710666 -0.04689036 0.0052269776 -0.0066257883
000070 b6 03 ad 3d e8 72 89 3c f5 27 56 bc 30 6c 03 3d
       0.084479734 0.016778424 -0.01307105 0.032085598
000080 ff 0f c2 3d 3c 54 05 3d 8e e7 0a 3d 2f cf 4e bd
       0.09475707 0.032551035 0.033912234 -0.050490554
000090 2b ab 4a bd ea cd fd bc f7 c3 d0 3c d1 a7 79 bd
       -0.049479645 -0.030981977 0.025484068 -0.060951058
0000a0 11 f5 93 bd 3d 85 95 3c 8e 85 38 bc 56 33 a8 ba
       -0.07224477 0.01825201 -0.011262311 -0.0012832682
0000b0 d5 1a bd bb 31 e4 0f bd a2 e0 3c 3d be 22 89 3c
       -0.005771021 -0.03512973 0.046112664 0.0167402
0000c0 76 d1 b2 3d 1c bc 43 bd 75 cc f0 3c b1 67 29 3c
       0.08731358 -0.047786817 0.029394368 0.010339663
0000d0 ed 0f 95 bc 9a e1 65 3c 05 d8 40 3d b2 fd df 3c
       -0.01819607 0.014030838 0.047081012 0.027342651
0000e0 a5 d7 b0 bc 57 5f f9 bc e4 44 77 3b 1d 14 0d 3c
       -0.021587202 -0.03044097 0.003773027 0.008610752
0000f0 b2 bb 62 bd ba 28 33 bc d1 40 f2 bd 18 6e 4a 3d
       -0.05535478 -0.010935003 -0.11828769 0.0494214
000100 42 e8 da bc 48 4f c5 bd 3e 93 43 bd 72 71 f2 bc
       -0.026722077 -0.09634262 -0.047747843 -0.02959511
000110 b4 45 4b bc 98 28 17 bd bd 2d 29 3d 32 9a 87 bc
       -0.012406755 -0.036903948 0.041303385 -0.016553018
000120 fd b8 8b bc ea 8a 0b 3d 9c 4e ab bd 13 f5 37 3b
       -0.017055983 0.034068026 -0.08364603 0.002806966
000130 88 dc c8 bc 71 af 9b 3c b4 22 61 3c 18 39 60 bd
       -0.02451922 0.019004555 0.013741184 -0.05474195
000140 1d 89 08 bd d5 84 17 bc 7d 86 8a bd 33 87 10 bc
       -0.033333886 -0.009247978 -0.06763933 -0.0088212965
000150 4a db 3b bd 67 15 2f 3c 80 51 69 bd 8a 62 e6 bc
       -0.045863427 0.010686255 -0.05696249 -0.028123159
000160 10 00 13 bd 9b 04 88 3c e1 18 9f bc 07 b6 5a 3d
       -0.03588873 0.016603759 -0.019421043 0.05339625
000170 25 4d bc 3c 73 22 6b bd 60 34 da bc 5d 46 15 3d
       0.022986004 -0.0574059 -0.026636302 0.036444057
000180 c1 70 83 3c 1c 8a b6 bd d2 ae 68 3a 0c 2b d6 bc
       0.016044976 -0.08913061 0.0008876148 -0.026143573
000190 2d 87 89 bd b3 0c 34 bb 46 80 08 bd d6 a4 67 3d
       -0.06715236 -0.002747339 -0.033325456 0.056553684
0001a0 bb 44 01 3e 1b 0a d9 bc 24 21 30 bc 6a 59 09 bd
       0.12623875 -0.026494076 -0.010750089 -0.033532538
0001b0 f7 9d 94 3d 85 6e 10 bc 3c 65 6e bc 14 d7 f4 bb
       0.07256692 -0.008815412 -0.014550503 -0.0074719284
0001c0 85 51 6a 3d 42 da 2a bd 1b fa 9e 3d 87 9f 81 3b
       0.05720665 -0.041712053 0.077625476 0.0039557847
0001d0 47 b6 05 3d ae c4 03 3d c4 21 9d 3b 3a 7b c9 3c
       0.032644536 0.03216999 0.004795285 0.024594892
0001e0 4f 35 2a 3d 5c 58 51 bc 50 f0 b9 3d 35 3d 3c bd
       0.041554745 -0.012777414 0.09079039 -0.04595681
0001f0 aa aa 95 bd ae c0 f7 bc 13 7e 31 3d 21 8c e9 ba
       -0.07307942 -0.030243244 0.043333124 -0.0017818251
000200 33 97 b0 3c fb ff 69 bd f6 fb 28 3d de 59 91 bd
       0.021556472 -0.057128888 0.041255914 -0.07097219
000210 be 71 2a 3d 49 e9 1b 3e b0 80 bb 3d 76 21 65 3c
       0.04161238 0.1522571 0.091554046 0.0139850285
000220 68 8f 05 bd 33 b1 58 bd ec b1 1d bd a4 28 1e bc
       -0.032607466 -0.052903365 -0.038499758 -0.009653244
000230 fa b6 b9 bc e6 54 0a bd d2 bc bf bd ba e9 11 3d
       -0.022670258 -0.03377237 -0.093621865 0.03562329
000240 9d 10 bc 3d 83 04 2d 3d c6 00 2d 3d 4e cb 69 3c
       0.09182856 0.04224063 0.042237066 0.014269663
000250 35 42 24 bd 69 a7 cf bd 4b 0c 2b 3d 56 d5 4c bd
       -0.040102202 -0.10139353 0.04175977 -0.05000814
000260 e9 16 7f 3b a5 42 52 bd 87 8b 32 bd 4e fd 37 bd
       0.0038923568 -0.05133309 -0.043590095 -0.044919305
000270 96 66 27 3d 7c b9 fe bc 3e 8b 63 3d 65 68 89 3d
       0.040869318 -0.031094305 0.055552714 0.06709365
000280 5a c0 9e bd e8 0c c4 3d e5 79 55 3b 9b 4d cd bb
       -0.07751532 0.09572774 0.0032573876 -0.006265355
000290 31 90 38 3d 2d d2 43 3d 1c 6f 72 bd 9e 92 db 3a
       0.045059387 0.04780786 -0.059187993 0.0016752069
0002a0 9f 1a 86 3c 86 e4 81 3d a6 6f 8f 3c de ba 70 bd
       0.016370116 0.063424155 0.017509293 -0.05877196
0002b0 11 48 7d 3d 7a 69 ae bd 66 8e 93 bd 81 c7 d2 3c
       0.061836306 -0.08516212 -0.07204895 0.025729897
0002c0 77 08 bb 3d b7 ea 1c 3b e5 68 15 ba e8 c9 a0 3d
       0.09132474 0.0023943612 -0.00056995294 0.078510106
0002d0 02 d3 ef bc c4 46 05 be e8 76 e5 bc 7c 73 4b 3d
       -0.029275421 -0.13015276 -0.0280108 0.04967068
0002e0 59 d2 75 3d 38 02 00 3d b8 72 db 3d b9 d3 c2 bc
       0.060015056 0.031252116 0.1071524 -0.023782598
0002f0 d2 cc 97 3c e8 8e 11 bc 0f f1 d1 bc 4f 14 84 3d
       0.018530283 -0.008884169 -0.025627641 0.06449186
000300 06 11 03 bc 3b e7 8b 3d 62 ec 6c 3d fd 8f ea bc
       -0.007999664 0.06831213 0.05784262 -0.028633112
000310 88 99 80 3d 22 14 7f 3c b3 32 a0 3c cd bd e1 bc
       0.06279284 0.015568765 0.019555425 -0.027556324
000320 f5 07 1c bd 0d 1a 8d bb e4 f7 01 3d 7f 6b fd 3d
       -0.038093526 -0.004306084 0.031730548 0.12374019
000330 39 35 d3 3a f8 f7 43 bd fc b0 93 3d d5 7d 34 3d
       0.0016113884 -0.047843903 0.072114915 0.044065315
000340 95 87 2f bc b5 32 f3 bc 77 1c 5d 3d ee e0 55 3c
       -0.010713478 -0.029687265 0.053982224 0.013054116
000350 db 57 99 3c d4 ce 51 bd 4f 22 a0 bd 50 4d fd bc
       0.01871865 -0.051222637 -0.07819044 -0.030920655
000360 79 e0 a1 3d d8 af 93 bd a3 49 57 3c fe 96 bc bc
       0.07904143 -0.07211274 0.013140115 -0.023021217
000370 a2 33 b5 bd 59 73 e1 bc 56 34 cb bc 8a 17 8f 3d
       -0.08847739 -0.027520822 -0.02480523 0.069869116
000380 43 f8 74 bd 7a 36 8e 3d 89 59 65 3d 82 76 9d 3c
       -0.059807073 0.06943984 0.05599359 0.019221548
000390 41 a4 18 bd 31 0c 4e bd 43 3d 11 3d 30 ee a0 bd
       -0.03726602 -0.050304595 0.035458814 -0.07857931
0003a0 96 34 51 bd 5c 07 8e 3d d1 e9 9c 3c 20 14 e1 bb
       -0.05107554 0.069349974 0.019154461 -0.006868854
0003b0 e9 5e 78 3c ec a1 1a 3d b0 54 8f bd 20 6a a5 bc
       0.015159347 0.037752077 -0.06998575 -0.020192206
0003c0 30 30 8a 3d 5c 2d 10 3d 26 1c 82 bd cc d4 52 bd
       0.06747472 0.035199508 -0.06353025 -0.05147247
0003d0 fb 62 c2 bd 38 11 8c 3d 74 7c d5 3b 49 b0 b0 3b
       -0.09491535 0.06839222 0.00651508 0.0053921086
0003e0 31 4a 53 bc 72 58 15 bd b8 0a 90 3c ad 9b 3c 3c
       -0.012896107 -0.0364613 0.017583236 0.011511725
0003f0 80 3b 8f bd e8 3d 3a 3d ce 8e e6 bc 4a 16 a3 3c
       -0.069937706 0.045469195 -0.028144266 0.01990809

bias f4 [64]
000000 2d fd 6a bd b6 3d 99 3c d7 61 94 bd 0c 61 24 bd
       -0.057370353 0.018706184 -0.07245224 -0.040131614
000010 d8 4b 5e bd dc ca 54 bd 5d ad 46 bd 00 d1 12 bd
       -0.05427155 -0.051951274 -0.048505176 -0.03584385
000020 e3 4d fb 3c e5 b1 f6 bd cd ee c2 bd 8d 25 bd bd
       0.030676788 -0.120456494 -0.09518204 -0.09235678
000030 12 54 15 3d bd ad b3 bc f5 5c 15 3d c1 41 e4 bc
       0.03645713 -0.02193343 0.036465604 -0.027863385
000040 39 98 03 3d a1 cd a2 3c 58 b2 92 bd f5 8b 94 bd
       0.032127593 0.019873442 -0.071629226 -0.07253257
000050 e3 b2 b4 bc a8 c0 86 bc ef ad 68 3b f0 9c 35 bd
       -0.022057956 -0.016449288 0.0035504063 -0.04433912
000060 97 f6 40 bd e5 11 01 3d 95 e7 bf 3b 54 ed 78 bd
       -0.047110166 0.031511206 0.005856464 -0.06077321
000070 44 ff c0 3c c0 4a 91 3d 88 0a 23 bd 55 26 3a bd
       0.02355922 0.070943356 -0.039804965 -0.045446713
000080 66 f3 c6 3c d2 f1 a9 bc 43 15 b9 bd 66 17 b0 bd
       0.024285983 -0.020745192 -0.090372585 -0.08598213
000090 d0 98 6f 3d 1d 25 d3 bd 44 56 70 bd 43 b3 98 bd
       0.058495343 -0.10309813 -0.05867602 -0.074560665
0000a0 13 ee 40 bd 8b dd ea bd 5f fa 9c bc d1 79 23 3c
       -0.047102045 -0.11468037 -0.019162355 0.009977774
0000b0 fa d7 ba bd ed 2a 3c bd 1f 4f e2 bd 1e da b5 bd
       -0.091232255 -0.045939375 -0.110502474 -0.08879493
0000c0 25 46 50 bd 9f eb 9c 3c 46 88 00 bd 4e 84 8f bd
       -0.050848145 0.019155322 -0.03137996 -0.07007657
0000d0 33 11 ff bd 7e 3c 63 bd b5 13 b9 bd d3 1b 89 bd
       -0.12454452 -0.05547761 -0.09036962 -0.0669476
0000e0 76 13 29 bd d2 fe 34 bd 4d 84 43 bc 4e b7 49 bd
       -0.041278325 -0.044188328 -0.011933398 -0.04924708
0000f0 0a bc c2 bc 41 07 db 3c 92 ee fe bd 32 06 83 3d
       -0.023771305 0.026736857 -0.124478474 0.06397666

weight f4 [64, 64, 3]
000000 71 81 fb bd 3d 16 01 3b 99 77 1c bc ae 20 37 3d
       -0.12280548 0.0019697093 -0.009549999 0.0447089
000010 47 7c ca 3c b6 86 a3 bd ed db 1e 3d 5e d1 4c bd
       0.024717463 -0.079846784 0.038783956 -0.050004356
000020 2f 19 f1 bd d2 8b e3 3c cd df 17 bd 56 f0 31 bd
       -0.117723815 0.027776632 -0.037078667 -0.043442093
000030 10 1e 3f 3c 48 6d 06 3d ff e6 6e bd 6d 83 17 3d
       0.011664882 0.032819062 -0.058325764 0.03699057
000040 c0 5f bd 3d f2 cb 83 3a 3c 43 b6 bd 32 f0 25 be
       0.092467785 0.0010055287 -0.08899543 -0.16204908
000050 5f 2d e1 3c 20 ce bd bc d2 2d da 3d 48 fd a8 bd
       0.027487455 -0.023169577 0.10653271 -0.082514346
000060 d1 4b 87 bd a3 1a 32 bd 2b cb 79 bd 33 4c 06 3d
       -0.06606258 -0.043482434 -0.06098477 0.032787513
000070 05 83 7c 3d a5 d1 e2 bc a4 2b 58 bd 78 24 68 3d
       0.061648387 -0.027687857 -0.052775994 0.056675404
000080 b9 49 cb bd 4e 93 4f bc 51 19 23 3d 1c a9 a3 3c
       -0.09926171 -0.0126693975 0.039819065 0.019978099
000090 14 e8 7f bc cb d3 9a bd 9a 72 b7 bd 70 79 4d 3d
       -0.015619297 -0.075599276 -0.089574054 0.05016464
0000a0 df e1 37 bd aa 77 64 bd f9 67 8d bd a7 ff e6 3c
       -0.04489314 -0.055778183 -0.06904597 0.028198076
0000b0 54 00 d1 bc 95 c2 b2 bd c9 ca a0 bc 5a 9e 0c be
       -0.025512852 -0.0872852 -0.019627945 -0.13732281
0000c0 6b 37 b6 bd e9 63 2a bd 04 11 0b 3d 86 a8 fc bb
       -0.08897289 -0.041599188 0.033951774 -0.0077105192
0000d0 60 e3 ef bc f9 d3 ea 3c 4f 28 39 3d b5 6a 5d 3d
       -0.029283226 0.02866553 0.045204457 0.054056842
0000e0 01 33 8e 3d 49 89 4f bd 39 85 4d 3d dc 0b a9 bc
       0.06943322 -0.050668035 0.05017588 -0.020635538
0000f0 27 d4 28 3d e7 89 c8 bc c3 df d6 3d 87 f8 1b bd
       0.04121795 -0.02447982 0.10491898 -0.03807881
000100 ae f1 be bd 76 7e 78 3d 52 af 32 3d 76 89 ef 3d
       -0.093234405 0.060667478 0.04362423 0.116961405
000110 41 4a b6 bd 28 f4 c8 3d b7 23 91 3d 56 2f 6b 3e
       -0.089008816 0.09812194 0.0708689 0.22967276
000120 25 c9 1e bd 00 f7 ca 3d fe d9 98 3d 77 96 10 3d
       -0.038766045 0.09910393 0.07463454 0.035299744
000130 f3 73 39 be c5 26 4f 3d ab 05 2e bc f8 91 89 3d
       -0.18110637 0.050574083 -0.010621469 0.067172945
000140 c2 67 c5 bc 73 a1 03 be 3b 32 0f 3b 91 6c 0f 3d
       -0.024097327 -0.12854557 0.0021850008 0.035015646
000150 0d bf cb 3b b8 35 8c 3d 3c ba 44 bd 05 54 b6 bd
       0.0062178434 0.068461835 -0.04802917 -0.08902744
000160 f4 fd e2 bd c3 aa 0a bd 7a 43 95 3c 14 aa b7 3d
       -0.11083594 -0.033854257 0.018220652 0.08967987
000170 b3 90 3d bd 33 65 0d 3c 6b 92 a1 3d f7 8b 65 3d
       -0.046280574 0.008630085 0.07889255 0.056041684
000180 73 a8 5c 3d a3 bb 34 3d 56 7c 4d bc 87 eb 8d bd
       0.053871583 0.044124257 -0.012541851 -0.06929689
000190 38 60 81 3c cb e0 af ba 5f 81 ff bc 98 d7 30 bc
       0.015792951 -0.0013418434 -0.031189619 -0.010793589
0001a0 df 7d 61 3c 19 f7 44 bd e3 62 0e bd 87 2e 4e bd
       0.01376292 -0.048087213 -0.034762274 -0.05033734
0001b0 da 76 6f bd cf d3 f1 3c 9a c6 42 be 8e 97 90 bd
       -0.058462955 0.029519944 -0.19021073 -0.07060157
0001c0 ab f8 bd 3d 73 42 3a 3c 5d 9d 84 bd 22 64 a6 3d
       0.09275945 0.011368382 -0.06475327 0.081245676
0001d0 c7 12 4d 3d f1 06 ad bd 40 67 be bd 1a a1 67 3d
       0.050066736 -0.084485896 -0.09297037 0.056550123
0001e0 dc ba d9 3c a8 85 11 bd bf 84 5d 3d 82 72 a1 bc
       0.02657836 -0.035527855 0.054081675 -0.019707922
0001f0 c4 70 67 3d 4f 95 1f 3c 98 28 11 bc 53 4a 49 bd
       0.056504026 0.009740188 -0.008859776 -0.049143147
000200 da 2e d9 3c a5 58 d3 bd 84 3c f8 bc 10 fa 34 3d
       0.026511598 -0.10319642 -0.030302294 0.04418379
000210 a7 e2 19 3c c3 88 94 3c 73 d9 19 3e 90 20 29 bd
       0.009392417 0.01813162 0.15024357 -0.04129082
000220 e7 3a 96 bd 85 c2 e6 3c 49 af 58 3d 1b 2d 70 bc
       -0.073354535 0.028168926 0.05290154 -0.0146591915
000230 c9 74 e5 3c 24 d4 13 3d 9d 58 e6 3d 80 c3 21 be
       0.028009789 0.036090985 0.112473704 -0.15797234
000240 6b a3 e8 3c c7 4c 1b 3d e9 ab 47 3d 0c dd 4b bb
       0.028398236 0.037915017 0.04874793 -0.0031107096
000250 1b 71 de 3d 36 d3 76 bc 64 2c cd 3d 6f 1c a3 3c
       0.10861417 -0.015065005 0.100182325 0.01991102
000260 1f 76 6e bd e9 7d 31 be 3e ae 90 bd 36 4b 96 3c
       -0.058218118 -0.17333187 -0.07064484 0.01834641
000270 49 a9 b9 3c 88 91 53 bd 2f a4 d6 bc 1b 28 52 3d
       0.02266373 -0.05165246 -0.026201336 0.05130778
000280 ee 4a 93 3c 7e 4e 0e bd 23 01 c6 3c 6e d0 7a 3d
       0.017980065 -0.034742825 0.024170464 0.06123393
000290 b3 f6 b2 bd 48 5f 13 3d 64 3e a8 3d 56 05 03 3e
       -0.087384604 0.03597954 0.08215025 0.12795004
0002a0 10 a7 cc bd 46 99 75 bd 31 26 fc bc 16 9b 2c bd
       -0.09992802 -0.059960626 -0.03077993 -0.04214009
0002b0 81 24 27 3d 8e f4 e1 3c 95 ab 4e 3b 7e 4b a2 bc
       0.040806297 0.027582433 0.0031535376 -0.019811388
0002c0 41 cc 12 3d 43 9b c2 3c 46 21 82 3d 47 25 3e 3d
       0.035839323 0.023755675 0.06354003 0.04642227
0002d0 5f f6 61 bd cb f8 bb 3d f8 45 7a bd a9 17 5e 3d
       -0.0551666 0.09178313 -0.061101884 0.054221783
0002e0 71 0f ff bb 7f f2 de bc be 55 88 3d 5b 3c 56 3d
       -0.007783823 -0.02721524 0.06656979 0.052303653
0002f0 b0 c4 d4 bd 27 b8 87 bd 12 cc 77 bd 28 1d 55 be
       -0.10389078 -0.06626921 -0.06049735 -0.20811903
000300 5d 2b 38 bd 70 c3 d7 bc 6a 3f 36 bd 31 69 92 bd
       -0.04496323 -0.026338309 -0.04449407 -0.0714897
000310 4a 0c 83 3d df 7e 40 bd 14 3d 98 bd 07 40 bc 3d
       0.06398828 -0.046995994 -0.07433525 0.091919
000320 e6 d1 82 bd ed 3e 34 3d e7 be be bd 19 9d 9c 3c
       -0.06387691 0.044005323 -0.093137555 0.019117879
000330 42 9a 90 3d 9a d2 43 3d d3 7b 86 3d a8 97 90 3c
       0.07060672 0.047808267 0.06566586 0.01765044
000340 3b d4 0b 3c 8e eb 15 3d f1 99 02 be e2 10 78 bd
       0.008534486 0.036601596 -0.12754036 -0.060562976
000350 d4 e8 66 3b 40 c0 8c 3c 2d 8f 1c 3d 16 6c 2e 3c
       0.0035233991 0.017181516 0.03822248 0.010645887
000360 13 91 38 bc fd bd 02 bd 23 ab 8f bc 71 9c bd bc
       -0.011265057 -0.03191947 -0.017537659 -0.023145886
000370 ef 36 b7 bc d7 f2 df 3c 35 f9 0f 3d 2c 2c 58 bd
       -0.022365062 0.027337475 0.03514977 -0.0527765
000380 a4 7b 98 3d f8 c1 0e bd ac 9b a8 3d d0 da 68 3b
       0.074454576 -0.03485295 0.08232817 0.0035530813
000390 02 b8 32 bd 11 66 dd bb 76 2b 97 bd a1 03 9d 3a
       -0.043632515 -0.006756552 -0.073813364 0.0011979231
0003a0 8a 1c 3d bd 2f 1b f0 3d c5 51 01 3d 7c 2a 2e bd
       -0.046169795 0.11723935 0.031572122 -0.042520985
0003b0 ce 16 15 3c b0 01 7f bd 28 6e 4e bd 8e b9 d4 3c
       0.009099675 -0.06225747 -0.050398022 0.025967386
0003c0 0a ef ba bd 9f 4c b8 bd fd 55 ef bc 48 6c 9d 3d
       -0.09127624 -0.08998989 -0.029215807 0.07686669
0003d0 d2 fb a4 bc 7d a6 1c bc 51 0d b6 3c ae 41 07 3e
       -0.020139609 -0.009561178 0.022223147 0.13208649
0003e0 85 b4 de 3d a9 e8 93 bb 2d 65 8b bc c7 b4 40 bd
       0.10874275 -0.0045138192 -0.017016018 -0.047047403
0003f0 ef 80 52 bd 25 4b 81 bd 44 8c cf 3c c9 e7 a0 bd
       -0.051392492 -0.06313161 0.025335439 -0.078567095

bias f4 [64]
000000 d5 6a 0a be 7b d8 92 bd 75 ae 37 bd e5 a5 07 bc
       -0.13517316 -0.071701966 -0.04484411 -0.008279298
000010 1e 00 85 bd e6 cc 5f 3d 38 2a d2 bc d8 36 39 bd
       -0.06494163 0.054638766 -0.025654897 -0.04521832
000020 a6 ab 9b bd d9 72 b9 bd 9f b0 e4 3b 30 a2 61 bd
       -0.07601099 -0.090551086 0.0069790627 -0.055086315
000030 10 cf 63 bc dd b9 88 bd 7f eb dc bb 64 6b b1 bd
       -0.013904348 -0.066760756 -0.0067419405 -0.08663061
000040 11 fa f9 bc ac 25 bf bc 0d 92 7c bd b4 2d 79 bd
       -0.030514749 -0.023333393 -0.061662722 -0.0608346
000050 52 17 66 bd d1 5e 26 bb 1a 49 66 bd 5d 2e fd bc
       -0.056174584 -0.0025386105 -0.05622206 -0.030905897
000060 70 04 55 3d fc 83 44 bc 02 fe 11 bc cc 53 34 bc
       0.052006185 -0.011994358 -0.008910658 -0.011006307
000070 6b 45 73 3d 30 a4 75 bd 82 85 5d 3d 69 68 19 bd
       0.059392374 -0.059971035 0.0540824 -0.03745309
000080 27 c5 2e 3d 9f b3 94 bd e2 76 8f 3d 0b 86 00 3d
       0.042668488 -0.072608225 0.07005097 0.031377833
000090 77 42 8f bd ae 8c a6 bd 20 79 94 3c 4d c7 2a 3d
       -0.06995099 -0.08132301 0.018124163 0.041693974
0000a0 f8 f6 80 bd 02 f4 ac 3c e5 8e 83 bd 56 ce 6f bd
       -0.062971056 0.021112446 -0.06423739 -0.058546387
0000b0 2c 3d f1 bc 61 8a 21 bd e4 20 9d bd 20 2a 2b 3d
       -0.029448114 -0.03943861 -0.07672289 0.04178822
0000c0 19 ad 4f 3d 89 41 e7 bc 25 2a f3 3c a5 cb 11 be
       0.05070219 -0.028229492 0.029683182 -0.1423784
0000d0 b7 bd 38 bd f7 b6 6d 3d 55 79 ec bc dc 70 4d bd
       -0.0451028 0.058035817 -0.02886645 -0.05015646
0000e0 d9 8c 6c bd 10 82 f8 bd 79 eb 42 bd 2c 9a 99 3c
       -0.05775151 -0.121341825 -0.047587845 0.018750273
0000f0 59 ef bb 3c 6c 71 48 3d 4d 65 8d bd 8c b4 82 3d
       0.022941278 0.048936293 -0.06904087 0.06382093
