models/HisarCNN2019_3_best.pt (torch, 651642 bytes, 20 tensors)

weight f4 [64, 2, 3]
-0.39116004 0.21250536 -0.014365057 0.28936416 0.1398579 0.19600049 0.04422262 0.16517048
0.066404566 -0.08921076 -0.12049091 -0.11849177 0.30962214 -0.33902264 0.078232005 0.21257378
-0.3301378 -0.025726264 -0.18301669 0.2911712 0.34785798 -0.27223733 -0.18575624 0.3352852
0.39489785 -0.05138438 0.27305254 0.30370876 0.4066325 -0.29715124 0.24715237 -0.10591396
-0.11905852 -0.35937876 0.30157867 0.055479072 -0.19410017 0.29862982 -0.37250975 -0.25824142
0.24053958 -0.3337187 0.12028102 -0.12831767 -0.0893279 0.2685787 0.41308522 0.25876212
-0.12880088 -0.31649122 -0.22444706 -0.039518937 -0.031735364 -0.28083435 0.13847636 0.35059607
0.32237193 -0.34279415 -0.036779758 -0.35064375 -0.2825045 -0.20514287 0.3019668 0.0011177572
-0.050186407 -0.38184395 -0.25317627 0.14773628 -0.016678005 0.19933307 0.053909242 -0.06200145
-0.2593655 -0.20688888 -0.056888696 0.21311098 0.32346222 -0.08151351 -0.04915037 0.39573324
0.14793044 -0.13225451 -0.19223708 0.21394905 -0.15093535 -0.11607825 0.34700692 -0.05074888
-0.29569924 -0.101933315 -0.39572784 0.3561621 0.09705271 0.16142343 0.25216782 0.22703306
0.19023657 -0.055097777 -0.057925317 0.05561997 -0.30444545 0.14100496 0.32963324 -0.2598545
-0.32875484 0.004055915 -0.25753352 0.39519325 -0.27771008 -0.30670452 -0.3026676 -0.15314038
0.22580005 -0.22762586 0.106751874 0.2532287 -0.14780056 -0.22119771 0.0449748 -0.0028412535
0.23736036 -0.15258832 -0.36556157 -0.25226143 -0.17654172 0.15524022 0.29143932 -0.29534453
0.066641614 0.35547185 -0.25346935 0.09413477 0.3156447 -0.061987404 -0.017217623 0.03588197
-0.10801075 0.009569918 0.11598448 0.09824195 -0.3435699 0.18283041 -0.0855164 0.38238344
0.12658341 -0.36463633 0.01347366 0.14565995 0.21526766 -0.26010913 -0.11461133 -0.19307028
0.18050358 -0.2445858 -0.14974166 0.060643826 -0.07105166 -0.10608277 -0.2325676 -0.40070596
-0.40792423 -0.09840484 0.35899454 -0.0042323796 0.39572844 0.28041103 -0.028847817 0.18533711
-0.26815063 -0.15382288 0.16038205 -0.22751078 0.37270537 0.20430097 0.39873108 -0.045243733
-0.17420878 -0.311247 0.045880813 -0.12374822 -0.19961421 -0.28737727 -0.113673806 0.043045167
-0.16541484 -0.27871856 0.38726312 -0.37888533 -0.21446069 0.35420805 -0.28093675 -0.041905496
-0.3557658 0.20192829 -0.24716295 -0.29719484 -0.3972592 0.38341188 0.20204064 0.34985214
0.3092017 -0.22012937 -0.3593192 -0.36924788 -0.046191443 0.36511362 -0.1843417 -0.1502719
-0.2227937 -0.36509144 0.08646805 0.07959296 0.35844946 -0.06783143 -0.27307907 0.010583641
0.3303744 0.046632953 0.037280407 0.2109681 -0.16229926 -0.19409573 -0.119701974 -0.20164062
0.045919765 0.2924109 0.13622585 -0.024304617 0.083881624 -0.08885584 0.33724615 0.096527725
0.37984493 0.20977993 -0.22893324 -0.0299366 0.042885754 0.26757565 0.08355897 -0.032659937
-0.20670061 0.084882274 -0.31225848 0.28811222 0.14945787 -0.013848682 0.3763718 -0.058520082
-0.25161216 0.06576337 0.10172115 -0.24324508 0.060805343 0.23426318 -0.28780264 -0.25278738
00000000: 2146 c8be 019b 593e 6b5b 6bbc 8a27 943e
00000010: e936 0f3e 5ab4 483e c722 353d 7322 293e
00000020: 1eff 873d 22b4 b6bd f0c3 f6bd d0ab f2bd
00000030: cb86 9e3e 6094 adbe 1a38 a03d f1ac 593e
00000040: d207 a9be e3bf d2bc ba68 3bbe 6414 953e
00000050: 711a b23e b162 8bbe e236 3ebe 80aa ab3e
00000060: 0d30 ca3e 6d78 52bd 8bcd 8b3e b77f 9b3e
00000070: 2332 d03e 3524 98be 8315 7d3e 6be9 d8bd
00000080: f4d4 f3bd 7e00 b8be 8568 9a3e 063e 633d
00000090: 32c2 46be 02e6 983e 99b9 bebe 3838 84be
000000a0: 0250 763e 2ddd aabe e555 f63d b565 03be
000000b0: 8cf1 b6bd 2683 893e e87f d33e 787c 843e
000000c0: 61e4 03be 230b a2be 73d5 65be 9cde 21bd
000000d0: f1fc 01bd 85c9 8fbe bfcc 0d3e 5481 b33e
000000e0: ef0d a53e b782 afbe 5fa6 16bd 9487 b3be
000000f0: 6ea4 90be f910 52be 649b 9a3e b581 923a
00000100: 4390 4dbd 0d81 c3be 52a0 81be 2e48 173e
00000110: 50a0 88bc f81d 4c3e f0cf 5c3d 3cf5 7dbd
00000120: 8ecb 84be aeda 53be 1f04 69bd c439 5a3e
00000130: d79c a53e 8ef0 a6bd e651 49bd 8c9d ca3e
00000140: 147b 173e ba6d 07be ccd9 44be 7615 5b3e
00000150: cc8e 1abe 6fba edbd e4aa b13e 0fde 4fbd
00000160: e465 97be 6ac2 d0bd d79c cabe e15a b63e
00000170: 92c3 c63d 2f4c 253e 241c 813e 5b7b 683e
00000180: 60cd 423e 35ae 61bd 1943 6dbd c4d1 633d
00000190: 46e0 9bbe 9b63 103e b0c5 a83e a60b 85be
000001a0: 8e52 a8be 7be7 843b 6fdb 83be c556 ca3e
000001b0: 0430 8ebe 6008 9dbe 3ff7 9abe d5d0 1cbe
000001c0: 2138 673e c116 69be baa0 da3d 31a7 813e
000001d0: 0859 17be a781 62be 7f37 383d 5334 3abb
000001e0: 980e 733e 1d40 1cbe e32a bbbe 6928 81be
000001f0: 5ac7 34be 4bf7 1e3e 8937 953e 6637 97be
00000200: 667b 883d 6800 b63e bcc6 81be bbc9 c03d
00000210: 2f9c a13e 81e6 7dbd f90b 8dbc f9f8 123d
00000220: bd34 ddbd 25cb 1c3c 4589 ed3d 1333 c93d
00000230: 65e8 afbe e537 3b3e 3923 afbd c3c7 c33e
00000240: 159f 013e 9db1 babe a0c0 5c3c e227 153e
00000250: 206f 5c3e 062d 85be 58b9 eabd 37b4 45be
00000260: eed5 383e b374 7abe e155 19be a965 783d
00000270: 8883 91bd ec41 d9bd 3326 6ebe 5529 cdbe
00000280: 72db d0be 7a88 c9bd 22ce b73e c6af 8abb
00000290: eb9c ca3e 0992 8f3e 4252 ecbc 03c9 3d3e
000002a0: 0a4b 89be bf83 1dbe 313b 243e 96f8 68be
000002b0: 3dd3 be3e 4634 513e 7b26 cc3e 7e51 39bd
000002c0: c963 32be c45b 9fbe 85ed 3b3d b56f fdbd
000002d0: ab67 4cbe 1d23 93be d0cd e8bd 2150 303d
000002e0: 8262 29be 33b4 8ebe 5a47 c63e 42fd c1be
000002f0: 959b 5bbe c25a b53e f1d6 8fbe 19a5 2bbd
00000300: ef26 b6be 4ac6 4e3e 4918 7dbe ec29 98be
00000310: 8f65 cbbe 904e c43e bee3 4e3e d21f b33e
00000320: af4f 9e3e 9869 61be b0f8 b7be 0f0e bdbe
00000330: 3d33 3dbd 2cf0 ba3e 12c4 3cbe e1e0 19be
00000340: 0824 64be 44ed babe 2916 b13d a201 a33d
00000350: b086 b73e 34eb 8abd 05d1 8bbe 0267 2d3c
00000360: d526 a93e 3202 3f3d 57b3 183d 0608 583e
00000370: c731 26be 08c1 46be 4f26 f5bd e17a 4ebe
00000380: 5d16 3c3d e2b6 953e ca7e 0b3e 7a1a c7bc
00000390: 21ca ab3d 0dfa b5bd 87ab ac3e 54b0 c53d
000003a0: 097b c23e 8dd0 563e 7a6d 6abe 9a3d f5bc
000003b0: f9a8 2f3d adff 883e f720 ab3d 6dc6 05bd
000003c0: 53a9 53be c2d6 ad3d 58e0 9fbe 7283 933e
000003d0: 7c0b 193e 95e5 62bc ceb3 c03e c1b2 6fbd
000003e0: 4fd3 80be f2ae 863d 2e53 d03d 3d15 79be
000003f0: 060f 793d b0e2 6f3e de5a 93be 596d 81be

bias f4 [64]
0.3274439 -0.07019559 -0.14991511 0.21290863 -0.29878867 0.19728252 0.2668748 0.24206524
0.27358443 0.16587874 -0.30308488 0.07235506 -0.04540958 0.054934435 -0.3464653 0.37807032
0.3737539 0.2185817 0.011355526 -0.13134119 0.32142058 0.19463855 0.05602573 -0.12274337
0.355627 0.07214024 -0.102222934 0.05270891 -0.113953374 0.011678257 0.056409016 -0.27599972
-0.047300834 -0.26885885 -0.25963628 -0.23852406 -0.36347994 -0.12564383 0.085565776 -0.3834451
0.36260715 -0.2645663 -0.3677472 -0.26207528 -0.21254528 -0.39394918 -0.08857175 0.33187518
-0.113494486 -0.39440295 0.37622872 0.36982733 0.33568475 0.30060464 0.390168 -0.38510883
-0.08637512 0.32856554 -0.34456268 0.035834108 0.16905016 -0.13855422 0.29331058 0.27893537
00000000: baa6 a73e b5c2 8fbd 5983 19be b804 5a3e
00000010: d4fa 98be 6e04 4a3e d0a3 883e f3df 773e
00000020: 4213 8c3e 1edc 293e f12d 9bbe e42e 943d
00000030: 65ff 39bd ee02 613d e663 b1be 6f92 c13e
00000040: ac5c bf3e e2d3 5f3e 870c 3a3c 4e7e 06be
00000050: 3d91 a43e 544f 473e 3c7b 653d e060 fbbd
00000060: be14 b63e 43be 933d 425a d1bd 4ce5 573d
00000070: 6360 e9bd 2956 3f3c 240d 673d d64f 8dbe
00000080: 85be 41bd dea7 89be 0cef 84be a73f 74be
00000090: 0b1a babe c7a8 00be 1c3d af3d eb52 c4be
000000a0: a5a7 b93e 3c75 87be 5c49 bcbe bb2e 86be
000000b0: 78a5 59be b5b3 c9be 1b65 b5bd 8beb a93e
000000c0: cc6f e8bd 2fef c9be 0da1 c03e 025a bd3e
000000d0: dfde ab3e dae8 993e 1ac4 c73e fc2c c5be
000000e0: 70e5 b0bd be39 a83e 856a b0be c9c6 123d
000000f0: 7c1b 2d3e 28e1 0dbe ce2c 963e 9ed0 8e3e

weight f4 [64, 64, 3]
0.018888034 -0.04229985 0.07212258 0.013345621 0.03258092 -0.036426462 -0.01496314 -0.013626952
-0.001411715 -0.015771965 0.07609672 0.038615193 0.037563846 0.079445146 0.04418567 -0.05356472
-0.0024450487 -0.039755262 -0.054572146 0.0020267838 -0.07770642 0.06903235 0.07577792 0.01781895
0.05003331 -0.07839006 0.0058375285 0.009253134 0.045254096 -0.017647725 0.0026913437 -0.026602104
-0.044762548 -0.06331004 0.06503113 0.026489334 -0.03307481 -0.04921812 0.052937657 0.010993677
0.06717454 -0.07101638 0.030083906 -0.0374024 0.037035313 0.024720289 -0.01139852 -0.027286733
-0.06548936 -0.04418003 0.05777752 -0.008028394 0.053722937 -0.061941117 0.03521119 9.477674e-06
-0.019160809 -0.054830015 -0.019330835 -0.023197588 0.023398057 0.04468251 -0.066706814 0.034938727
0.005782755 0.022706723 -0.04194158 0.041448634 0.06612229 0.029873652 -0.048070747 -0.015275027
-0.026741834 -0.037643015 -0.004370837 -0.071821414 0.06003774 -0.068599805 -0.024202127 -0.04704229
0.009162637 -0.002301114 -0.03487336 0.059341196 0.019121535 0.04988356 -0.004835326 0.025951605
0.028110111 -0.07905088 -0.03506511 -0.023803202 -0.016024042 0.030481108 -0.01840795 -0.035786644
0.031260766 -0.061504804 -0.057289768 0.037728768 0.07540672 -0.048120223 0.017213874 -0.07624225
0.04776887 0.027431702 -0.05354629 -0.05085547 -0.059770763 0.025205389 -0.007155165 0.05157142
0.09619488 0.047778837 0.015653908 0.04570981 0.071635455 0.044068344 0.09929857 0.097836465
-0.003151855 0.00027985725 0.0223781 -0.091509596 0.061864365 0.05329908 -0.053465012 0.01106709
-0.0039918465 -0.0334574 0.03843006 -0.022222288 0.05815222 0.08108455 0.01665126 -0.04776567
-0.047617704 -0.0055843075 0.0030988422 0.0086911805 -0.01554859 0.025707085 0.057674676 0.048891295
-0.009338821 -0.01677749 -0.033215523 0.07037208 -0.020130867 0.06995858 0.040718004 0.038255453
0.067281984 0.059561495 0.022596074 -0.014899796 0.022652155 -0.015173704 -0.04910977 0.021340413
0.0022162294 0.04656052 -0.0728739 -0.07349775 -0.00464915 -0.004675376 -0.041715913 0.033785682
0.049318843 0.057313163 0.011987714 -0.019811384 0.045038372 -0.034039587 0.020130102 -0.03947064
-0.03690579 -0.06359545 -0.0008561288 -0.0013321568 0.054559425 -0.043774627 0.03899427 0.038073216
-0.029856753 -0.0058057006 0.03682651 0.011691316 -0.04980593 0.03660249 0.0678471 -0.056932546
0.032623954 -0.029331954 -0.026494758 0.04246272 0.008684067 -0.030533534 -0.014014857 -0.029627562
-0.0009146693 0.04038727 -0.05312685 -0.05327479 -0.042683028 -0.015789168 0.04636898 -0.036289908
-0.066425115 -0.02719705 -0.04606624 -0.034902148 -0.047540322 -0.020284997 0.007839648 -0.052186254
0.017271906 -0.045391917 -0.00016921009 -0.060295295 -0.04446964 0.0077135507 0.0680131 0.020334242
-0.018830735 -0.041722056 0.050385658 -0.06827825 0.05327092 0.023311866 0.011019373 0.051504828
-0.0040759165 0.04752873 0.029973665 -0.052451506 -0.06064102 0.026679216 0.023613583 -0.011912671
-0.053910524 -0.041442376 -0.06310107 -0.040656596 0.019860802 0.0008845247 0.0601399 0.018225303
-0.05084922 0.017858507 -0.07628787 -0.03193805 -0.048592605 0.020088553 -0.021486158 0.034097504
00000000: 14bb 9a3c 9c42 2dbd 01b5 933d 97a7 5a3c
00000010: 9273 053d ea33 15bd f527 75bc 9443 5fbc
00000020: 4c09 b9ba 3534 81bc 99d8 9b3d f72a 1e3d
00000030: 8cdc 193d 23b4 a23d 08fc 343d ae66 5bbd
00000040: 1c3d 20bb 6ad6 22bd 0b87 5fbd cad3 043b
00000050: 8b24 9fbd d560 8d3d 7431 9b3d 0cf9 913c
00000060: baef 4c3d f88a a0bd bd48 bf3b 759a 173c
00000070: 5c5c 393d f691 90bc 4161 303b a8ec d9bc
00000080: ef58 37bd b2a8 81bd 0b2f 853d 2900 d93c
00000090: 7479 07bd f098 49bd 28d5 583d d31e 343c
000000a0: ce92 893d 0971 91bd 8672 f63c 4233 19bd
000000b0: 57b2 173d 3482 ca3c dcc0 3abc 6d88 dfbc
000000c0: 491f 86bd 1ef6 34bd 1fa8 6c3d 8689 03bc
000000d0: 950c 5c3d f8b5 7dbd 9c39 103d 4d02 1f37
000000e0: 21f7 9cbc 7095 60bd b35b 9ebc de08 bebc
000000f0: 48ad bf3c 0205 373d 959d 88bd e91b 0f3d
00000100: 447d bd3b 7303 ba3c efca 2bbd 0bc6 293d
00000110: 206b 873d 97b9 f43c d5e5 44bd 1b44 7abc
00000120: b111 dbbc 902f 1abd 3d39 8fbb 1b17 93bd
00000130: 22ea 753d 0e7e 8cbd 8a43 c6bc 6baf 40bd
00000140: e31e 163c 49ce 16bb 5ed7 0ebd c10f 733d
00000150: c4a4 9c3c b452 4c3d a871 9ebb 7698 d43c
00000160: 2d47 e63c 6ee5 a1bd 6fa0 0fbd effe c2bc
00000170: da44 83bc 84b3 f93c 45cc 96bc 0495 12bd
00000180: 4a0b 003d 76ec 7bbd ada8 6abd 7b89 1a3d
00000190: d76e 9a3d b619 45bd 1c04 8d3c e624 9cbd
000001a0: 4aa9 433d 73b8 e03c 5b53 5bbd d34d 50bd
000001b0: 30d2 74bd 887b ce3c e075 eabb 8e3c 533d
000001c0: d201 c53d beb3 433d a03c 803c 363a 3b3d
000001d0: 9cb5 923d 0281 343d 0c5d cb3d 7c5e c83d
000001e0: 5a8f 4ebb ceb9 9239 4752 b73c 6269 bbbd
000001f0: 7d65 7d3d 2350 5a3d 21fe 5abd bd52 353c
00000200: 09ce 82bb a00a 09bd d768 1d3d 840b b6bc
00000210: 0631 6e3d a80f a63d 3968 883c efa5 43bd
00000220: c80a 43bd 91fc b6bb f215 4b3b 7465 0e3c
00000230: 83bf 7ebc aa97 d23c 483c 6c3d 3d42 483d
00000240: db01 19bc f270 89bc 000d 08bd 3d1f 903d
00000250: 7de9 a4bc 7246 8f3d ecc7 263d c0b1 1c3d
00000260: 23cb 893d c1f6 733d 671b b93c 461e 74bc
00000270: 0391 b93c 219b 78bc 5427 49bd 17d2 ae3c
00000280: 293e 113b 3eb6 3e3d e93e 95bd fd85 96bd
00000290: e657 98bb e633 99bb 4ede 2abd db62 0a3d
000002a0: 8e02 4a3d 35c1 6a3d 1e68 443c 7c4b a2bc
000002b0: 287a 383d 186d 0bbd e2e7 a43c f7ab 21bd
000002c0: 872a 17bd 553e 82bd d56d 60ba c49b aeba
000002d0: b479 5f3d 064d 33bd 75b8 1f3d a9f2 1b3d
000002e0: 2696 f4bc bf3d bebb 65d7 163d ef8c 3f3c
000002f0: 4e01 4cbd 7eec 153d 6cf3 8a3d 1a32 69bd
00000300: b2a0 053d 9149 f0bc 890b d9bc 64ed 2d3d
00000310: 9e47 0e3c 7621 fabc 929e 65bc 80b5 f2bc
00000320: 6bc6 6fba 1f6d 253d 8a9b 59bd ab36 5abd
00000330: 66d4 2ebd 4958 81bc 66ed 3d3d baa4 14bd
00000340: e409 88bd 59cc debc f4af 3cbd 8ef5 0ebd
00000350: a4b9 42bd b92c a6bc de71 003c 41c1 55bd
00000360: d07d 8d3c e0ec 39bd fd6d 31b9 33f8 76bd
00000370: cc25 36bd f4c1 fc3b 744a 8b3d ff93 a63c
00000380: ea42 9abc bfe4 2abd 3161 4e3d 78d5 8bbd
00000390: 9c32 5a3d 87f8 be3c 9a8a 343c baf6 523d
000003a0: 448f 85bb 7cad 423d 558b f53c 64d7 56bd
000003b0: b862 78bd 5f8e da3c 4671 c13c 5d2d 43bc
000003c0: 48d1 5cbd 7bbf 29bd 223b 81bd 8887 26bd
000003d0: 1fb3 a23c 73df 673a 4155 763d 3b4d 953c
000003e0: 4647 50bd 014c 923c d13c 9cbd 79d1 02bd
000003f0: 0a09 47bd c090 a43c bd03 b0bc d3a9 0b3d

bias f4 [64]
-0.045547333 -0.025407458 -0.04066593 -0.05095334 0.032344658 0.029249765 0.008282234 -0.0062769554
0.0036849915 0.05123018 -0.049115293 -0.037518222 0.032860216 0.010617255 0.060932774 -0.052148495
0.020032872 0.051641863 0.02297576 4.81161e-05 0.042521052 0.05615696 -0.06637621 0.06778897
-0.01633 0.02202221 0.053078283 -0.066034876 0.029316716 -0.0676438 0.030113673 0.008378227
-0.059528302 -0.055831585 -0.047376603 0.014593205 -0.03214343 0.03431974 -0.012500017 0.03280639
0.03722823 -0.058108635 0.03460993 -0.038838428 -0.061279867 -0.0050798305 -0.0030085312 0.0034785112
-0.07641287 -0.008951764 0.045257222 0.033795383 -0.02551858 -0.03915006 0.037872035 0.0047715744
0.04171349 -0.050841715 0.01566617 -0.03170112 -0.008323864 -0.074533276 -0.070612825 -0.025783699
00000000: d78f 3abd 4d23 d0bc 5191 26bd 73b4 50bd
00000010: d57b 043d 349d ef3c 35b2 073c ebae cdbb
00000020: e67f 713b bdd6 513d 1e2d 49bd b5ac 19bd
00000030: 6f98 063d fff3 2d3c a594 793d a999 55bd
00000040: fa1b a43c 6b86 533d a937 bc3c 45d0 4938
00000050: 8e2a 2e3d d704 663d 40f0 87bd f2d4 8a3d
00000060: 7ec6 85bc ec67 b43c 9d68 593d 4b3d 87bd
00000070: 9c29 f03c d588 8abd f3b0 f63c d544 093c
00000080: f3d3 73bd a9af 64bd f80d 42bd 5718 6f3c
00000090: d4a8 03bd db92 0c3d dfcc 4cbc fe5f 063d
000000a0: a17c 183d 5203 6ebd 24c3 0d3d 0b15 1fbd
000000b0: 9900 7bbd b574 a6bb c72a 45bb bcf7 633b
000000c0: 5a7e 9cbd 6baa 12bc a35f 393d 076d 0a3d
000000d0: 570c d1bc d05b 20bd b51f 1b3d de5a 9c3b
000000e0: c4db 2a3d 673f 50bd 5756 803c 09d9 01bd
000000f0: d160 08bc e7a4 98bd 759d 90bd 5638 d3bc

weight f4 [64, 64, 3]
-0.018142557 -0.015797198 0.029805504 0.08416553 0.042636093 0.060583953 -0.008606518 0.026732542
-0.071744904 0.04566385 0.021339402 0.06835134 -0.019395232 -0.07170447 -0.036823202 0.04411991
0.022947747 0.01985867 0.00945728 -0.03365324 -0.07152905 -0.07134807 0.05145274 -0.028237538
-0.049882285 9.5591684e-05 0.019661441 -0.030453984 0.017758282 0.03033667 0.021490563 0.04467359
-0.058709905 0.05055239 -0.01295556 0.048345163 0.030629963 0.07728469 0.022265349 0.07294035
0.0059988187 -0.065911874 -0.04777953 0.02559877 0.050011374 -0.024170795 0.06348957 0.014151869
0.020993026 -0.061630536 -0.06932217 -0.01720148 0.056071404 0.046756025 0.0028768475 -0.039691355
0.07007697 0.003295797 0.011506677 0.007966127 -0.054838754 -0.05359476 0.061324358 -0.0007492662
0.012180278 0.043950774 0.06519587 -0.031384308 0.036779404 0.034865297 0.010859647 0.04266605
-0.0018351759 -0.019326903 0.05215227 0.035445455 0.010268141 0.023953773 -0.010248803 -0.009033403
0.07543063 0.00010890137 0.00094205287 0.055444073 -0.03964207 -0.013750931 0.05932122 0.034932557
0.022396816 -0.059571147 -0.019980488 0.056681443 0.049917035 -0.07297651 0.031158095 0.024364786
0.001440121 -0.055607256 -0.014132155 0.0009099049 0.010409565 -0.010131007 -0.029644717 0.038681764
0.043016244 -0.043985046 0.0024160459 0.0029465498 0.013765389 -0.0039307186 0.03373865 -0.046872143
0.07601304 -0.005356843 0.029865261 -0.080373965 -0.065990075 0.03767382 0.0010687314 0.017267698
0.01941723 0.043205146 -0.029873528 0.048329353 -0.056404267 -0.07070787 -0.038207494 -0.04481347
0.044852104 -0.039159566 0.0593589 0.030888533 0.01412859 -0.027111057 -0.026982734 0.09463543
0.012984613 0.014411977 0.023795985 0.005880975 -0.019568624 -0.035050362 -0.04037534 -0.035906922
-0.019217124 0.0501082 0.010700996 -0.020221148 -0.0386124 0.025546564 0.0246372 -0.07603382
0.016617926 -0.04475426 -0.0049666157 0.038355757 0.06880288 -0.03426096 -0.05385011 0.05482789
-0.051511712 -0.06686443 -0.04125428 0.047625892 0.024416856 0.022148907 -0.0022472057 -0.043450303
-0.04715286 -0.03447295 -0.04340952 -0.049864907 -0.06277206 0.054622367 -0.039335888 -0.06465951
0.04787559 0.006323755 0.015984042 0.045549337 0.026767893 -0.035869285 -0.039679233 0.011033878
0.020406457 0.039118238 0.042615987 0.034863085 0.026381483 0.04634976 0.050483722 0.019786848
0.064620785 0.044376925 -0.07304011 -0.04961652 -0.023343205 0.07537129 -0.04894071 -0.070340976
-0.029485635 -0.06390574 0.026631044 -0.008836833 0.011015272 0.044371706 0.0020827476 0.024241544
-0.017525338 -0.051860873 -0.040711302 0.027887616 -0.0554867 0.044605657 0.07135179 -0.009228399
0.0607074 -0.0042506424 -0.010795597 -0.015522647 0.05813944 -0.01684902 0.05101195 0.040496007
-0.03344169 0.04299887 0.03192927 0.00826182 -0.026578134 -0.06655142 0.03396284 0.00013645418
0.035754573 0.018126162 -0.05089738 -0.06598149 0.029156335 -0.010569344 0.03325544 0.030518113
-0.018647807 0.0065409583 -0.06310087 -0.059217036 -0.022283046 0.041708145 -0.04550591 0.02487616
0.04475157 -0.05313951 0.0015808535 0.038387317 0.025999293 0.019967005 -0.0076172813 0.007187505
00000000: b39f 94bc 2069 81bc ac2a f43c fa5e ac3d
00000010: 2fa3 2e3d e126 783d 5a02 0dbc 34fe da3c
00000020: feee 92bd 040a 3b3d f8cf ae3c cafb 8b3d
00000030: c0e2 9ebc cbd9 92bd edd3 16bd 14b7 343d
00000040: eafc bb3c a6ae a23c b5f2 1a3c fbd7 09bd
00000050: d37d 92bd f01e 92bd 1cc0 523d 6952 e7bc
00000060: 5e51 4cbd 6578 c838 0811 a13c a27a f9bc
00000070: d179 913c 9c84 f83c fa0c b03c a8fb 363d
00000080: cc79 70bd 0610 4f3d 8f43 54bc 9405 463d
00000090: b0eb fa3c 7047 9e3d d265 b63c c061 953d
000000a0: bd91 c43b cefc 86bd 78b4 43bd 83b4 d13c
000000b0: bad8 4c3d d501 c6bc d206 823d 3edd 673c
000000c0: 91f9 ab3c 4d70 7cbd c8f8 8dbd 1eea 8cbc
000000d0: 21ab 653d 3f83 3f3d 7e89 3c3b 6793 22bd
000000e0: 8484 8f3d 4cfe 573b 8086 3c3c 5c84 023c
000000f0: 9a9e 60bd 2e86 5bbd 402f 7b3d 676a 44ba
00000100: ca8f 473c ba05 343d 6a85 853d d58c 00bd
00000110: 00a6 163d eace 0e3d a9ec 313c 99c2 2e3d
00000120: 498a f0ba 7453 9ebc 9e9d 553d 412f 113d
00000130: b43b 283c b43a c43c 98ea 27bc d700 14bc
00000140: 607b 9a3d fa61 e438 19f4 763a 5319 633d
00000150: b95f 22bd 964b 61bc cffa 723d 7115 0f3d
00000160: 8779 b73c e000 74bd 1fae a3bc cd2a 683d
00000170: ce75 4c3d b574 95bd 433f ff3c a998 c73c
00000180: 71c2 bc3a 6fc4 63bd 8e8a 67bc af86 6e3a
00000190: e18c 2a3c 86fc 25bc 7ad9 f2bc c570 1e3d
000001a0: cd31 303d aa29 34bd 8656 1e3b e71a 413b
000001b0: 3a88 613c 42cd 80bb 8a31 0a3d 01fd 3fbd
000001c0: baac 9b3d 7588 afbb fea7 f43c 1b9b a4bd
000001d0: ce25 87bd dd4f 1a3d ad14 8c3a fd74 8d3c
000001e0: e210 9f3c e1f7 303d 54b9 f4bc 00f5 453d
000001f0: 2908 67bd 4acf 90bd 767f 1cbd 548e 37bd
00000200: d7b6 373d c865 20bd 5122 733d f309 fd3c
00000210: 9a7b 673c 0218 debc e50a ddbc 38d0 c13d
00000220: 6abd 543c 3620 6c3c ccef c23c 32b5 c03b
00000230: 614e a0bc f890 0fbd 9d60 25bd 2313 13bd
00000240: 3b6d 9dbc 423e 4d3d 3b53 2f3c d2a6 a5bc
00000250: 0928 1ebd 0747 d13c f4d3 c93c 9fb7 9bbd
00000260: 5122 883c 3e50 37bd febe a2bb ed1a 1d3d
00000270: 86e8 8c3d 3855 0cbd ef91 5cbd 3693 603d
00000280: f2fd 52bd 38f0 88bd 3ffa 28bd 5e13 433d
00000290: dc05 c83c a071 b53c db45 13bb f2f8 31bd
000002a0: 5b23 41bd 8233 0dbd 2ece 31bd 253f 4cbd
000002b0: a38e 80bd b4bb 5f3d ab1e 21bd 356c 84bd
000002c0: 3219 443d 8037 cf3b f7f0 823c f191 3a3d
000002d0: 5748 db3c aceb 12bd b186 22bd 70c7 343c
000002e0: 712b a73c 723a 203d 1a8e 2e3d 98cc 0e3d
000002f0: fb1d d83c 3fd9 3d3d 05c8 4e3d 0718 a23c
00000300: e757 843d 94c4 353d 0e96 95bd b13a 4bbd
00000310: 403a bfbc 435c 9a3d 0e76 48bd ee0e 90bd
00000320: dc8b f1bc 03e1 82bd 5929 da3c 5dc8 10bc
00000330: 6679 343c 1bbf 353d b57e 083b 3496 c63c
00000340: 4c91 8fbc 116c 54bd e5c0 26bd 9274 e43c
00000350: 0646 63bd 6cb4 363d e320 923d b632 17bc
00000360: 53a8 783d f948 8bbb 04e0 30bc b352 7ebc
00000370: 9f23 6e3d f506 8abc e8f1 503d 24df 253d
00000380: 27fa 08bd 951f 303d 44c8 023d 965c 073c
00000390: 63ba d9bc 1c4c 88bd 9e1c 0b3d 2415 0f39
000003a0: 6373 123d 517d 943c c579 50bd 4e21 87bd
000003b0: 44d9 ee3c 0b2b 2dbc db36 083d 1f01 fa3c
000003c0: 49c3 98bc 8955 d63b 073b 81bd 908d 72bd
000003d0: ef8a b6bc 29d6 2a3d 6864 3abd 17c9 cb3c
000003e0: 6c4d 373d d1a8 59bd a434 cf3a 053c 1d3d
000003f0: 78fc d43c d891 a33c 639a f9bb 2985 eb3b

bias f4 [64]
-0.045772396 0.03637341 -0.023699872 -0.0516406 -0.066746265 0.030005025 -0.013921126 0.060095865
0.062446117 0.060584053 0.018579666 0.064624995 0.06258152 0.0020650208 0.04495236 0.013699603
0.013815165 -0.025903571 -0.061775066 -0.017614052 -0.016658263 0.003154167 -0.065292485 0.034898832
-0.023686066 0.033675388 -0.008724278 -0.018754259 0.049334545 -0.06823538 -0.004684972 0.03764001
-0.04591604 0.011193556 -0.05382627 -0.07463748 0.009787075 -0.04949982 -0.040755086 -0.009578183
-0.054846473 0.010288382 0.05647027 0.038524985 -0.030550122 -0.069831125 -0.061305318 0.028731061
0.03737878 -0.067683615 0.050961502 0.042020984 -0.0029874267 0.059403688 0.015061932 0.04455807
0.024134709 -0.060104337 -0.011326906 -0.048810847 -0.011056354 -0.04364165 0.03328169 0.041705884
00000000: d67b 3bbd 49fc 143d 3c26 c2bc 1885 53bd
00000010: 44b2 88bd 19cd f53c 6f15 64bc 1527 763d
00000020: 80c7 7f3d fc26 783d 6234 983c 1c5a 843d
00000030: bd2a 803d 4d55 073b f71f 383d 4d74 603c
00000040: 0059 623c ba33 d4bc da07 7dbd 584b 90bc
00000050: e976 88bc 24b6 4e3b 11b8 85bd 14f2 0e3d
00000060: 4809 c2bc 34ef 093d 46f0 0ebc 88a2 99bc
00000070: 0513 4a3d febe 8bbd 6584 99bb 692c 1a3d
00000080: 7512 3cbd 2d65 373c ef78 5cbd 89db 98bd
00000090: f859 203c 53c0 4abd ceee 26bd d0ed 1cbc
000000a0: b2a6 60bd 9a90 283c 5f4d 673d 60cc 1d3d
000000b0: 4044 fabc 9f03 8fbd 491b 7bbd 675d eb3c
000000c0: 7e1a 193d b59d 8abd 02bd 503d 321e 2c3d
000000d0: b4c8 43bb 4851 733d 52c6 763c 8682 363d
000000e0: 27b6 c53c f72f 76bd 7d94 39bc e2ed 47bd
000000f0: b625 35bc 96c1 32bd 6252 083d cad3 2a3d

weight f4 [64, 64, 3]
0.03306907 -0.019582763 -0.052772935 0.057757385 0.0180724 -0.012034145 0.028002186 0.034366053
0.046452135 0.03867482 -0.03092295 0.013296333 -0.020923426 -0.06522845 -0.043648414 0.02883141
0.022734374 -0.0053300727 -0.053322747 0.04536276 0.020761512 0.06713686 -0.039145652 -0.020534927
-0.059126437 -0.068683185 -0.044547126 0.008262669 0.046626665 -0.0216932 0.019769533 -0.039597686
0.0044934987 0.006822482 0.053616796 0.028856086 -0.052980147 0.027309697 -0.008154384 -0.024069207
-0.07556085 0.016891023 -0.02197593 0.007844133 0.03734567 0.043895695 0.0047954204 0.05421596
-0.055951014 -0.06815867 -0.07158851 0.05168838 0.05720042 0.013376768 0.022357797 -0.036058567
0.0016083139 -0.008257658 -0.03234355 -0.031315096 -0.014355221 -0.018297981 -0.0219526 -0.04171547
0.05463455 0.013981196 -0.051243797 -0.04305627 -0.06217065 0.022531442 0.007900803 -0.046416536
-0.03614785 -0.011675543 0.01394267 -0.015233676 -0.026045213 -0.018651277 0.023392724 -0.037222352
0.04751066 -0.024908705 0.029899608 0.034853883 0.050534755 -0.014923289 0.059856176 -0.04161159
-0.02027295 -0.005655691 -0.05840351 0.049412798 -0.038851045 -0.040789537 0.016112953 -0.06777061
0.00028216964 -0.052621096 0.053826824 -0.012445161 -0.0030925353 -0.051495902 -0.020214457 -0.039723895
0.022735538 -0.03407043 0.012545004 -0.049302485 -0.04164316 -0.025142612 -0.0087616965 0.05889883
0.020236623 0.053186223 -0.010073544 -0.0029382831 0.008692719 -0.025870897 0.022875456 0.025653886
-0.009828889 0.02425115 -0.054520406 -0.033001047 -0.020686885 0.03401862 0.025815606 -0.043617234
-0.0020977503 0.0037551913 -0.052899566 -0.024888078 -0.07206554 -0.0041397996 0.026138771 0.064004354
0.052092336 -0.021530973 0.05085105 -0.02216071 -0.007608722 0.006275749 0.01380774 -0.0028396116
0.041910745 0.024623867 0.026776267 -0.04794591 0.05941153 -0.020206364 -0.05888823 -0.027508983
0.0127749555 -0.06996227 0.01830954 0.007921891 -0.047204655 0.054082837 -0.021413365 0.010339642
-0.034584675 -0.011505278 -0.04370588 -0.018775305 -0.041550722 0.00024626087 0.06879546 -0.026791874
-0.010214159 -0.02388175 -0.054812964 -0.018364603 0.03534192 0.054329034 -0.046399947 -0.053361624
-0.0018743142 -0.058336847 -0.010015328 0.010985956 -0.030395607 0.035648108 0.025987754 -0.044304222
-0.07368472 0.023426108 0.04350917 0.0032386517 -0.028673952 0.003194428 0.0077552483 0.04177506
-0.03688979 -0.009868949 -0.058554076 -0.018810257 0.017516606 0.018090203 0.0026332235 0.012624811
0.0008535533 -0.0042621577 0.045949638 0.07990697 0.052367076 -0.022676175 0.010944002 -0.024674471
-0.04969653 -0.054324053 0.06197147 0.072334014 0.021327285 0.06743572 0.03034845 0.076396234
0.060466513 0.037560664 -0.004418524 -0.057942513 -0.02865055 0.022826983 0.030996466 0.004941826
0.054860137 -0.004173572 0.093550615 -0.007937445 0.061403736 0.07147277 -0.014726272 -0.03966827
-0.04298578 -0.018482603 -0.010947223 -0.04632782 0.056372594 0.03825572 0.058053438 -0.012363503
0.050441477 0.057431776 -0.017834388 0.007324059 0.0672696 0.0826953 0.06662978 0.015226059
0.05507202 -0.030368196 -0.0020473662 -0.03341761 0.06944325 -0.04883063 -0.04010693 -0.04959926
00000000: 6f73 073d 086c a0bc 6f28 58bd 0293 6c3d
00000010: 920c 943c dd2a 45bc d764 e53c 6bc3 0c3d
00000020: 9844 3e3d 7d69 1e3d 2052 fdbc ddd8 593c
00000030: 9b67 abbc 7e96 85bd aec8 32bd d92f ec3c
00000040: 703d ba3c e4a7 aebb f468 5abd 4dce 393d
00000050: 0c14 aa3c 0d7f 893d 3157 20bd dd38 a8bc
00000060: 902e 72bd c5a9 8cbd 0c77 36bd 2560 073c
00000070: 9afb 3e3d f0b5 b1bc b7f3 a13c 2f31 22bd
00000080: 333e 933b 218f df3b 499d 5b3d 9963 ec3c
00000090: b601 59bd 96b8 df3c f799 05bc c92c c5bc
000000a0: a6bf 9abd 0b5f 8a3c de06 b4bc ae84 003c
000000b0: c6f7 183d f9cb 333d e722 9d3b 8e11 5e3d
000000c0: e42c 65bd c696 8bbd ff9c 92bd 32b7 533d
000000d0: fd4a 6a3d 3b2a 5b3c b327 b73c 26b2 13bd
000000e0: 0fce d23a 214b 07bc ac7a 04bd 4244 00bd
000000f0: 2932 6bbc a6e5 95bc f0d5 b3bc d7dd 2abd
00000100: 7ac8 5f3d 6311 653c 04e5 51bd c55b 30bd
00000110: a7a6 7ebd dc93 b83c 5f72 013c 441f 3ebd
00000120: c50f 14bd c74a 3fbc cc6f 643c ab96 79bc
00000130: c55c d5bc 90ca 98bc 19a2 bf3c 7776 18bd
00000140: 8a9a 423d 570d ccbc 06f0 f43c f2c2 0e3d
00000150: 88fd 4e3d d080 74bc c02b 753d ea70 2abd
00000160: 7513 a6bc 6053 b9bb 8538 6fbd 1365 4a3d
00000170: 4622 1fbd ee12 27bd 50ff 833c 51cb 8abd
00000180: 2bf0 9339 3889 57bd 8479 5c3d cae6 4bbc
00000190: 22ac 4abb 5eed 52bd ca98 a5bc 86b5 22bd
000001a0: e13f ba3c 6f8d 0bbd 8f89 4d3c 67f1 49bd
000001b0: 0592 2abd e1f7 cdbc 388d 0fbc e63f 713d
000001c0: 46c7 a53c ccd9 593d 820b 25bc 3690 40bb
000001d0: e86b 0e3c 34ef d3bc 4f65 bb3c 1928 d23c
000001e0: 5909 21bc 59aa c63c ca50 5fbd 1b2c 07bd
000001f0: 8b77 a9bc 1c57 0b3d 407b d33c fca7 32bd
00000200: 697a 09bb a819 763b 37ad 58bd 15e2 cbbc
00000210: 1997 93bd 28a7 87bb fa20 d63c b714 833d
00000220: c65e 553d b961 b0bc 3149 503d 618a b5bc
00000230: 9652 f9bb cca4 cd3b dc39 623c c718 3abb
00000240: 9aaa 2b3d feb7 c93c e759 db3c ee62 44bd
00000250: 8159 733d d187 a5bc c934 71bd 855a e1bc
00000260: 0c4e 513c 6148 8fbd e3fd 953c d2ca 013c
00000270: ab59 41bd f785 5d3d 156b afbc 9a67 293c
00000280: a9a8 0dbd a280 3cbc f004 33bd abce 99bc
00000290: 1731 2abd 931c 8139 a2e4 8c3d a27a dbbc
000002a0: 4a59 27bc a9a3 c3bc 8f83 60bd 5d71 96bc
000002b0: b0c2 103d 1f88 5e3d df0d 3ebd b891 5abd
000002c0: 8cab f5ba 9ef2 6ebd 5517 24bc 70fe 333c
000002d0: 3500 f9bc c003 123d 45e4 d43c 5878 35bd
000002e0: 04e8 96bd 1ce8 bf3c ac36 323d 8f3f 543b
000002f0: a3e5 eabc 9c59 513b bd1f fe3b 531c 2b3d
00000300: c019 17bd 5fb1 21bc 66d6 6fbd f817 9abc
00000310: fc7e 8f3c e831 943c 2992 2c3b 4cd8 4e3c
00000320: fec0 5f3a 92a9 8bbb b035 3c3d 44a6 a33d
00000330: dc7e 563d 63c3 b9bc 794e 333c 1e22 cabc
00000340: 978e 4bbd e682 5ebd ccd5 7d3d db23 943d
00000350: 8fb6 ae3c bd1b 8a3d 509d f83c a175 9c3d
00000360: bcab 773d 36d9 193d 44c9 90bb 2155 6dbd
00000370: 8fb4 eabc a7ff ba3c 4dec fd3c 0bef a13b
00000380: 06b5 603d 76c2 88bb 7797 bf3d 0f0c 02bc
00000390: 7c82 7b3d 5160 923d 7646 71bc 327b 22bd
000003a0: db11 30bd d468 97bc fb5b 33bc 3dc2 3dbd
000003b0: f3e6 663d 08b2 1c3d 71c9 6d3d 4a90 4abc
000003c0: b99b 4e3d 953d 6b3d 6c19 92bc a9fe ef3b
000003d0: a5c4 893d 275c a93d 3275 883d b876 793c
000003e0: 3393 613d b9c6 f8bc 1b2d 06bb e7e0 08bd
000003f0: 4338 8e3d a002 48bd 2a47 24bd 9828 4bbd

bias f4 [64]
0.016787814 -0.06607585 0.030299626 0.011091691 -0.015843827 0.043773413 -0.009287742 -0.059631635
0.029751651 0.059716605 0.025168858 -0.019537752 -0.068787076 -0.010567184 0.04948648 0.04103376
-0.013077573 -0.02455655 -0.029672557 0.032667596 -0.010994257 -0.04986106 0.006359433 -0.01125714
0.051187582 -0.0081524765 0.062935084 -0.05647101 0.02316961 -0.016285803 -0.060778413 0.033233408
0.053711317 -0.039314803 -0.02463287 -0.07109019 0.047286924 0.055078834 -0.01196172 -0.025468525
0.057104077 0.020376548 0.04910873 -0.07349882 -0.0061644916 0.05696028 -0.040217385 -0.03600082
-0.053354803 0.016048793 0.029251568 0.045911264 0.057325434 -0.013578092 -0.00037586925 0.0038331475
-0.030554052 0.029049845 -0.0445443 0.028458951 0.024046697 0.04597091 0.032713585 -0.025969943
00000000: 9986 893c c652 87bd ec36 f83c edb9 353c
00000010: eaca 81bc c04b 333d 9d2b 18bc 4d40 74bd
00000020: bcb9 f33c 6699 743d ec2e ce3c a30d a0bc
00000030: 3de0 8cbd fb21 2dbc 56b2 4a3d 0413 283d
00000040: 5143 56bc d12a c9bc dd13 f3bc 75ce 053d
00000050: 4221 34bc 1c3b 4cbd ca62 d03b de6f 38bc
00000060: 12aa 513d f791 05bc 1ce4 803d 254e 67bd
00000070: 32ce bd3c ce69 85bc c9f2 78bd c11f 083d
00000080: 6600 5c3d 8f08 21bd dfca c9bc bc97 91bd
00000090: efaf 413d 589a 613d 17fb 43bc 5ea3 d0bc
000000a0: f7e5 693d b8ec a63c 3c26 493d 8d86 96bd
000000b0: 81ff c9bb 2f4f 693d fcba 24bd 9975 13bd
000000c0: 918a 5abd c278 833c fca0 ef3c 730d 3c3d
000000d0: 13ce 6a3d a576 5ebc 5110 c5b9 8b35 7b3b
000000e0: 7e4c fabc f1f9 ed3c 1574 36bd bf22 e93c
000000f0: 94fd c43c fe4b 3c3d aefe 053d ebbe d4bc

weight f4 [64, 64, 3]
-0.021187546 -0.027609024 0.0060232594 0.009181884 0.011071058 0.0038147734 -0.040949 0.05276411
-0.0023977188 -0.002397468 -0.0134688895 -0.016838204 0.048475068 -0.0027603544 -0.014490587 0.013918509
0.0122997165 -0.0070906654 0.06057516 0.066883765 -0.016966647 -0.057380904 -0.06889015 -0.070852466
0.020564478 0.025522258 -0.050578035 0.07322868 0.087927535 -0.058172464 -0.025237117 0.018130325
0.017009666 -0.05210781 0.07538972 0.07856854 -0.03860032 -0.036152426 -0.023009967 -0.02571514
-0.038505934 -0.012909298 0.044260737 -0.056536637 0.044876028 -0.03356759 -0.06589276 -0.042092193
0.018824805 0.072858386 0.012183668 0.013364224 0.018258812 -0.020370519 0.03135968 0.042529184
-0.066611335 0.052903544 -0.057957742 0.026225755 -0.08396896 -0.039291292 -0.013019867 -0.004862797
0.013446937 -0.0005826826 0.06647883 0.07229526 -0.0062701986 -0.01708876 0.024995219 0.010662315
0.06533864 -0.00061552785 0.0019487797 -0.06424625 -0.044458956 -0.014798802 -0.015904717 -0.0017100757
0.0067679207 0.075892635 -0.023156552 0.07282545 0.06533978 0.040820576 0.13239937 -0.057122823
-0.022966456 -0.029887276 0.04489345 0.056381922 -0.010745452 0.043216206 0.04553915 0.042454373
0.019944327 0.0025085362 0.00020400494 0.012687364 -0.034995563 -0.066534325 -0.028814424 -0.036923565
-0.03370478 -0.008640032 -0.0386426 0.072208166 -0.0057407143 -0.06329377 0.029002916 -0.071931355
-0.06689764 0.00722099 -0.04407424 0.058689333 -0.00062626164 -0.0007348659 0.061824646 0.03712362
-0.012305841 0.06743934 0.035171997 0.032010905 0.075755574 -0.042206865 0.03920631 -0.06836617
-0.013761948 0.061395712 0.05349774 -0.022135125 -0.0048676184 0.027569748 -0.012952766 0.05936378
0.054250695 -0.015139803 -0.0024827064 -0.00060257054 0.08232053 0.047555946 0.009227243 0.010936079
0.057518594 -0.0041334974 0.046050336 0.042782534 -0.0649703 -0.022950253 0.035142057 0.026640056
0.0673613 0.012672462 0.04372524 -0.015650654 -0.060465567 0.004731791 -0.00020583668 -0.060703196
-0.011310717 -0.017066598 0.013277559 0.051173728 0.053530693 0.025544506 0.043256473 0.05865343
0.053509537 0.050131198 0.065133855 0.059676655 0.05202893 0.020686973 -0.060152832 -0.007997585
-0.07133604 -0.038031146 -0.06315651 -0.0071251635 0.07487318 -0.040056024 0.018311042 -0.034672596
-0.032501455 -0.023539558 -0.013693763 0.02495526 0.0057127476 0.07419458 -0.046634775 0.07275071
0.030940516 0.019340202 -0.00844075 0.057409298 0.042294364 0.04618614 0.047888707 -0.0071583237
-0.031381153 0.0034147382 0.01642805 0.015880393 -0.004794862 0.0012298614 -0.010331116 0.037786823
0.02756191 -0.011562268 -0.063268214 -0.021676866 -0.04238926 -0.049739655 -0.05396963 0.012980599
-0.012512548 0.010095497 0.016262114 0.0058283717 -0.03272972 -0.03668172 -0.048270006 -0.0225138
-0.0523097 -0.059482228 0.060673855 -0.05466272 0.0055151554 0.0648003 0.0066495473 -0.043477383
-0.050453637 0.05896424 0.07965207 0.066408135 -0.054493297 -0.013123458 0.026324464 0.065167405
-0.069749825 -0.055744503 0.05650548 0.0025718035 0.08386928 0.05750005 0.011252943 0.01409234
-0.026293598 0.05727466 -0.020486709 0.029052043 -0.041636497 -0.056515023 0.0068723443 0.0293358
00000000: 8191 adbc 522c e2bc c35e c53b 9d6f 163c
00000010: 6263 353c 4701 7a3b 23ba 27bd 2e1f 583d
00000020: 0c23 1dbb d71e 1dbb 9eac 5cbc 46f0 89bc
00000030: cb8d 463d 10e7 34bb ed69 6dbc 750a 643c
00000040: c084 493c d058 e8bb a91d 783d 5bfa 883d
00000050: a3fd 8abc 3d08 6bbd 4716 8dbd 191b 91bd
00000060: d676 a83c 0e14 d13c ea2a 4fbd ebf8 953d
00000070: 5a13 b43d 4046 6ebd 12be cebc 0c86 943c
00000080: db57 8b3c 006f 55bd ed65 9a3d 8be8 a03d
00000090: 5f1b 1ebd 9114 14bd 667f bcbc 8fa8 d2bc
000000a0: 66b8 1dbd 8581 53bc bf4a 353d f692 67bd
000000b0: edcf 373d 2b7e 09bd c9f2 86bd dd68 2cbd
000000c0: 7a36 9a3c c736 953d 029e 473c 9ef5 5a3c
000000d0: 8193 953c 13e0 a6bc 0273 003d 1533 2e3d
000000e0: 866b 88bd 63b1 583d 1965 6dbd 65d7 d63c
000000f0: ebf7 abbd e8ef 20bd 4851 55bc 1958 9fbb
00000100: 8b50 5c3c 2bbf 18ba 0e26 883d 8a0f 943d
00000110: 3d76 cdbb bafd 8bbc c6c2 cc3c feb0 2e3c
00000120: 44d0 853d 605b 21ba 326e ff3a 8a93 83bd
00000130: 981a 36bd ad76 72bc 9c4a 82bc 9e24 e0ba
00000140: 6fc5 dd3b 996d 9b3d cfb2 bdbc 8225 953d
00000150: ddd0 853d 7a33 273d b393 073e 9ff9 69bd
00000160: 2624 bcbc 29d6 f4bc 32e2 373d bbf0 663d
00000170: b10d 30bc 7a03 313d 4287 3a3d a3e4 2d3d
00000180: 4962 a33c 4166 243b 29ea 5539 a9de 4f3c
00000190: 8257 0fbd 2643 88bd 3a0c ecbc 2a3d 17bd
000001a0: 060e 0abd ec8e 0dbc b447 1ebd e0e1 933d
000001b0: 9a1c bcbb 2aa0 81bd 8697 ed3c bf50 93bd
000001c0: a101 89bd 0e9e ec3b 3187 34bd 3a64 703d
000001d0: b52b 24ba 04a4 40ba d73b 7d3d f00e 183d
000001e0: 709e 49bc a31d 8a3d 8310 103d de1d 033d
000001f0: bd25 9b3d 1be1 2cbd cc96 203d 9003 8cbd
00000200: cb79 61bc 127a 7b3d 7220 5b3d b954 b5bc
00000210: 8b80 9fbb f4d9 e13c d737 54bc 6f27 733d
00000220: fa35 5e3d f00c 78bc e7b4 22bb d3f5 1dba
00000230: ab97 a83d 06ca 423d dd2d 173c 3d2d 333c
00000240: 9e98 6b3d 4a72 87bb 479f 3c3d bd3c 2f3d
00000250: 260f 85bd 2b02 bcbc 1ef1 0f3d 3f3c da3c
00000260: b9f4 893d 28a0 4f3c 3d19 333d cd35 80bc
00000270: beaa 77bd 240d 9b3b ddd5 57b9 eaa3 78bd
00000280: 9650 39bc 40cf 8bbc 1e8a 593c 8b9b 513d
00000290: 0043 5b3d b642 d13c b32d 313d 943e 703d
000002a0: d12c 5b3d 5f56 4d3d e664 853d 826f 743d
000002b0: 4a1c 553d ba77 a93c d162 76bd 4e08 03bc
000002c0: a118 92bd 8cc6 1bbd 3358 81bd 347a e9bb
000002d0: 1c57 993d c911 24bd 0a01 963c da04 0ebd
000002e0: 3f20 05bd 08d6 c0bc ce5b 60bc f96e cc3c
000002f0: 0032 bb3b 54f3 973d 1b04 3fbd 53fe 943d
00000300: f776 fd3c 586f 9e3c 124b 0abc 0326 6b3d
00000310: db3c 2d3d ae2d 3d3d f326 443d 5f90 eabb
00000320: 8689 00bd cdc9 5f3b 1e94 863c 9917 823c
00000330: 381e 9dbb 4d33 a13a d743 29bc 5bc6 1a3d
00000340: 84c9 e13c ab6f 3dbc c492 81bd af93 b1bc
00000350: 5ca0 2dbd cfbb 4bbd 420f 5dbd 94ac 543c
00000360: 6e01 4dbc 9567 253c 2038 853c edfb be3b
00000370: 990f 06bd 923f 16bd c5b6 45bd dc6e b8bc
00000380: b242 56bd a3a3 73bd 2685 783d 04e6 5fbd
00000390: 7ab8 b43b 05b6 843d 72e4 d93b 5715 32bd
000003a0: 79a8 4ebd 7d84 713d a020 a33d fd00 883d
000003b0: 5d34 5fbd c603 57bc 67a6 d73c 7d76 853d
000003c0: ffd8 8ebd 5954 64bd 4a72 673d b48b 283b
000003d0: a8c3 ab3d 2c85 6b3d 445e 383c 8fe3 663c
000003e0: ac65 d7bc d598 6a3d bed3 a7bc 8dfe ed3c
000003f0: 088b 2abd 4c7c 67bd 6731 e13b a251 f03c

bias f4 [64]
-0.064297296 0.059097216 0.06184855 -0.0650549 0.05706522 -0.047749132 -0.044165786 -0.013781001
-0.0079641035 -0.023992978 0.012233129 0.030319385 0.048416354 0.026241455 -0.0069415015 -0.021807976
-0.049555503 -0.04992119 -0.022905797 -0.055956952 -0.051696446 -0.05894714 0.037468757 -0.02812222
-0.028485075 0.034572817 -0.022188447 -0.07540595 0.05990516 -0.07988315 -0.008870859 0.052336503
0.07883721 -0.050257172 0.033349264 0.026701042 -0.0034451354 -0.04414357 0.05296629 0.054534428
0.0063671703 -0.07203242 0.070396066 0.06643458 0.018805826 0.043661863 -0.047592495 0.064073935
-0.047488753 0.068228014 0.01860835 0.03290481 0.041728683 0.041314416 -0.060500786 0.0005633234
-0.020929102 0.001606787 0.066551894 -0.01585518 0.046702687 -0.01854422 -0.03652325 -0.00998174
00000000: 4dae 83bd ec0f 723d e854 7d3d 813b 85bd
00000010: 38bd 693d 9894 43bd 2fe7 34bd b5c9 61bc
00000020: df7b 02bc ec8c c4bc 766d 483c 5c60 f83c
00000030: 3a50 463d 52f8 d63c 8975 e3bb a4a6 b2bc
00000040: b6fa 4abd 297a 4cbd f0a4 bbbc 1e33 65bd
00000050: a7bf 53bd 8e72 71bd d778 193d 9260 e6bc
00000060: 8859 e9bc 3a9c 0d3d 8cc4 b5bc 6f6e 9abd
00000070: 1d5f 753d c799 a3bd 1457 11bc cd5e 563d
00000080: 6775 a13d 77da 4dbd 3d99 083d 25bc da3c
00000090: c8c7 61bb e3cf 34bd 2ef3 583d 7e5f 5f3d
000000a0: b2a3 d03b bc85 93bd d02b 903d da0e 883d
000000b0: ad0e 9a3c c8d6 323d 59f0 42bd 3239 833d
000000c0: 9183 42bd 21bb 8b3d 8a70 983c 32c7 063d
000000d0: b2eb 2a3d 4e39 293d accf 77bd feab 133a
000000e0: 8273 abbc d39a d23a 5c4c 883d b9e2 81bc
000000f0: 514b 3f3d 0cea 97bc 6799 15bd 748a 23bc

weight f4 [64, 64, 3]
-0.072056584 -0.00826882 -0.033263177 -0.015439645 0.033894043 0.0018147096 0.0426198 0.035653505
-0.0026773938 0.021769574 -0.0377759 -0.026616486 -0.06311275 -0.039657924 -0.07590175 0.047830272
-0.035796322 0.0421653 0.008600861 -0.03310152 -0.0663745 -0.02070054 0.0032348062 0.024044998
-0.04250772 -0.078615025 -0.035093546 0.032654222 0.05033945 0.014927071 -0.02670231 -0.01795008
-0.061671678 -0.07455539 -0.011769254 -0.07271132 -0.029983334 0.0246255 -0.014814617 -0.03847705
-0.04780708 -0.06982647 -0.060600813 -0.021349479 0.048745524 0.021521641 0.08290477 0.06942345
0.05646814 -0.022091974 -0.0675183 -0.029911257 -0.033556316 -0.07335658 -0.008718032 0.029298782
0.02968408 0.008546941 0.014643093 0.016394462 0.015531509 -0.049612228 -0.0073404475 -0.011979964
-0.022590822 0.05253444 0.020778958 0.042635377 -0.005532941 0.042861264 0.055487618 0.0725659
0.002988789 0.057617605 0.018330812 0.0550463 -0.04295369 -0.009877628 -0.018799126 -0.02087204
-0.05115295 0.025077421 -0.04357876 -0.042876054 0.008184067 0.029076036 -0.053951535 0.01940549
0.034125272 0.05333413 -0.02037834 -0.016794851 -0.037831254 0.06238396 0.0042866496 0.037460025
-0.060018376 -0.06428655 -0.05060349 0.04141345 0.035110697 0.015090395 -0.08951597 -0.08624623
-0.04020195 -0.049316335 0.039890185 0.018126596 -0.070986405 -0.06387006 -0.007971887 0.043462995
0.042846348 0.011601744 -0.04960212 -0.023785392 0.041980885 -0.019476999 0.050813667 0.013536196
-0.00078637106 -0.016564576 0.03915528 0.04741872 -0.030537663 -0.04176626 -0.026252916 -0.044276286
0.04383301 -0.0256482 -0.002390724 -0.025556486 -0.069061786 -0.017855909 -0.018898513 0.019906003
0.03823484 0.05161919 -0.03732039 -0.02686163 0.039099686 -0.037112795 -0.028923122 0.027203837
-0.07005879 -0.010356292 0.006412025 0.00376491 -0.03416332 -0.009777155 -0.047827452 -0.017024377
0.0128032 -0.0026034706 -0.02751414 -0.04612056 -0.028648866 0.01792351 -0.050317362 -0.023782829
0.023477064 -0.057111166 0.0067904578 -0.09137494 0.018253434 0.04780073 -0.026549889 -0.025710357
-0.04864632 -0.063922435 0.0047886292 -0.0040400457 -0.008796702 -0.05005397 -0.05814206 -0.053238653
-0.071580805 -0.0008732793 -0.016187357 -0.011436343 0.016985718 -0.03608553 -0.04801693 -0.018320942
-0.022321101 -0.0419827 -0.003048592 0.045339048 0.04714017 -0.023782961 0.053093504 0.0074695237
-0.04736706 -0.032847825 0.0022332617 0.05071728 0.037274018 0.027440801 0.0037594333 0.023995806
-0.035764217 -0.04251127 0.08910031 0.01591746 0.08166085 0.08452119 -0.0028717055 -0.032162093
-0.07197116 -0.05425094 -0.035514764 -0.047646206 0.015802134 0.07965613 0.0024101008 -0.021438232
-0.04756727 -0.023985673 -0.07170885 -0.06608675 0.023675716 0.039152816 0.01094062 0.05776833
0.06437187 -0.007141198 0.07391989 -0.008409442 0.013877756 0.076106586 0.09286775 0.020285469
-0.018754983 0.06682619 0.027537966 0.07094705 -0.021052096 0.037603024 -0.030628636 -0.044198085
-0.07616544 -0.06280958 -0.011755089 0.00074844697 0.013124735 0.015471315 0.018152773 0.030355755
-0.010824972 -0.08539843 -0.0876541 -0.00497078 0.013115149 0.030910859 -0.058349337 0.05751748
00000000: 6792 93bd f279 07bc f83e 08bd 91f6 7cbc
00000010: 7bd4 0a3d 8ddb ed3a 1992 2e3d 6909 123d
00000020: 3777 2fbb 1b56 b23c e7ba 1abd d10a dabc
00000030: 4241 81bd 5970 22bd 6072 9bbd ade9 433d
00000040: 2a9f 12bd 86b5 2c3d a0ea 0c3c 7695 07bd
00000050: 5bef 87bd 2e94 a9bc 0bff 533b 04fa c43c
00000060: 931c 2ebd ea00 a1bd 40be 0fbd 6fc0 053d
00000070: bd30 4e3d ac90 743c cebe dabc 0c0c 93bc
00000080: 719b 7cbd 7fb0 98bd d4d3 40bc ace9 94bd
00000090: 9c9f f5bc 6bbb c93c 02b9 72bc 1c9a 1dbd
000000a0: 5bd1 43bd 2e01 8fbd 8f38 78bd 1ae5 aebc
000000b0: 63a9 473d 274e b03c fac9 a93d e22d 8e3d
000000c0: 234b 673d 3afa b4bc 0947 8abd 7408 f5bc
000000d0: 5972 09bd fa3b 96bd 14d6 0ebc 0004 f03c
000000e0: 072c f33c 7808 0c3c 95e9 6f3c ae4d 863c
000000f0: df77 7e3c 3136 4bbd 2388 f0bb 9c47 44bc
00000100: 6310 b9bc 5a2e 573d a238 aa3c 6fa2 2e3d
00000110: ac4d b5bb 4b8f 2f3d fc46 633d 6e9d 943d
00000120: 8fdf 433b 7000 6c3d 802a 963c 3b78 613d
00000130: 35f0 2fbd c6d5 21bc a000 9abc d7fb aabc
00000140: c185 51bd 2a6f cd3c a47f 32bd cd9e 2fbd
00000150: 7716 063c de30 ee3c 49fc 5cbd 43f8 9e3c
00000160: f1c6 0b3d e474 5a3d 7af0 a6bc 5b95 89bc
00000170: f2f4 1abd 5386 7f3d 0677 8c3b af6f 193d
00000180: d4d5 75bd aba8 83bd 9b45 4fbd 26a1 293d
00000190: 3cd0 0f3d b43d 773c 2654 b7bd dda1 b0bd
000001a0: cdaa 24bd edff 49bd e463 233d 3a7e 943c
000001b0: 5261 91bd 4ece 82bd 849c 02bc 4106 323d
000001c0: a77f 2f3d 3e15 3e3c 982b 4bbd 95d9 c2bc
000001d0: 26f4 2b3d 3a8e 9fbc fe21 503d ecc6 5d3c
000001e0: 7824 4eba 6fb2 87bc 4961 203d 223a 423d
000001f0: 1f2a fabc 1913 2bbd 5b10 d7bc 0d5b 35bd
00000200: 3e8a 333d 2d1c d2bc b1ad 1cbb d65b d1bc
00000210: 4470 8dbd 8e46 92bc 0ed1 9abc ea11 a33c
00000220: 239c 1c3d a56e 533d 44dd 18bd ec0c dcbc
00000230: fe26 203d 9603 18bd 2ff0 ecbc 95da de3c
00000240: fc7a 8fbd 70ad 29bc f71b d23b b5bc 763b
00000250: d6ee 0bbd 5c30 20bc b8e6 43bd b576 8bbc
00000260: 83c4 513c fd9e 2abb 5565 e1bc eae8 3cbd
00000270: 07b1 eabc 53d4 923c 9419 4ebd 35d4 c2bc
00000280: f952 c03c 66ed 69bd 7d82 de3b c922 bbbd
00000290: 3a88 953c b3ca 433d 277f d9bc 879e d2bc
000002a0: 5d41 47bd c4e9 82bd efe9 9c3b 5c62 84bb
000002b0: 0b20 10bc 6405 4dbd 5e26 6ebd c610 5abd
000002c0: f598 92bd c8ec 64ba 599b 84bc 805f 3bbc
000002d0: a225 8b3c 6cce 13bd 67ad 44bd cd15 96bc
000002e0: beda b6bc 0df6 2bbd e3ca 47bb 70b5 393d
000002f0: 0d16 413d 7cd4 c2bc 9378 593d e8c2 f43b
00000300: f603 42bd 718b 06bd ea5b 123b ecbc 4f3d
00000310: a4ac 183d 88cb e03c d360 763b da92 c43c
00000320: 807d 12bd 4c20 2ebd 397a b63d 5565 823c
00000330: ce3d a73d 7219 ad3d 3933 3cbb 66bc 03bd
00000340: 9e65 93bd 3c36 5ebd ee77 11bd ab28 43bd
00000350: 7a73 813c c122 a33d c8f2 1d3b 3b9f afbc
00000360: e6d5 42bd 9a7d c4bc 17dc 92bd 7d58 87bd
00000370: 93f3 c13c b45e 203d 4940 333c 7c9e 6c3d
00000380: 66d5 833d b600 eabb 5063 973d c2c7 09bc
00000390: 875f 633c c5dd 9b3d 7231 be3d b62d a63c
000003a0: 0da4 99bc 2bdc 883d 4d97 e13c b04c 913d
000003b0: 7275 acbc a105 1a3d e8e8 fabc 0d09 35bd
000003c0: a0fc 9bbd 4fa2 80bd 6b98 40bc 6d33 443a
000003d0: 2109 573c 667b 7d3c 20b5 943c a2ac f83c
000003e0: 395b 31bc 5fe5 aebd fe83 b3bd ede1 a2bb
000003f0: ece0 563c c538 fd3c b7ff 6ebd 7397 6b3d

bias f4 [64]
0.036523428 -0.027559126 -0.0011595489 0.00056781305 -0.031416833 0.032428116 0.003328092 -0.016266905
0.013901328 0.041766535 -0.000110925714 -0.059177592 0.05363746 0.041291077 -0.008460645 -0.004528755
-0.05464282 0.047968663 0.0335575 -0.046448447 -0.034993622 0.026495418 -0.05460239 0.0108208265
-0.027636304 0.056443334 0.0054950695 -0.051404405 0.06100573 -0.057622608 0.0443996 -0.0635001
0.010737458 -0.02691981 0.017784156 0.02188848 -0.029090926 -0.060252056 -0.052194793 -0.05568478
0.06800955 0.05562326 -0.066944785 -0.045978 0.069534145 -0.03613402 -0.042108998 0.015088571
0.0614406 0.026578566 -0.016334346 -0.02661025 0.05967755 -0.0029771042 0.03190916 0.025015721
0.009154954 -0.03891768 0.05139178 0.06101414 0.015959458 -0.043150455 -0.043441672 -0.006510762
00000000: 9799 153d adc3 e1bc 01fc 97ba 4ad9 143a
00000010: f0ae 00bd 58d3 043d 1e1c 5a3b 2c42 85bc
00000020: 65c2 633c 6313 2b3d caa0 e8b8 3464 72bd
00000030: f4b2 5b3d d520 293d 849e 0abc f365 94bb
00000040: 26d1 5fbd ca7a 443d 9773 093d ba40 3ebd
00000050: 7955 0fbd eb0c d93c c1a6 5fbd d649 313c
00000060: 8865 e2bc 2031 673d fc0f b43b 6d8d 52bd
00000070: 25e1 793d af05 6cbd 5bdc 353d 570c 82bd
00000080: 2aec 2f3c ef86 dcbc 14b0 913c 784f b33c
00000090: 1850 eebc dcca 76bd 35ca 55bd b915 64bd
000000a0: 9748 8b3d 37d5 633d 591a 89bd 6d53 3cbd
000000b0: eb67 8e3d 4401 14bd 7c7a 2cbd 0e36 773c
000000c0: 23a9 7b3d 4bbb d93c 9bcf 85bc bdfd d9bc
000000d0: 7270 743d 851b 43bb 2eb3 023d c5ed cc3c
000000e0: a9fe 153c 2568 1fbd 3080 523d f6e9 793d
000000f0: 69bd 823c 88be 30bd e5ef 31bd 3b58 d5bb
