models/HisarCNN2019_100_best_augmented.pt (torch, 651994 bytes, 20 tensors)

weight f4 [64, 2, 3]
00000000: 27d8 75bd 9ace dbbd c6a1 8c3e 2ef8 9b3e
00000010: b364 343f ed97 833e 70b1 443e ba16 8c3e
00000020: f5ae 4f3e ea80 b6be e2a8 b0be a7bc 95be
00000030: 8c6f c63d 1823 dc3e 3d5c 93be 9a73 26bd
00000040: 5ac2 98be b374 b63e c624 1fbd 605d aa3e
00000050: f743 b73e 184c 94bb 9c08 2d3e e185 443e
00000060: 5926 d7be 2511 d9be 2817 8bbe 94f1 9cbe
00000070: 8e02 15bf b744 a2be 23f5 1e3d bb24 ee3e
00000080: 53cb 7e3e 4781 183e 2940 e83e 05bf b8be
00000090: cd0e 023d 472b 253f 35a7 3cbe 2499 ba3e
000000a0: 83c9 153f 61fb ae3e e132 183f 103b cdbd
000000b0: ea70 a0bc 881a 84be b71d 0d3d c64e 513d
000000c0: 77cd b3be 4de5 963e 84e5 7fba a0be cf3c
000000d0: d2e0 bf3d d6f6 66be 79aa 09be e1cc dabe
000000e0: d600 c6be 2950 033e a84b 8bbe 7427 113e
000000f0: 6d56 4e3e cd18 60be cc4a d63e 47a3 dc3d
00000100: d4b1 d1be bfa1 9b3e 590f 6c3d bcd0 8b3d
00000110: e997 dd3d 9f9f 2abe 7357 993e 58e3 dd3e
00000120: c54c a43e fe3b 14bf 25f6 313c 3bde 9e3e
00000130: e344 a438 a977 1fbe b9ed afbe 6fc2 02bf
00000140: 533b 76be 4a2b 3abd 6109 ee3e 1bb7 9fbe
00000150: 5224 aa3e ddd1 0b3f acc6 fa3d 6c3b 7bbe
00000160: 7866 ecbe 1b5a bb3e b434 953e 7fae 283d
00000170: 8ad5 a2bd 2cdc 6c3d b1c9 bf3e c5c8 80be
00000180: 231f 083e 0413 3f3e 5f7e f4bd 3377 cabe
00000190: 052f 533e 063f 45be e7d9 c4be c696 d93d
000001a0: 485c 603e 5d77 b7bb 140e b23d ec83 7dbd
000001b0: 0815 0cbe cb22 94bc 8fe0 0fbe bbe9 613e
000001c0: 630f 3a3d 7521 ad3e 3592 193d 13b9 b0bd
000001d0: 16e0 db3e b4a6 b9be ea02 1abf e84e 92be
000001e0: f979 83be d129 a03d 273f 82bd 053c dfbd
000001f0: 95d7 993e cb0e bf3e d439 003e 2cfa a93e
00000200: f3c6 733e 9b7d c63e 8e04 df3e d61e 6d3e
00000210: c1f7 c73e 1579 c93e 5d18 91be 3d9a 71be
00000220: 1e5b 0a3f 4e2d 903e ffeb bd3e 6a7a d23d
00000230: c560 b83e 160d bb3c 8911 24bc 04b4 1c3d
00000240: d6c8 2fbd e376 a03c a86d 153e 461a 8c3e
00000250: 5275 3cbe 78ab 8e3e 4431 b93d bac5 d4be
00000260: 56ab c7be d02f 83bd 03ab 543e 1b3a 323e
00000270: 232c 8c3e 4bd0 2e3f 931d f53e 90c1 c7be
00000280: 3b6e b8be d54c efbc eb61 183e a1ee 033f
00000290: 03d9 a23e f0d5 85be 66d3 083e 756d 91be
000002a0: fe9d 3fbe 290f 01bf 28e6 a53e 0d6a a23c
000002b0: 9706 de3e b850 043f c3e7 e0be 837f 00bf
000002c0: 2c15 1cbd 88a5 9f3e 635f 13be d044 813e
000002d0: 5e94 ccbd e619 bfbe 4b5c eb3e 8857 3b3e
000002e0: 9100 e63e 7a98 5fbe ac68 4cbe a048 eb3e
000002f0: f27f abbd d5df 2f3e e143 01bf 5eac 2abe
00000300: 6d78 2ebd 0afa 833d 3bc5 903e ee44 f4bd
00000310: 5a1e 103e 1cab 52be 6b2e 903e 0f85 2a3e
00000320: 5155 5c3e 7a88 9a3d 3854 e43e ea95 bebd
00000330: c3f5 a5be 97e6 f93d 9410 8cbe 6ac3 55bc
00000340: 6042 3bbe e6de a5be 1cbc cfbe 2189 5b3e
00000350: 73e5 ba3d 18a8 f03d 9bbb 24be 92ff d6bc
00000360: ca21 89bd 5142 63be d114 efbe 91ba 303e
00000370: 66c8 d73e 040f 36be 3434 04bf a3d2 83be
00000380: 2c63 94be 1d0f d0be 7448 643c a722 82be
00000390: 001a 99bd 2c78 a93e e150 293e a88c b73e
000003a0: 9ac8 673e 5502 aa3d 53b9 80bd c3b3 c3be
000003b0: 4d99 7fbd b94f d93e 436e 80be 4057 85bd
000003c0: 098e 10be 2fbb 86be 6ce5 7c3e cefd 13be
000003d0: 5db0 7f3e 28e3 043e 2ea3 763e df5d db3d
000003e0: 53db 763d e3e8 e23e 989b b13e 4104 473e
000003f0: 8d74 a93e 7c01 5fbe dbee ddbc b077 f3be
-0.060020592 -0.107327655 0.27467173 0.30462784 0.70466155 0.25701848 0.19208312 0.2736109
0.20281585 -0.3564523 -0.34503847 -0.29245493 0.09689245 0.42995524 -0.2878131 -0.04063759
-0.29835778 0.3563591 -0.03885343 0.33274364 0.3579404 -0.0045256726 0.16897815 0.19191696
-0.42021444 -0.42395893 -0.27166104 -0.3065306 -0.58207023 -0.3169305 0.038808 0.46512398
0.2488225 0.14893065 0.4536145 -0.36083236 0.031752396 0.6451916 -0.1842316 0.36444962
0.5851061 0.34176162 0.59452635 -0.10021031 -0.019585092 -0.25801492 0.034452166 0.051100515
-0.35117695 0.29471818 -0.00097616785 0.025359452 0.09369053 -0.22555098 -0.13443936 -0.42734435
-0.38672513 0.12823547 -0.2720616 0.14175206 0.20150156 -0.21884461 0.4185394 0.1077333
-0.40955985 0.3039684 0.057631824 0.06826922 0.1081999 -0.16662453 0.2994953 0.43337512
0.3208982 -0.5790404 0.010861908 0.31028923 7.8329605e-05 -0.1557299 -0.34361055 -0.5107793
-0.24046068 -0.04545144 0.4649153 -0.31194386 0.33230835 0.546171 0.12244925 -0.24534386
-0.46171927 0.36592183 0.29141772 0.041182037 -0.079508856 0.05782716 0.37458566 -0.25153175
0.13293128 0.18659598 -0.11938166 -0.39544067 0.20623405 -0.19262323 -0.38447496 0.10624461
0.21910203 -0.005598946 0.086940914 -0.06189339 -0.13679898 -0.018082997 -0.14050506 0.22061817
0.04542483 0.33814588 0.03749295 -0.0862905 0.42944402 -0.36259997 -0.60160697 -0.28575826
-0.25678995 0.07820476 -0.063597016 -0.1090012 0.3004729 0.37315974 0.1252206 0.33198678
0.23806362 0.38767704 0.43558162 0.23156294 0.3905621 0.3935019 -0.283389 -0.23593993
0.54045284 0.28159565 0.37094113 0.10277255 0.3601133 0.022833388 -0.010013946 0.038257614
-0.04291614 0.01958794 0.14592612 0.27363795 -0.18404129 0.27865195 0.090426 -0.41557103
-0.38997906 -0.06405604 0.20768361 0.17404978 0.27377424 0.6828658 0.47874126 -0.39014864
-0.360216 -0.029211441 0.14881103 0.51535994 0.31806192 -0.26139784 0.13361892 -0.28403822
-0.18712613 -0.5041376 0.32402158 0.01982596 0.43364403 0.5168567 -0.4392682 -0.5019457
-0.03810613 0.31180978 -0.14391856 0.25247812 -0.09989236 -0.37324446 0.4596885 0.1829511
0.44922307 -0.21835509 -0.19961804 0.45953846 -0.08374013 0.17175229 -0.504942 -0.16667315
-0.042595316 0.064441755 0.28275475 -0.1192721 0.14074078 -0.20573086 0.28160414 0.1665232
0.2151692 0.07545562 0.44595504 -0.093059376 -0.32414064 0.12202185 -0.27356398 -0.013047079
-0.18287039 -0.3239662 -0.40573204 0.2143903 0.09125795 0.11750811 -0.16087191 -0.026244912
-0.06695898 -0.22193266 -0.4669557 0.1725867 0.4214508 -0.17779166 -0.51642156 -0.2574664
-0.28981912 -0.4063653 0.01393329 -0.25417063 -0.07475662 0.33099496 0.16534759 0.358495
0.22635117 0.08301226 -0.06285348 -0.38223085 -0.06240206 0.42443636 -0.25084123 -0.06510782
-0.14116682 -0.26314685 0.24696892 -0.14452288 0.24969621 0.12977278 0.24085686 0.10711264
0.060267758 0.44318303 0.3468902 0.19435216 0.33096734 -0.2177791 -0.027091434 -0.47552252

bias f4 [64]
00000000: b18c 50be 6a88 de3d 0492 27be 1814 0fbe
00000010: a275 dabd 2621 bfbe 54e1 98be f653 74be
00000020: 2095 01be 4c46 d53b 2c7a 9abd 234d f1bd
00000030: 6f4c 8dbe 1689 eebb 448e b1be b532 7f3e
00000040: 83a7 6f3e afb9 173e 350c 5cbe f892 1bbe
00000050: 9ccb a0bd 348b 4b3e 34a6 acbe 8622 85be
00000060: 5097 273e eeb5 71be 1566 73be 2608 b1be
00000070: b89e e5bc 659e 8dbe b8c5 56be da04 51be
00000080: d6ef dcbc 56b9 8cbe a714 253e 55da ad3e
00000090: 3728 0dbe 6cc3 9abe 59cd 51bd 0133 b63e
000000a0: cc3a 5d3e 9051 0abe f01f 40be d30c d63c
000000b0: 8b69 3bbe c6e6 1cbe 73de 91be f9b3 bcbe
000000c0: be61 393e 6b56 a83d b99e 53be 70ab 00be
000000d0: 62cf 8ebe 20e4 4e3d e1c2 25be 04ec 123b
000000e0: aafe e1bd fcef 9abe 6683 283c cff2 d4bc
000000f0: d636 913e e25f 9a3e f8ae d0be b02a 453d
-0.2036617 0.10865863 -0.16364294 -0.13972509 -0.10666968 -0.37329978 -0.29859412 -0.23860154
-0.12654543 0.006508624 -0.07542834 -0.11782291 -0.27597377 -0.0072795255 -0.34678853 0.24921687
0.23403744 0.14816926 -0.21489032 -0.15192783 -0.078513354 0.1987732 -0.33720553 -0.26002902
0.16366315 -0.23604557 -0.2376941 -0.3457653 -0.028029785 -0.27659908 -0.20973861 -0.20412007
-0.026969831 -0.2748515 0.1612116 0.33955637 -0.13784872 -0.3022722 -0.051221225 0.35585788
0.2160446 -0.13507676 -0.18762183 0.026129162 -0.1830198 -0.15322408 -0.28490028 -0.36856058
0.18103692 0.08219608 -0.20666017 -0.12565398 -0.27892596 0.050510526 -0.16187622 0.0022418508
-0.110349014 -0.3026122 0.010285234 -0.025994686 0.2836215 0.30151278 -0.4075849 0.048136413

weight f4 [64, 64, 3]
00000000: 9cce a1bd cd2a 91bd 739e d0bd 8221 d23b
00000010: 7cd1 fcba bcf8 96bd 7f66 2a3d 89b7 3a3d
00000020: d1e7 07bc 1850 01be 5924 b93c 3f65 00bd
00000030: c6bd fc3d b8b5 c93c ccb5 75bd d1c9 fdbd
00000040: 12c3 713b 4de2 b63a 8208 81be 549f 903b
00000050: 41ee b63c 4801 143e c22f f4bc 6283 8f3d
00000060: fba9 c6bd 3f95 4e3d edfb 203c 7dac b33d
00000070: 36db 46bd 763c 4b3d cd3a fdbd e5df 6dbb
00000080: 2937 cebc 76e7 6ebd 280b 253d 3394 e43b
00000090: a519 853d eb17 07bd 58b1 9fbb 9833 1bbd
000000a0: 28f7 363d 7070 55bc 8613 1ebd c19c 57bc
000000b0: bfff b8bd 077b cabc ca14 30bd e038 4cbd
000000c0: 3b4f 02be d21c 2ebd c6ac 923c b7dc 21bb
000000d0: 1795 463d c253 b2bd 63d6 ed3c 6283 16bd
000000e0: 0c2c 76bd 8e21 12bc 12b5 333d 857d 86bc
000000f0: 4c7f bfbd e466 05bd 7330 53bd 29a8 c2bd
00000100: 3a14 983c 0534 cabc 92d3 21be c58c ba3d
00000110: 11ed dcbc 1c3a e53b 8474 88bd 24bb 57bd
00000120: fa26 4dbc 161e b3bd 92dc 20bd 2d53 983c
00000130: 9f17 5abc 7596 103c 93d9 d0bc 02d9 6dbd
00000140: b623 b2bd d108 0ebe d6b3 89bc 0c63 a03a
00000150: 4a20 c13c 5c95 c3bc ee44 d5bd c526 b8bc
00000160: 8ac7 72bc 442d ffbc 0769 8a3d 50f3 7ebb
00000170: 3940 09bd fd1d a93d 8f00 793c 71ec 533d
00000180: 314f 96bb 1221 ab3d afca 3c3c 4d2e efbc
00000190: 7e14 94bd b70e 1f3d 2051 24bd 0100 26bd
000001a0: 13f7 0dbd 3ace 663d 0b3c abbc de96 3f3c
000001b0: 7736 68bd 15bc 10bc 7767 1bbd c8d6 d6bc
000001c0: 7789 4abd 44c4 53bd d766 a2bd 5772 463c
000001d0: 9083 ecbc 92b5 62bc 0286 e8bc 7abf 64bd
000001e0: da1c f03c 52d8 fdba 587c 09bd e9a0 e4bd
000001f0: f0e6 8cbd 7658 9cbc c634 863d 7302 0e3c
00000200: 97e4 84bc 3113 1d3d 6b53 ef3c 566e a0bc
00000210: 5a85 dd3d da64 5abc 1dea ecbb 0be1 c8bc
00000220: def5 d33c 709b e6bc 6388 4a3d 486a 113d
00000230: bf01 a63c 0889 bd3d f2c3 4ebd 599b 7ebc
00000240: d93b 2a3d 2bf3 cfbd a1a0 883c 0a10 15bd
00000250: 48e3 45bc 7597 f2bc 5b19 31be 0ec7 893d
00000260: 843f 043d 39e4 113d 5925 353d 7b3b 3bbb
00000270: 3b2d 9c3d cdbf f3bc 512b 993c 1d94 2dbe
00000280: 7ef5 09bc 2c34 28bd 4b1e 6ebd ca77 5d3c
00000290: 42e9 6abd ed09 25bd 7e0c 81bd cf23 07bd
000002a0: 51be 55bd b425 193c b4b4 243a 802b c23d
000002b0: 1a46 7b3d b198 68bd 96e1 09bd 20f5 e9bb
000002c0: d748 3a3d 0f24 c93d ff11 94bc b7d1 853d
000002d0: d904 46bd 39ba 7cbd de36 34bd dacd 63bd
000002e0: a88f 0f3d ccad 19bd e5de c23d 6ba2 7abc
000002f0: 7e94 e43c 79f6 afbd a689 66bd 4818 95bd
00000300: 3369 ef3c 77da a83d 4c3b c83d fca7 603c
00000310: 83f6 913d 8221 56bd 2680 893c 46c9 803d
00000320: 99de 583d c420 6d3d 2aa7 293b 0bf7 dd3d
00000330: 66be 623c 0409 2a3c 88b1 d43c cad3 923d
00000340: 1575 a73d 559e fb3d 5b22 283b dc51 863d
00000350: 83f7 543c c0c4 073d c599 503c 448f 133d
00000360: ac8f b33b 2fae cdbc 514b 89bd d956 903c
00000370: df9d b7bd a7fa f3bb 31a1 633c f125 d7bc
00000380: d751 f23c 1088 173d a75e 603c 7cd9 99bb
00000390: ce1d 0c3b 9fa3 23bc 90a4 97bd 68b6 523d
000003a0: 535d 0a3b b792 97bd ad24 323d c290 1e3d
000003b0: 5640 b93d 8d30 133d 6d92 1e3d 1b33 573b
000003c0: 19b8 ffbc 5585 7bbd cbb2 473d f1a6 b23c
000003d0: 815b 333d e07d 5ebd 6766 173d a729 88bd
000003e0: 9fa1 5ebc 9e7a d23d 42ad f0bc 8e89 c63c
000003f0: 6fdf 09ba 525a 883c 31b4 1a3d 0269 dd3c
-0.07900736 -0.07088242 -0.10186472 0.006412686 -0.0019288505 -0.07371661 0.041601654 0.04558519
-0.008295015 -0.1262821 0.02260034 -0.031346556 0.12340884 0.024622783 -0.059987828 -0.12392009
0.0036889953 0.0013952941 -0.25201803 0.0044135246 0.022330405 0.14453614 -0.029807929 0.07007481
-0.0970039 0.0504353 0.009825689 0.08773134 -0.0485489 0.049618207 -0.12364731 -0.0036296782
-0.025172787 -0.058326207 0.040293843 0.0069756745 0.06499032 -0.032981794 -0.004873436 -0.037891
0.0446693 -0.0130272955 -0.038592838 -0.013159932 -0.09033155 -0.024716867 -0.042988576 -0.049858928
-0.12725537 -0.042507954 0.01790465 -0.0024698207 0.048482027 -0.08707382 0.029032892 -0.03674639
-0.0601006 -0.008919133 0.043873854 -0.016417274 -0.09350452 -0.032568827 -0.051559877 -0.0950473
0.018564332 -0.024683008 -0.15803364 0.09108881 -0.02696851 0.0069954526 -0.066628486 -0.052668706
-0.0125215 -0.08745973 -0.039272852 0.018594349 -0.013311296 0.008824934 -0.025494372 -0.058068283
-0.086982176 -0.1387055 -0.016809385 0.001223655 0.023574967 -0.023874931 -0.10413538 -0.022479424
-0.014818082 -0.031149514 0.067583136 -0.003890235 -0.033508513 0.08257673 0.015197887 0.05173916
-0.004587077 0.08355917 0.011522933 -0.029196883 -0.07230471 0.038832393 -0.04011643 -0.040527347
-0.034659456 0.056349017 -0.020902654 0.011693684 -0.056692567 -0.008833905 -0.03794047 -0.026225463
-0.049447503 -0.051700845 -0.079297714 0.012112222 -0.028871328 -0.013837235 -0.028384212 -0.05584667
0.029310632 -0.0019366837 -0.03356585 -0.11163504 -0.06879985 -0.01908515 0.065530345 0.008667576
-0.016222281 0.03834838 0.029214581 -0.019583862 0.108164504 -0.013329709 -0.007230057 -0.024521371
0.025874075 -0.02815029 0.049446475 0.03550175 0.020264504 0.09254652 -0.050479837 -0.015539967
0.04156098 -0.101538025 0.016678156 -0.03639225 -0.012078114 -0.029613236 -0.17294829 0.0672742
0.032287136 0.03561804 0.04422507 -0.0028569389 0.076258145 -0.029754544 0.018697413 -0.16951032
-0.008420346 -0.04106538 -0.05813436 0.0135173295 -0.05735136 -0.04029267 -0.06301211 -0.032993134
-0.052183453 0.009347368 0.00062830304 0.09480953 0.06134615 -0.056786243 -0.0336624 -0.007139817
0.04547962 0.09821331 -0.018074987 0.065341406 -0.048344467 -0.061701033 -0.043997638 -0.055616237
0.03504911 -0.03751926 0.0951517 -0.0152975125 0.027902838 -0.08591933 -0.056283616 -0.07280022
0.029224968 0.08244794 0.09776935 0.013711926 0.071270965 -0.05227805 0.016784739 0.0628839
0.05294666 0.057892576 0.002588699 0.10838135 0.01383934 0.010378126 0.02596356 0.07169302
0.081766285 0.12286059 0.0025655243 0.06558582 0.0129984645 0.03314662 0.012731974 0.0360253
0.0054797735 -0.025107471 -0.067038186 0.017619537 -0.089656584 -0.0074456516 0.0138934115 -0.026263209
0.02958004 0.036994994 0.013694442 -0.0046951156 0.002138007 -0.009987741 -0.07404435 0.051443487
0.0021112754 -0.074010305 0.043492008 0.03871227 0.09045474 0.035934974 0.03871386 0.0032836858
-0.031215714 -0.061406452 0.048754495 0.02180812 0.043788437 -0.054319263 0.036962893 -0.066485696
-0.013588338 0.102772936 -0.02937949 0.024235513 -0.00052594295 0.01664463 0.0377695 0.02702761

bias f4 [64]
00000000: 598c 36bd a5ca 583c 6e45 963b f306 c7bc
00000010: 7e09 c53c 0a55 cdbc 44d8 263d b500 84bd
00000020: ea23 d8bc 3ad1 6fbd 2f36 e8bc cc11 a83c
00000030: 784b e93c 6373 a5bc 870f a6bd ca70 163d
00000040: 0312 793d 189e b0bb 77cb 1bbd 3de1 40bd
00000050: 9cf4 7ebd ad3a 98bd b0cf 613c 1f86 80bd
00000060: 4f41 52bd e7ad 32bc f95e 013d 1d8e ac3c
00000070: 7a6c 8dbd e262 f3bc bcf3 393d acb1 92bd
00000080: 7eec 16bc 1cc9 51bc c2ac c43b ab3a f6bc
00000090: 34ba cb3a 794f 57bc 9687 5dbc 585c 9dbd
000000a0: f8f5 b1bc ad7a ab3c 57df 743a a1ef 4e3d
000000b0: 33d8 babd 5e7a 443b 8c41 9dbc 35bb f6bc
000000c0: 2cc0 abbc 7343 65bd cce5 52bc aa52 213c
000000d0: 2b36 763c c14e 443c f0d4 2dbd 179c b33c
000000e0: 9e93 40bd 220d a4bd 15f0 80bc c296 ca3c
000000f0: 612f 11bd 2e97 53bd ca02 0c3b 0e70 c13c
-0.04456744 0.013231908 0.0045859134 -0.024295306 0.024052378 -0.025064964 0.04073359 -0.06445447
-0.026384313 -0.058549143 -0.02834615 0.020516299 0.02847837 -0.020196622 -0.0810843 0.036728658
0.060808193 -0.00538994 -0.038035836 -0.047089804 -0.062244996 -0.074330665 0.013782427 -0.062755816
-0.051331814 -0.010905719 0.031584714 0.021063859 -0.06905456 -0.029710237 0.04539846 -0.071627945
-0.009211658 -0.012804296 0.0060020396 -0.030057272 0.0015543164 -0.013141506 -0.013521096 -0.07683629
-0.021723732 0.02093252 0.00093411416 0.050521497 -0.09123268 0.0029980163 -0.019196294 -0.030118564
-0.020965658 -0.055972528 -0.012872171 0.009846369 0.015027563 0.011981667 -0.0424394 0.021925015
-0.04701578 -0.080103174 -0.01573948 0.02473009 -0.035445575 -0.051657848 0.0021363967 0.023613002

weight f4 [64, 64, 3]
00000000: 2e82 14be 2f81 0a3d f108 b13d bf3a 29bc
00000010: acc1 bfbc 65bd bdbd b4f7 42bd 6fda 073d
00000020: 0595 9a3c 1c1a 7fbb 8f8e a9bc dbee 1d3b
00000030: aa76 413e ec2e ce3c 4c07 37bd 30d7 a8bc
00000040: 5c0d bfbd 4178 bc3c c754 0e3e 82be 64bd
00000050: e1ae 39bd 5f4a 31bd 4088 bcbb 96ba 853c
00000060: 10a9 93bd 9956 27be 6272 8e3d 28a6 a73c
00000070: 609c 08ba f2bd eabd cb72 cd3c d4d9 e23d
00000080: 2d71 8e3d 3970 26bc f6ed 7d3d 1335 72bd
00000090: 586b 383d 424c da3c 7ba9 80bd 8c7f 26bd
000000a0: c36f 123d 262c 5e3d 3d41 dd3d 7266 36bd
000000b0: 4f8e b0bb 5946 be3d c56a 373d b560 ffbb
000000c0: 0e89 713c 812d 1fbd bec4 28bd 676b dbbd
000000d0: 46ac 74bd d08b 83bd 9a9f ad3d 43d9 a33c
000000e0: e4f8 f7ba dfa9 1bbd 468b dfbb 39fb 253b
000000f0: c2d6 c83c cc53 293e fee4 6a3d 2b35 913b
00000100: 6c30 36bd fc54 7e3c 651d 3e3c 5fb1 99bd
00000110: 205b 6bbd 2faf ee3c 495e 6abd b44a 0c3d
00000120: f5c0 413d 601b 5c3c 030f 363c ce6e 97bc
00000130: 7467 923d e9fc 8a3d 3139 87bd 459b 9dbb
00000140: df4d 79bd 102d c2bd 62dd 9bba c255 473b
00000150: c84e 093c fe2b 20bd ec5f 873d bede 503b
00000160: eba5 18bd acbb e1bd ddbb a5bc afc7 94bd
00000170: 8f1a f63b c3ca 0bbe 79f7 ac3d 15d2 d23d
00000180: 5608 8bbc c03b e93d 9b2e 313d 1bfc c53c
00000190: 4690 643d 4fc7 1cbd 893d 6d3d 5cb6 00bd
000001a0: da8c 02be 3849 be3d 1002 8b3d 2b18 e0bd
000001b0: 3cf7 b53c b76d 59bd f2df 8d3d 276d 87bc
000001c0: 55ea a83d fe99 a23b 6332 42bc 6d6c 3fbd
000001d0: f028 a53d 4beb c33d 4b56 99bb 6b65 9abd
000001e0: c8f6 f43c ad83 57bc 22be 29bd 8fed 19bd
000001f0: ae71 c5bd 8b06 553c d116 87bb bb86 2d3d
00000200: 8f79 583c 8b94 1cbe 3c1c 92bd 142d 4cbc
00000210: a3f7 0b3d 861c 48bc fe13 ce3c fe02 b4bd
00000220: c906 163d 148d 1dbc 5f96 d0bd 5b26 a33d
00000230: 6e14 e33c 5b72 503d 34df 94bc 6aaa a9bc
00000240: bf97 41bd 3a55 63bd ebb7 8abc cf8a cc3d
00000250: 7c98 aebd 4640 e73c 03c6 c53c dbc5 a73d
00000260: 7f43 9f3d c52d 9c3d 1429 853d e540 a63d
00000270: fe42 b23d 2afe 6b3c d940 32bd 58cd 753d
00000280: 526d 043c 7b8b 3fbc 095e 303d ccb3 16be
00000290: a99e 8b3d f751 bcbd 1b7d 1e3d 7e0e bc3d
000002a0: f972 3b3c 062f 943b 62a9 e0ba 1d1a cabd
000002b0: 2add 1b3e b0f2 8bbc 6799 e5bd c056 19bd
000002c0: 86eb 7cbd 2ed0 5a3d 11d3 c7bc 73ef 1cbd
000002d0: 05d6 bbbd 75ab 29bd 1403 ac3d 22be 2b3d
000002e0: f259 e83d 6b11 033e 6b93 9bbd dbd7 a1bd
000002f0: 05b7 d43c b7e9 9f3d 3553 1ebe 29ab 8d3d
00000300: 8d50 103d 4929 98bd 1f6b b33b 7f76 8239
00000310: e7db 6abd 9576 8cbd 8267 f9ba 0645 76bd
00000320: 9bbd 5abb 3f85 b83d 4e14 d33d 58bb 0c3e
00000330: ab2b fcba 2ab0 b5bc 00f1 3d3c 2a6e 0a3d
00000340: 5d2c 453d 6b5d ec3d d933 a23d cf05 243c
00000350: 2a9f 2fbc a328 a2bc 01f7 a6bd 26c6 5bbd
00000360: 45d0 21bd cd81 073d da85 92bc 94d2 59bc
00000370: 37d4 ba3d b1b7 afbd c1aa 3aba c38a 053d
00000380: 2ef1 77bd 5b07 733b c0d8 f63d 9876 833c
00000390: 7656 14b9 d9f5 743d 490a 9dbd 3284 043d
000003a0: c9bf dc3c 2055 3ebc bbc5 af3d 31b8 bc3d
000003b0: 4a13 163d bcfc f6bc 4f7b 213d 69a4 873a
000003c0: 5082 8fbd 3b2c 853c 6caf 8dbd 9070 debc
000003d0: 1fa4 273d 5d27 0dbd 1f3a 6c3d da62 d13d
000003e0: fc7b 8c3d de57 19bd ea1c 0abe 2903 77bd
000003f0: e832 d03c 5c29 b9bd 0ddb 98bd 6414 593d
-0.14502785 0.033814605 0.086442836 -0.010328948 -0.02340778 -0.0926464 -0.04759951 0.0331673
0.018869886 -0.0038925475 -0.02069786 0.0024098668 0.18892923 0.025168858 -0.044684693 -0.020610422
-0.0932872 0.02300656 0.13899527 -0.055845745 -0.045332793 -0.043283816 -0.005753547 0.016324323
-0.072099805 -0.16341628 0.069554105 0.020464972 -0.000521129 -0.114620104 0.025079152 0.11076704
0.0695518 -0.010158592 0.061994515 -0.059132647 0.045024246 0.02664769 -0.06282326 -0.040648982
0.035751116 0.054241322 0.10803459 -0.044531293 -0.0053880583 0.092907615 0.044779558 -0.007793511
0.014742149 -0.038861755 -0.041203253 -0.10713845 -0.059734605 -0.064231515 0.08477707 0.02000106
-0.001891878 -0.0380038 -0.0068220226 0.0025326742 0.024516467 0.16535872 0.05734729 0.004431387
-0.044479772 0.015523192 0.011603688 -0.07504534 -0.05745995 0.029136268 -0.057218824 0.03425093
0.04730316 0.013434261 0.0111119775 -0.018485453 0.07148638 0.0678652 -0.06602705 -0.0048097693
-0.06086528 -0.09481251 -0.0011891539 0.0030416106 0.008380599 -0.039104454 0.066100925 0.0031871046
-0.037267607 -0.11022124 -0.020231182 -0.07264649 0.0075104902 -0.13651566 0.08445639 0.10293976
-0.016971748 0.113883495 0.043257337 0.024168065 0.055801652 -0.038276013 0.057920013 -0.03142391
-0.12749043 0.09291309 0.06787503 -0.1094211 0.022212617 -0.053083148 0.0692748 -0.01653154
0.0824782 0.004962205 -0.011852833 -0.046734262 0.08064449 0.09566363 -0.0046794764 -0.07538875
0.02990283 -0.013153953 -0.04144109 -0.03758007 -0.09640823 0.013002048 -0.004122593 0.042364817
0.013212576 -0.1529104 -0.071342915 -0.012461919 0.03417171 -0.012213832 0.025156017 -0.08789633
0.036627565 -0.009616155 -0.10184931 0.079663 0.027719703 0.050890308 -0.018172838 -0.020711143
-0.047263857 -0.0555012 -0.016933402 0.09987413 -0.08525178 0.02822889 0.02414227 0.08192035
0.07776546 0.07625917 0.06501976 0.081178464 0.08704184 0.014403859 -0.043518875 0.060010284
0.008082705 -0.01169097 0.04305843 -0.14717025 0.068173714 -0.09195321 0.03869353 0.09182452
0.011440986 0.004522207 -0.0017140324 -0.09868262 0.15221086 -0.017083496 -0.112109 -0.037436247
-0.06174805 0.053421192 -0.024392636 -0.038314294 -0.0917168 -0.04142328 0.083990246 0.04192937
0.11345281 0.12799613 -0.07596477 -0.07902499 0.025966177 0.078082494 -0.15461428 0.06917412
0.03523307 -0.074297495 0.0054754163 0.0002488382 -0.05733862 -0.06858555 -0.001902804 -0.06012442
-0.0033377174 0.0900979 0.10306607 0.13743341 -0.0019239088 -0.022178728 0.011593103 0.033796467
0.04813801 0.115412556 0.079200454 0.0100111505 -0.0107191 -0.019794768 -0.08152581 -0.053655766
-0.039505262 0.033082772 -0.017886091 -0.013294835 0.09122508 -0.08579958 -0.0007120781 0.032603037
-0.06053274 0.0037083242 0.120530605 0.01604776 -0.00014146589 0.05980477 -0.07667977 0.032352634
0.026946919 -0.011616975 0.08582636 0.09214819 0.03663949 -0.03014981 0.039424237 0.0010348681
-0.07007277 0.016256442 -0.06918225 -0.027153283 0.040928002 -0.034461368 0.057672616 0.102239326
0.06859586 -0.037437312 -0.13487592 -0.060305748 0.025414899 -0.09041092 -0.074636556 0.05299796

bias f4 [64]
00000000: 7639 bfbb bc06 cfbd 9980 66bc 1551 3ebc
00000010: 3e21 15bd a4d4 963c eac1 573c 86c7 5c3d
00000020: aa08 2dbd 6f69 47bd cc21 00bd d489 893d
00000030: 20be de3c 0710 f2bc f263 bcbd daee 02be
00000040: e4a5 63bd 35cb b9bd db0d f1bb 12ad c9bd
00000050: 8aab 01bd c27f 74bd be47 1d3d 8fa8 42bd
00000060: 87f9 8ebd f6db a3bd 10c0 8cbc a38f 6e3c
00000070: 2dce 1fbc 6647 0b3d 2631 d0bc 848a 6dbc
00000080: 3a8b 9ebd 60a5 663c d50e 483d d9c3 c43c
00000090: ccc4 40bd 6793 d1bd c189 cbbc 250e 55bc
000000a0: c364 abbd 6fc0 ddbc 1407 0abc 8ea9 b3bc
000000b0: 1a92 95bd 0b4e 7abd 9b2a 65bd 9044 01bd
000000c0: 7cd3 703d 29dc ed3c ffb7 f6ba 8104 6ebd
000000d0: ac01 433d b221 93bd ea60 31bc 6842 013d
000000e0: 797e 84bd f866 2bbc e3cf bdbd 64cd c4bc
000000f0: 9068 6dbd c109 48bd 6fdc 51bd d0ee e5bc
-0.0058357073 -0.10108706 -0.014068746 -0.011616011 -0.036408655 0.018411942 0.013168791 0.053901218
-0.04224459 -0.048684534 -0.03128223 0.06715742 0.027190268 -0.029548658 -0.091987506 -0.12786427
-0.055578128 -0.09071962 -0.007356388 -0.09847464 -0.031657733 -0.05969215 0.038398497 -0.04752403
-0.06981187 -0.080009386 -0.017181426 0.014560613 -0.009753746 0.034003638 -0.02541406 -0.014498357
-0.07741399 0.014077514 0.04884227 0.024019169 -0.04706268 -0.10233193 -0.02484596 -0.013003861
-0.08368828 -0.027069299 -0.008424539 -0.021931436 -0.07303257 -0.061109584 -0.055948835 -0.031559527
0.058795437 0.029035645 -0.0018823146 -0.058109764 0.047609016 -0.07184161 -0.010826329 0.03155747
-0.06469435 -0.010461561 -0.09268167 -0.02402372 -0.057961047 -0.048837427 -0.051235612 -0.028067976

weight f4 [64, 64, 3]
00000000: 7291 87bd a3b7 a83d 0f32 32bd 613d 5dbc
00000010: 1500 203c 9bb6 5e3d 9256 453d 6608 15bc
00000020: 2967 093d 32dd d33d c9ac 13bd 26d9 973c
00000030: acee 893d 3220 503d e33b 1abd c4bc 053d
00000040: 20f5 353d c8a4 623d d565 7c3d a3ce d03c
00000050: f6b0 013d 2570 b63d e15b 55bb 3e96 2e3c
00000060: 2063 a63d df6c cebc bc38 5ebd 80c2 20bd
00000070: 06e9 4b3d 34e1 843d d3dd 55bc fca7 513d
00000080: 82a8 1ebd 77dc b53c e7b4 c43b 0d80 82bd
00000090: 58d2 123c a2b0 4ebd 34b3 6fbc bf25 ef3c
000000a0: 96be 6cbc a530 09bc 0e55 893d ff0e 2a3b
000000b0: 3ad6 bbbc 7c9c 2c3d 9a30 613c 0dc1 04bc
000000c0: 30fc 70bd d351 edbc 7fb4 c73c eb0f 223d
000000d0: 4d16 553c bc5a a73d 3408 16bd c2fc b3bc
000000e0: 3b79 7d3c 0ab1 cb3d aa3f 133e db4a 04bc
000000f0: 2c82 8cbd b334 683d 6b31 db3c a4af ee3c
00000100: e732 4d3b 618c 383d 6497 403d c5cd 3fbb
00000110: 94cb 873d 0ff8 8e3d cdc2 9b3c fc55 8e3d
00000120: 0e67 3ebd 4b33 113d 04fd 24bd d6bb 0ebd
00000130: c194 a33d 5e99 373b 5e06 9f3b 2278 4dbd
00000140: 1682 4ebd f3be b9bd 746b 1ebd 582f 6b3d
00000150: f6af 56bd ac90 2e3d 2fa5 33bc b469 9fbd
00000160: c586 c2bc d4f6 dfbc 2378 05bd a411 c13c
00000170: da34 99ba 6407 853b 6abc 8abb b920 b4bc
00000180: eeb4 84bc 4d5e 34bc 0d1b 523d d085 023c
00000190: 8233 cc3c f833 d53c ca72 9dbb 8965 82bd
000001a0: c588 27bb 1c15 183d 48fd 183d cb85 15bc
000001b0: 0987 a83c c06b 1e3d a13b bfbc 58d7 413d
000001c0: 978a dfbc 876e ee3c 1e6d 353c 0919 da3a
000001d0: cb8e bdba d2f7 86bc 5cb3 a93d 1eb7 793d
000001e0: d2a7 993d 4c3a 013d 7a26 4cbd 574c 6fbc
000001f0: b179 d639 83b0 84bd 144e 33bd 2701 b83c
00000200: 3d5a 96bc f892 f33a 2071 913d 6422 933d
00000210: 6426 113d 566f 86bc ca2d 983d 358a fb3a
00000220: 7368 353d b01c 9dbc 9ac2 00be b14c 02be
00000230: ca95 f2ba d94c 933d 9480 a33d 8a88 9fbd
00000240: 0c34 eebc ca17 43bc 1112 8fbc 4f6c 14bd
00000250: 1079 213d aeab 9e3c eca4 f73d e90c 9f3d
00000260: c6ae 2ebc 3e84 143d abf3 f6bc 8485 923c
00000270: 150a bf3b 5c85 3dbc 8649 ecbc 6494 843c
00000280: b461 823d 9e24 72bd bae3 6b3d 77b1 343d
00000290: 5e46 94bd c587 8fbd 0aa2 b3bd aa8c 06bd
000002a0: 4969 213d d820 113d 9886 453d 7f32 d93d
000002b0: 33b9 6c3c 12ed 93bd ddfc fe3c 8ffd 843c
000002c0: c3ca 2ebd 8fdf d8bd 8982 1b3c 7995 4f3d
000002d0: 4b3b 53bd 212f 323d c1d7 89bd f9d8 18bb
000002e0: 2a93 42bd b797 523c d6cb b53c 7603 da3b
000002f0: b352 e33c c337 26bd fb1d 313d 0243 f63c
00000300: 15a6 113e f8de 0a3d 57c0 083c 6116 00bd
00000310: b373 df3c 000c 29bd 2385 89bd 6972 c9bb
00000320: d95d c93d 8e0a 873d b676 f93c 8edf 913d
00000330: d904 1c3e 6d4d c33d 709a 86bd d09b 1bbd
00000340: d0b4 d8bd bf29 233c ccdd a43d 6f03 3abc
00000350: f095 22bd 874d 003d bbae 8dbd 28ba adbc
00000360: c35e 0dbd fbb2 03be f83c 953c 7dc5 4c3c
00000370: 1116 913b cd52 9abb 259b 8a3d 5d4f f43b
00000380: 58a1 55bd 63ef c23c b7ef e6bb 47b6 abbd
00000390: 473b d63d 211d 0dbe a5ee bebc e2b2 1bbd
000003a0: 2d33 20bc d238 23bd 0887 8a3d 780d 0fbc
000003b0: 4755 5dbd 3685 933d e7e0 5bbc 828f 5cbb
000003c0: 8633 cbbd 9168 843c dbd5 333d c437 113d
000003d0: a716 013e f2cf 863d 2c8f 9ebd 771e 0f3c
000003e0: 06f2 cc3d b3fa 113d cf08 a23c 9100 4cbd
000003f0: bfb1 cbbd 0241 2f3d 6000 1c3d 7714 6ebd
-0.06619538 0.08238151 -0.04350477 -0.013503403 0.009765645 0.054373365 0.048178263 -0.009096241
0.033545647 0.10344924 -0.036053453 0.018536162 0.06734976 0.050811954 -0.03765477 0.032650724
0.044423223 0.05533293 0.061620552 0.025489157 0.031662904 0.089081086 -0.0032555985 0.010655938
0.08124375 -0.025198398 -0.054253325 -0.03924799 0.049782775 0.064882666 -0.013053375 0.051185593
-0.03873492 0.022199852 0.0060030106 -0.0637208 0.008961283 -0.05046142 -0.014630128 0.029192803
-0.014449736 -0.008373414 0.06705676 0.002594888 -0.0229293 0.042141423 0.013744498 -0.0081026675
-0.058834255 -0.02896968 0.02437806 0.03956596 0.013005805 0.08171603 -0.036628917 -0.02197111
0.015470798 0.09945877 0.14379755 -0.008074488 -0.06860766 0.056690883 0.026756963 0.029136486
0.0031310858 0.04505575 0.047019377 -0.0029266935 0.06630626 0.06980907 0.019013787 0.06949994
-0.046485 0.035449307 -0.040280357 -0.034847103 0.07987357 0.0028014998 0.004853054 -0.050163396
-0.05041703 -0.09069624 -0.038676694 0.057418197 -0.052413903 0.04261844 -0.010964676 -0.07783833
-0.023745904 -0.027339377 -0.032585274 0.023567982 -0.0011688725 0.004059719 -0.0042338865 -0.02198826
-0.016199555 -0.011008811 0.05129533 0.007966474 0.024926905 0.026025757 -0.0048049437 -0.063670225
-0.0025563699 0.037129506 0.037350923 -0.009126137 0.020572202 0.038676977 -0.023343863 0.04732451
-0.027287764 0.029105438 0.011073379 0.0016639541 -0.0014462111 -0.016475592 0.08286163 0.06096565
0.07502712 0.031549737 -0.04984138 -0.014605603 0.00040907928 -0.064789794 -0.043775633 0.022461487
-0.018353576 0.0018583229 0.07101655 0.07184294 0.035437003 -0.016410511 0.074306086 0.0019190969
0.044289064 -0.019178718 -0.12574235 -0.12724568 -0.0018507775 0.07192392 0.07983509 -0.07789715
-0.029077552 -0.011907527 -0.01746467 -0.036236104 0.039422095 0.019368973 0.12092003 0.07766134
-0.010661786 0.03625893 -0.030145487 0.01788593 0.0058300593 -0.01156744 -0.028843652 0.01618404
0.06366292 -0.059116952 0.057590224 0.044114556 -0.07239984 -0.07008318 -0.08771141 -0.03284899
0.03940705 0.035431713 0.04822406 0.106053345 0.014448452 -0.07222952 0.031126434 0.016234187
-0.042673837 -0.105895154 0.009491571 0.050679658 -0.051570218 0.043501977 -0.06730605 -0.0023322685
-0.047503628 0.012853554 0.022191923 0.0066532446 0.027749395 -0.040580522 0.043241482 0.030061249
0.14223512 0.033904046 0.008346639 -0.031271342 0.02727685 -0.04127121 -0.06714847 -0.006147672
0.09832353 0.0659381 0.030452114 0.07122718 0.15236224 0.09536252 -0.06572425 -0.03799039
-0.10581362 0.0099586835 0.08050117 -0.011353358 -0.039693773 0.031323936 -0.06918093 -0.02120693
-0.0345142 -0.12861244 0.018217549 0.012498257 0.0044276793 -0.0047095777 0.06767873 0.00745575
-0.052155823 0.02379579 -0.007047619 -0.08384376 0.10460525 -0.13780643 -0.023307154 -0.038012393
-0.009777826 -0.03984911 0.067640364 -0.008731239 -0.054036405 0.07203142 -0.01342032 -0.0033654873
-0.09921937 0.016163142 0.04390512 0.035453573 0.12606297 0.06582631 -0.077421516 0.008735291
0.100071 0.035639476 0.01977959 -0.049805228 -0.09946012 0.042786606 0.038086295 -0.058124986

bias f4 [64]
00000000: c84d 3bbc de3d 963c 10de 8ebd 694f ddbd
00000010: d922 f6bd 6907 c1bc aa49 cdbd b05e 84bd
00000020: 0539 afbd b11c 8d3d 3908 b2bd 1855 48bd
00000030: 6d22 293c b513 bfbd c424 06be 324b 9dbd
00000040: 359d cebd c60c 80bd 6b09 0bbd 14ce 47bd
00000050: 318b bd3c 998d f9bb 2664 6fbd 5b8f 143d
00000060: b661 85bd ba09 a73c f76c 2a3d 2b6c 05be
00000070: d1b2 433d ca2e 16bd 337b 1abd 8f68 11bd
00000080: 7c10 633d 7dcf 02be eba5 00bd 64e7 0bbd
00000090: 4574 50bc 23ee 73bd bdc9 86bd fdc1 debd
000000a0: cbb1 a73c dc5c babd 56b8 083d 94b9 dd3a
000000b0: eaef 4ebd 54b6 8cbd d26d 44bd 7daf d3bd
000000c0: cda6 b33d 4023 26bd 3933 ac3c 62b2 e7bd
000000d0: 1dc5 2ebd f5f8 84bd 2b56 99bd 123c 313d
000000e0: 8b2f ee3c 5a9e 8e3c f28a 0bbd 7419 1e3b
000000f0: d728 533c 62c1 84bd bb8e 5bbc 1b34 32bd
-0.011432119 0.018340047 -0.06975949 -0.10806162 -0.120183654 -0.023563104 -0.10023816 -0.06463373
-0.085557975 0.06890238 -0.086929746 -0.048909277 0.010323149 -0.09329931 -0.13099962 -0.07680358
-0.100885786 -0.06252436 -0.03394453 -0.048780516 0.02313766 -0.0076157567 -0.05844512 0.036269527
-0.065127775 0.02039038 0.041607823 -0.13029544 0.047777954 -0.036665715 -0.03771515 -0.035500105
0.055435643 -0.12774463 -0.03140823 -0.03415622 -0.012723033 -0.059553277 -0.06581447 -0.10876844
0.02047052 -0.09099743 0.03337892 0.0016916269 -0.05052177 -0.06870714 -0.047956295 -0.10336206
0.08772049 -0.04056096 0.021020519 -0.11313321 -0.04266845 -0.06492797 -0.07487138 0.04327018
0.029075405 0.017409492 -0.034068055 0.0024124058 0.012888155 -0.06482197 -0.013400729 -0.043506723

weight f4 [64, 64, 3]
00000000: 16c7 e63c 7c64 24bc 05ce 0c3c c8d0 47be
00000010: 0ecb 8dbd 93dc 483d 0e41 853d a04f 5abb
00000020: 0be5 363c a823 b13c 08f9 94bd 6526 453d
00000030: 9a9f babc 4466 9ebd c141 ebbb d3e9 e7bd
00000040: 29e3 8dbd 9aeb 9bbc 7eca e2ba ddf6 a5bb
00000050: 97cf 8abd 37c6 14be e434 dfbc a02a a43b
00000060: e768 ce3d a387 18bd 2f88 f13c 963c 0cbe
00000070: 3f64 d4bd 4a82 16be fdac 253d fd0e 813d
00000080: e8b2 9fbc 02aa 343d c9e7 3c3c f849 283d
00000090: 3b74 0c3c 8be7 033c 5db0 cfbd a4dd 48bb
000000a0: fcbe 903b 1f8f 9e3d 0493 843d 00a7 cdbd
000000b0: 02d4 a23d 02a8 8e3d 766e a33c 72d8 b3bd
000000c0: ed7f ec3c 0633 d1bb d6e3 a93c 3af3 1a3d
000000d0: d57a e1bd a93c c3bd b32c 403d 0a84 58bb
000000e0: 9eac e23c 2930 6d3c 74fc 84bd 5a97 323d
000000f0: bb8d eebd fb71 5b3d c542 f1bd e9c6 a5bd
00000100: 91e6 8cbb e9f2 79bd abd0 f1bd 257e fe3c
00000110: 675a 10bd 7677 77bc a097 babd 7881 dabd
00000120: 3dee b23c 8204 173c 02d3 8a3d 8970 933d
00000130: 49ef c8bc 3975 6dbd 2728 e8bb b808 e4bd
00000140: bb97 7abd f8b2 a5bc 09b8 3b3c 67fb 4f3d
00000150: 0089 11be 98eb 963d 6408 853c 1c03 8b3d
00000160: 5f25 4fbd 7520 463c cb62 a1bd 0e65 51bc
00000170: dea0 de3b dcec d9bd 0f8a 1dbd 49ba 83bd
00000180: 79c3 0d3e ef37 ea3b 8520 4b3c 3ac9 ac3d
00000190: 9bf8 6b3d 28e0 46bd 6c41 2c3d 99c9 a139
000001a0: 8c36 4f3d 12e6 afbd fbf8 803c da8e 003b
000001b0: 0569 8c3d d0ac 263d a5af 80bc c58f a73a
000001c0: cea5 c5bd e1e2 d93c 024a 193b 318d dc3c
000001d0: a5bd c93d f24d 8bbc dfe5 353d f80c 1f3d
000001e0: 5972 35bd 2d59 613d 3641 3d3c bc98 edbc
000001f0: bf12 81bb f01d 60bc 4324 75bd c015 313b
00000200: 6e15 38bd 6218 193d 6a27 723d f5fc e23c
00000210: a2bd 343c 9300 473c ee78 00bd 3831 333d
00000220: 2c36 153c cbdf 173d 6e90 653d adff 28bd
00000230: 79d1 5dbb d79a 81bd 3e05 2a3d f78f 14be
00000240: ebbc 8dbd 5775 c7bd 632b 86bc 46f5 e63c
00000250: 08d1 91bd d85d 233d a19d 483d 5020 0a3c
00000260: d57c 6c3d 149c bcbd 195e aa3c 7e41 17bd
00000270: 8573 543c cc58 8dbd 3a4a 4c3d f17f 24be
00000280: 92de 02be 67ad f9bc f32d 143d 6e05 66bd
00000290: 859b e33c 071b 12bc d2bb 5d3d efdb 093d
000002a0: dde1 003b 710a 8e3d 2255 01bd 2192 12bd
000002b0: d473 0abb e650 543d ece4 2d3d 9c01 eaba
000002c0: 8822 30bd 5ef2 753c f71c 91bd d5eb 083d
000002d0: 67cd 08be 7c12 31be 71d9 dfbd d12e a9bd
000002e0: e458 0b3d 1b75 e7bc a126 4bbd 215c 1f3d
000002f0: 3d75 6b3b 5784 f53b f63e c63b afff a33d
00000300: f9eb 93bd 1000 83bd 9643 0d3d d71c 43bb
00000310: 23fa 45bd 4ca3 c3bd eee3 18bd 3def e83c
00000320: 60df c7bd 3aea 29bd c0c8 8e3d e1ff a13c
00000330: 2760 833d 23b6 003e 510b 513d 4f2b a6bd
00000340: d38a 413e f075 2abe 4ecb b2bb 427c d6bd
00000350: ae03 e4bc 827b 003d a8bd 93bd 33b9 db39
00000360: a499 273d caa9 f93c 592f 47bd 99d4 c0bd
00000370: 6510 873d d8ef 93be 9bed 21bd 9a5c 13be
00000380: bdf4 213d 9abf 323d 142e bdbd 56fb 003c
00000390: 23ff d93d 445c 3bbd af89 193d 69af b43d
000003a0: 679c ac3d 226f 8cbc 4e67 efbc 5e12 79bd
000003b0: 52f8 c3bd 1628 f439 6d9a 15bd 52fa acbc
000003c0: d9e9 2abd 6af2 76bc 86f4 713d 9b4a 8d3c
000003d0: c509 293e 1a36 17bd ff79 e2bc fefc f6bd
000003e0: 3786 7a3d e899 153b eb80 99bc 51d2 833d
000003f0: 30ed 733d 71bd a3bc b6d7 183d 53d8 703d
0.028171103 -0.010033723 0.008594041 -0.19513237 -0.06923495 0.04903848 0.06506549 -0.003331162
0.011163007 0.021623448 -0.072740614 0.04813232 -0.022781182 -0.07734349 -0.0071794693 -0.11323895
-0.06928093 -0.019033242 -0.0017302779 -0.005064829 -0.06777876 -0.14528738 -0.0272469 0.005009964
0.10078602 -0.03723873 0.029483883 -0.13694987 -0.10370683 -0.14698139 0.040448178 0.06301687
-0.019494489 0.044107445 0.011529871 0.041086167 0.008572633 0.00805081 -0.101410605 -0.0030649686
0.0044172984 0.07742142 0.064733535 -0.10041618 0.079505935 0.06965639 0.019950133 -0.08781518
0.028869594 -0.0063842563 0.020738523 0.037829615 -0.110097565 -0.095330544 0.04691763 -0.0033037686
0.0276702 0.014476814 -0.06493464 0.04360137 -0.11648127 0.053575497 -0.117803134 -0.0809458
-0.0042999466 -0.061022673 -0.118073784 0.03106601 -0.035242464 -0.015104165 -0.091109514 -0.106692255
0.021842116 0.009217383 0.06778528 0.07199199 -0.024528163 -0.05797312 -0.0070848647 -0.111344755
-0.061179858 -0.02022694 0.011457452 0.050776865 -0.14212418 0.07369155 0.016239353 0.067877024
-0.05057275 0.012092699 -0.078801714 -0.012780441 0.006794079 -0.106408805 -0.03846174 -0.064320154
0.13844098 0.007147781 0.01239789 0.084368184 0.057610136 -0.048553616 0.04205458 0.00030858515
0.05058913 -0.08588804 0.015743723 0.0019616396 0.068559684 0.04069215 -0.015708754 0.0012783936
-0.09650765 0.026597442 0.002339006 0.026922794 0.09850625 -0.01700494 0.044408675 0.038830727
-0.044298504 0.055016685 0.011551192 -0.029003493 -0.0039390023 -0.013679013 -0.059849035 0.002702102
-0.044942312 0.03737677 0.05911962 0.02770851 0.01103154 0.012146133 -0.031365328 0.04374811
0.009107154 0.03707866 0.056045942 -0.041259456 -0.003384678 -0.063283615 0.041508906 -0.14508043
-0.06920799 -0.09739178 -0.01637811 0.028193127 -0.07119948 0.03988442 0.04897845 0.008430555
0.057736237 -0.09209457 0.020796822 -0.036927693 0.012966995 -0.06901702 0.049875475 -0.16064431
-0.12780216 -0.030478192 0.036176633 -0.056157522 0.027784118 -0.008917577 0.054134198 0.03365701
0.0019665875 0.06935585 -0.03157533 -0.03578389 -0.0021126168 0.051834963 0.042454645 -0.0017853263
-0.04300168 0.015011398 -0.07085603 0.033428032 -0.13359605 -0.17292207 -0.109301455 -0.08260883
0.03402032 -0.028254082 -0.049597386 0.03890622 0.0035928034 0.007492583 0.006049986 0.08007752
-0.072227426 -0.06396496 0.034488283 -0.0029771829 -0.048334252 -0.09552631 -0.037326746 0.02843439
-0.09759402 -0.04148314 0.06971884 0.019775333 0.06414824 0.1256948 0.051036183 -0.08113729
0.18900613 -0.16646552 -0.0054563647 -0.10472919 -0.027833786 0.031367786 -0.072139084 0.0004190892
0.040918007 0.03047647 -0.04862914 -0.0941555 0.06594924 -0.28893924 -0.03953324 -0.14390793
0.03954004 0.043639757 -0.09237304 0.007872423 0.106443666 -0.04574229 0.03748482 0.08822519
0.08428269 -0.017142836 -0.029224064 -0.060808532 -0.09568848 0.00046569173 -0.036524225 -0.021115456
-0.04172692 -0.015072444 0.059071086 0.017247489 0.16507633 -0.03691683 -0.027646063 -0.12059973
0.061163153 0.002282733 -0.01873823 0.06436599 0.05955237 -0.019987794 0.037315093 0.058800053

bias f4 [64]
00000000: 5513 91bd c992 dbbd fb93 b23c b22c f93c
00000010: 6f52 fabd 6706 073c 006f b6bd cbe2 d7bc
00000020: fff1 04be e99c d5ba ec84 b1bd 3c39 443c
00000030: b65f c7bd 0266 c3bc 35c0 92bd 339a 9bbd
00000040: 7e34 afbc 62c2 54bc 573b b9bd 082f cbbd
00000050: b7c7 4dbd 2dfa 653d ac99 a03b d04d cd3b
00000060: d096 e0bd 46ab 103d 0464 83bc e7aa c2bd
00000070: 26ca 57bb d069 b83d c49e 79bd 9007 a0bd
00000080: 8d90 edbd 205f f4bc 02df 633c 9e23 493d
00000090: 45ae 2fbd 0cec 32bd f1ed fabd 0705 afbc
000000a0: 955c 0abd 740d 033d 279e 20bd 3197 a33b
000000b0: 6be6 84bd ec6f 62bd 5f7f ddbc b36d 91bd
000000c0: a3e2 053d 38fc df3d b75b ad3d 33cb 90bd
000000d0: f42a 5bbd 9920 99bd 65d7 b4bb ba39 98bd
000000e0: 0039 853d 63bf 383d 80f1 863b 7d3e be3b
000000f0: 926a bcbc 492d 33bd c93d a3bd e4be 83bd
-0.070837654 -0.107213564 0.021799078 0.03041682 -0.12222754 0.0082412725 -0.0890789 -0.02635326
-0.12982939 -0.0016297373 -0.08667931 0.011976536 -0.09735052 -0.023852352 -0.07165567 -0.075977705
-0.021387335 -0.012985798 -0.09044521 -0.0992108 -0.05023929 0.05614679 0.0049011316 0.0062653795
-0.10966265 0.03531959 -0.016038902 -0.09505253 -0.0032926886 0.09004557 -0.060942426 -0.078139424
-0.115998365 -0.029830515 0.01390815 0.049106233 -0.042890806 -0.043682143 -0.12252415 -0.021364702
-0.0337797 0.03199525 -0.039213326 0.0049923887 -0.06489261 -0.05528252 -0.027038274 -0.071010016
0.03268684 0.10936779 0.08464759 -0.07070007 -0.05350776 -0.07476921 -0.005518841 -0.074328855
0.065050125 0.045104396 0.0041181445 0.005805789 -0.023000035 -0.04374436 -0.07970769 -0.06432894

weight f4 [64, 64, 3]
00000000: 1990 ecbc 847a c13d e073 f43c 5d19 4f3d
00000010: 6cb7 1a3e 827e 2b3e f20f b3bd bfec 283d
00000020: fc20 803c 26a4 16bd 3f1d 1e3d e3aa d83c
00000030: cccd 6bbd 5699 03be dde3 ac3c 41ab 9cbc
00000040: 0c4e ee3d 2e70 6d3d 8eb6 8c3d bbb7 563d
00000050: cc33 f53d 0779 dcbd ff1a 92bd 8cd2 3abe
00000060: 1435 2bbd b1d3 cdbc afa4 b9bd dc40 5d3d
00000070: 32d8 25bd 1158 31bd 49f9 32be dca4 bdbc
00000080: 5033 4ebd 4c2c b83d 33f2 533e 1a5a 353d
00000090: 36cc 47bd 61d4 fb3c 88a0 5dbc 5e37 47be
000000a0: a34e 4cbe 0ec1 443c 23c0 053b 92a0 753d
000000b0: 3abb 933d 8bcc c6bb 00a0 11be f2e8 a4bd
000000c0: b39f 613c a418 2c3d 19e0 a83c ae7d 613b
000000d0: 774b 373d efbd d4bc 5754 0abd 5532 f7bd
000000e0: 89e6 bfbd a217 2dbd 5bca 52bc 5aba 00bd
000000f0: feab 76bd dadd 17bd 4964 c73c 0c08 4b3c
00000100: b6ac 943d 9cd0 8d3d 0257 13be e7b4 a2bc
00000110: 6c1a 0abe 12d2 abbd c9ec 913c 7219 9d3c
00000120: 2c07 97bd f4f0 99bd db3d 083d 1d45 ff3d
00000130: 4cc8 23be 9da9 423d 5634 df3d 106d e43d
00000140: 3469 ca3d 5606 3c3d 6978 803c 0cda 193d
00000150: 2b5f 20be 0c26 07bd 48a2 bb3c c9e7 83bd
00000160: bcfd 813d 0a9d 84bd a25a d8bd dbd3 95be
00000170: 9a48 23be 75a0 e7bd bd61 3ebe 48fe 15bd
00000180: 002a 533d a4c4 1dbc 8830 23bd 7a33 f93c
00000190: 1221 b9bd 307a d43d e380 e4bb 189b 6c3c
000001a0: c6e1 593a 92a1 5fbd 06ba 9e3c cf3b b03d
000001b0: 500e 24bd 131e 243d 3272 d7bc a64d af3c
000001c0: d8fe c83d e13f d03c 5a73 b9bc b7b8 a1bd
000001d0: df51 613d f17e 5e3b 9751 9abc 1b9e 72bd
000001e0: 74a9 b5bd cefd 82bd e909 dabd b4da 123d
000001f0: e248 dd3b 3571 d3bc d0c3 22bc aa3a 92bd
00000200: 297c a9bd 3396 c8bd 12c6 adbc d34e 9bbd
00000210: 849c 62be bee3 91be 7675 2ebd c7fa 353d
00000220: d744 143e 938b 7dbd 92b2 89bc a177 93bd
00000230: d155 d73d 7fb9 e73b 2c0f 483d f5e1 b83d
00000240: 4a11 b2bc 896f 20be 8f42 cd3c 48cc dbbd
00000250: 7134 a6bd 37cd 023b 8068 8a3d 6f57 4f3e
00000260: 1467 bf3d f2e4 cd3b f013 1bbe b356 98bd
00000270: 3294 24bd 1fee 41be 2ae5 f9bd 56d0 09be
00000280: 745a f23b da19 bcbc 5fd2 6c3d 994a 71bd
00000290: ef71 9fbd 49cb c8bc 2883 13bd 8490 8abd
000002a0: d163 edbd e010 37bc bca3 153d 6e0b 0f3e
000002b0: eca5 b33c 8c36 c4bc 2b47 49bd e78d 0dbe
000002c0: ccff ecbd 4eef 7a3d f9c8 8a3c 6c0a f4bc
000002d0: c18d 0ebe 46f0 50be 1127 cbbd 26e6 4fbd
000002e0: a674 87bc 26ea 1ebd a406 91bd 7168 78bd
000002f0: 4007 dbbc 938c 1b3e cccd 703e 0c4d d63d
00000300: 8353 293e 216f bf3c 8d07 393d f8d9 bc3d
00000310: 4ebe 813d 0219 e03d 2d8e 73bd 5a5d 9ebd
00000320: 9b17 80bd 85d9 8d3d 3aae b0bc dedb 10bc
00000330: 245e 4dbd 873a ddbc fdcb f83c 52dc 263b
00000340: 37f6 7bbc aa1c 3fbc 77a9 72bd c01b 18bc
00000350: 4c62 8f3d e479 94bd 418f d73c 6df2 233e
00000360: 6c62 2f3d c272 243d 775d 17bd 98f7 24bd
00000370: 3641 7a3b b0cd ce3b 8902 963b 56a8 a93d
00000380: 2f56 cbbd 0b05 983c 369e 96ba df94 ccbc
00000390: cf34 ef3b 2a7f e9bc 19b7 843a 4de9 30bd
000003a0: ab68 403d fb16 ba3d d601 2d3c e19a 803d
000003b0: 264f c53d 553d b0bc 70e7 74bd f573 873d
000003c0: 1f4c d1bc 5aaa 82bc 6e24 d53d 7a2f 43bd
000003d0: 688f 7cbd 6f7b c03c 0f5b 4fbe c991 f13c
000003e0: 028e 183e 22ef 1d3e 7196 a03d e8ab 033e
000003f0: 1b56 0d3d 1f2f cebc 1029 623d f2a3 29bd
-0.028877305 0.09447196 0.02984041 0.050561298 0.15109032 0.16747478 -0.08743276 0.041241404
0.015640728 -0.036777638 0.03860211 0.026448673 -0.05756931 -0.12851462 0.021104747 -0.019124629
0.1163598 0.05796831 0.06870757 0.052421313 0.1197277 -0.10765272 -0.07134055 -0.1824438
-0.041798666 -0.025125356 -0.09064614 0.054016933 -0.040489383 -0.043296877 -0.17477907 -0.0231499
-0.050341904 0.08992824 0.2069786 0.04427538 -0.048778735 0.030740919 -0.013527043 -0.19454715
-0.19951873 0.012008918 0.0020408712 0.059967585 0.07213445 -0.006066864 -0.14221191 -0.08052243
0.013770985 0.042015687 0.02061467 0.0034407186 0.044749703 -0.025969474 -0.03377184 -0.12070147
-0.09370143 -0.042258866 -0.012865628 -0.03142772 -0.06022262 -0.03707681 0.024339812 0.012392055
0.072595045 0.06924555 -0.1438866 -0.019861652 -0.13486642 -0.08389677 0.017813103 0.019177172
-0.07374415 -0.07516661 0.033262115 0.12464354 -0.15994376 0.047525037 0.10898654 0.111536145
0.09883347 0.04590448 0.015682416 0.03756146 -0.15661304 -0.03299527 0.02290453 -0.06440694
0.06347224 -0.06475265 -0.10564162 -0.29263195 -0.15945664 -0.113099016 -0.18591972 -0.036619455
0.051553726 -0.009629402 -0.039841205 0.030420054 -0.09039511 0.10374868 -0.0069733723 0.014441274
0.0008311536 -0.054597445 0.019375812 0.086051576 -0.040052712 0.040067744 -0.02629957 0.02139933
0.098142326 0.025421085 -0.022638012 -0.0789656 0.05500972 0.0033950175 -0.018837733 -0.059232812
-0.08870211 -0.06396066 -0.106464215 0.035853103 0.006753073 -0.025810817 -0.009934381 -0.071400955
-0.08275635 -0.09794273 -0.021212611 -0.07583394 -0.22130018 -0.28494066 -0.04259249 0.044428613
0.14479385 -0.061900686 -0.016808782 -0.07200552 0.10514415 0.0070716734 0.048842594 0.09027473
-0.02173676 -0.15667547 0.025056152 -0.10732323 -0.08115471 0.0019958743 0.06758213 0.20248197
0.093458325 0.006283396 -0.15144324 -0.074384116 -0.040180393 -0.18938492 -0.12201913 -0.1345838
0.0073960368 -0.022961546 0.057817813 -0.058909032 -0.07785403 -0.024510996 -0.036013752 -0.067658454
-0.11591304 -0.011173457 0.036533102 0.13969204 0.021929704 -0.023951791 -0.049140137 -0.13823663
-0.11572227 0.061263375 0.016941534 -0.029790126 -0.13921262 -0.20404157 -0.09919561 -0.050756596
-0.016535114 -0.03879752 -0.07081345 -0.060646478 -0.026736856 0.15190344 0.23516005 0.10463914
0.16535763 0.02336842 0.045173217 0.09221262 0.06335126 0.1094227 -0.05946176 -0.07732649
-0.062545024 0.06926254 -0.021567453 -0.008841483 -0.050138608 -0.027005447 0.030370707 0.002546091
-0.015378526 -0.011664549 -0.059243646 -0.00928396 0.070011705 -0.07249811 0.026313426 0.16010447
0.04281847 0.040148504 -0.03695437 -0.040275186 0.0038185841 0.006311141 0.004577939 0.08284061
-0.099285476 0.018557092 -0.0011491242 -0.024973331 0.0072999964 -0.02850302 0.0010125368 -0.043191243
0.04697482 0.090864144 0.01055952 0.06279541 0.09634237 -0.02151362 -0.05979103 0.06613914
-0.025548993 -0.01595037 0.10407339 -0.0476527 -0.0616602 0.023496358 -0.2024958 0.029488461
0.14897922 0.15423253 0.078411944 0.12858546 0.034505945 -0.025168953 0.05521494 -0.041416116

bias f4 [64]
00000000: 78f1 4b3c 164e f8bc 5632 5fbd e8ba f6bb
00000010: c506 153d a953 82bd 350b 6abd b4f1 27bd
00000020: 382e 8fbb 906a b5bc ad41 19bd c227 973b
00000030: d8ac 25bd 54a0 45bd 8925 7b3d 20a2 e43b
00000040: dab0 1abc e770 e23c b566 ab3b 3d62 2bbd
00000050: 770b 48bd 9550 f9bc aaf6 c43c 2fc3 663d
00000060: 0fa4 fcbc db55 96bc 44d2 b4bc 015e 7ebd
00000070: 5e78 0cbd 0557 40bc ee69 dbbd c1e6 27bd
00000080: 379a 22bd 7c88 dabc 3be2 2dbc fabb 7ebd
00000090: 3241 a2bc 3f5d 50bb fb64 aebb 3326 283c
000000a0: 422f 963d 22f8 3b3d 69d4 d4bc dee8 073c
000000b0: 857b 8e3d 1423 80bd faae e6bb 5252 06bd
000000c0: b49a 1dbd 1814 d9bc 4861 61bd e968 8cbd
000000d0: 13aa bcbd e9f8 16bd 1d3b 65bd d782 5d3c
000000e0: 407f 5bbd e6d6 a53d 6d88 2d3d f7c3 1fbd
000000f0: 2242 1b3d 3abb 1dbd 686f 703c 69e0 77bd
0.012447707 -0.030310672 -0.054491363 -0.007529605 0.03638341 -0.06363613 -0.057139594 -0.04100199
-0.0043695234 -0.02214554 -0.03741615 0.004612894 -0.04044804 -0.048248604 0.061315093 0.0069773346
-0.009441579 0.027641727 0.0052307495 -0.041841734 -0.04883906 -0.030433932 0.0240434 0.056338485
-0.030839948 -0.018351486 -0.022072919 -0.062101368 -0.03429448 -0.011739497 -0.10713564 -0.04099155
-0.039697852 -0.026676409 -0.01061302 -0.062190987 -0.019806478 -0.003179386 -0.0053220964 0.010263014
0.073332325 0.045890935 -0.025980191 0.008295266 0.06957153 -0.062566906 -0.007039902 -0.03279335
-0.038477615 -0.02649884 -0.055024415 -0.068559475 -0.092121266 -0.036858473 -0.055964578 0.013519964
-0.053588152 0.08097629 0.042366434 -0.039005246 0.037904866 -0.03850863 0.014674999 -0.06051675
