models/OSheaCNN2018_50_best.pt (torch, 650642 bytes, 20 tensors)

weight f4 [64, 2, 3]
-0.22080739 -0.13876417 -0.54527617 0.5066387 0.38907826 0.44005066 0.22159952 0.48001334
0.49012932 0.09266892 -0.09785068 0.3070512 0.05553202 0.16946554 0.17217067 0.3097864
0.24761038 0.00922125 0.2689719 0.34267497 0.040464748 0.38928953 0.24291658 0.26053497
-0.21781234 -0.49240014 -0.41108668 -0.2504886 -0.34357968 0.2801075 0.3881808 0.33862966
-0.16521104 -0.078574255 -0.33755243 -0.48692825 0.24994847 0.22225113 -0.13507293 -0.06793161
-0.21430057 0.41286513 -0.20200443 -0.016168486 -0.1586468 -0.4242611 -0.23053044 -0.089139976
0.4928255 0.34619933 -0.04246074 0.066799864 -0.23161761 -0.037902534 0.31398687 0.45805326
0.43787208 0.37269002 0.37809905 -0.13680524 0.26553446 0.13817635 -0.107463285 -0.080350995
-0.12545703 0.18895426 -0.13949168 -0.29559416 0.2746818 0.32705122 -0.20892365 0.307614
0.2495142 -0.31040528 -0.17416269 -0.31524247 0.22461106 -0.33887443 -0.15285476 0.4107234
0.29127094 0.2144416 0.15447058 0.43537372 0.113094576 -0.032698136 0.052326918 0.46221918
0.43725744 0.45501646 0.22522904 0.05593689 -0.08866485 0.065433145 0.35103324 0.3144027
-0.27451137 -0.05657678 0.2118829 -0.057184126 0.013212078 -0.00049959426 0.28525335 0.051111262
0.24264449 -0.06515568 0.022390056 -0.14648484 -0.025144275 -0.2078317 0.15047577 -0.3391153
-0.20790763 0.2826041 0.2017382 -0.12846965 -0.041085925 -0.3109065 -0.38772717 -0.35881305
0.36130628 0.27950606 0.2836599 -0.1090493 0.36705193 0.25427023 -0.4951689 -0.2736887
-0.14494464 -0.064521916 -0.04106429 -0.37278688 -0.14846289 0.2583163 -0.15199474 0.17178431
-0.23110327 0.3158719 -0.22815035 -0.29832035 0.32877433 -0.12996605 0.0072855107 0.38686758
0.30676782 0.29843596 0.058962844 0.082745254 -0.15990716 -0.047432303 -0.22798117 -0.13671042
0.13925672 0.071537286 -0.36602473 -0.30814067 0.118090436 0.34937355 0.42026088 -0.37434804
-0.41768917 -0.122037545 0.48929968 0.3784804 0.42766845 -0.26575565 -0.33585778 -0.10065841
-0.13585472 -0.24765724 -0.23882371 0.3760483 0.21919203 -0.0931638 -0.36241978 0.26097506
-0.20476091 -0.25233802 -0.060423486 -0.30610833 -0.12350729 -0.07470622 0.13008955 -0.12937932
0.40752298 0.34538427 0.066736035 0.04746839 -0.08872602 -0.14108585 -0.077878706 0.14226507
-0.12804279 -0.01697644 0.083160624 -0.22112487 -0.101899885 -0.32924655 0.034294184 0.31614974
0.028777285 0.0686792 0.0016798055 -0.012047332 0.11890817 0.398885 0.12363621 -0.41696703
-0.3705142 -0.17652255 -0.2452007 -0.07871807 -0.09217202 -0.09501594 0.31182003 0.03204594
-0.2988793 -0.02771712 -0.13947135 0.3626028 0.3336999 0.215458 -0.46953702 0.005249826
-0.23046537 0.026647992 0.13438106 0.0671456 -0.16342594 -0.17420392 -0.20855366 -0.04641018
-0.032612663 -0.27493408 0.37913194 0.090151265 0.26586947 -0.473919 -0.16565888 -0.11829448
-0.3419837 -0.2929757 -0.28134188 -0.3259795 -0.28316963 -0.45839575 0.030956654 0.24488503
-0.10788911 -0.07672215 -0.39836508 -0.44530466 0.20641197 0.10093751 0.10484341 -0.2158605
00000000: 551b 62be 3218 0ebe 3897 0bbf 13b3 013f
00000010: 4435 c73e 524e e13e fcea 623e 4fc4 f53e
00000020: 3bf2 fa3e 34c9 bd3d f065 c8bd d135 9d3e
00000030: 8b75 633d 6088 2d3e 824d 303e 539c 9e3e
00000040: 938d 7d3e ba14 173c afb6 893e 1873 af3e
00000050: 5dbe 253d f550 c73e 20bf 783e d764 853e
00000060: 330a 5fbe df1b fcbe f479 d2be 0b40 80be
00000070: ade9 afbe 406a 8f3e a2bf c63e de60 ad3e
00000080: 152d 29be 8aeb a0bd acd3 acbe a94e f9be
00000090: 7ef2 7f3e cd95 633e 8f50 0abe ba1f 8bbd
000000a0: 9c71 5bbe 0f63 d33e 40da 4ebe c673 84bc
000000b0: 4f74 22be c038 d9be 2c10 6cbe 058f b6bd
000000c0: a053 fc3e 0a41 b13e 50eb 2dbd 5ece 883d
000000d0: 2b2d 6dbe b03f 1bbd e3c2 a03e f585 ea3e
000000e0: c530 e03e 3ad1 be3e 3396 c13e ac16 0cbe
000000f0: 22f4 873e 1a7e 0d3e b615 dcbd 108f a4bd
00000100: cf77 00be 3a7d 413e e8d6 0ebe 1e58 97be
00000110: 18a3 8c3e 4273 a73e 15f0 55be 957f 9d3e
00000120: a780 7f3e 71ed 9ebe b457 32be 7667 a1be
00000130: 7100 663e f380 adbe f585 1cbe 564a d23e
00000140: 7721 953e 9496 5b3e 892d 1e3e 4ee9 de3e
00000150: 219e e73d 7bee 05bd c054 563d fea7 ec3e
00000160: 35e0 df3e ebf7 e83e 71a2 663e 151e 653d
00000170: eb95 b5bd d001 863d a1ba b33e 64f9 a03e
00000180: c18c 8cbe 0ebd 67bd d5f7 583e e739 6abd
00000190: 7977 583c 34f7 02ba ba0c 923e 0b5a 513d
000001a0: cc77 783e 5770 85bd 5a6b b73c 1f00 16be
000001b0: 5efb cdbc d5d1 54be 5216 1a3e 85a0 adbe
000001c0: bde5 54be 7cb1 903e 7594 4e3e 8c8d 03be
000001d0: b749 28bd 232f 9fbe 2d84 c6be 58b6 b7be
000001e0: 23fd b83e 6b1b 8f3e df3b 913e 3d55 dfbd
000001f0: 3bee bb3e b52f 823e c786 fdbe ed20 8cbe
00000200: 5e6c 14be 1124 84bd 0733 28bd ecdd bebe
00000210: a806 18be 0942 843e 82a4 1bbe 3ae8 2f3e
00000220: 56a6 6cbe f6b9 a13e 3fa0 69be 72bd 98be
00000230: 1c55 a83e d215 05be 4bbb ee3b 8213 c63e
00000240: ac10 9d3e 99cc 983e 0683 713d 5876 a93d
00000250: b4be 23be 6048 42bd e573 69be d1fd 0bbe
00000260: 5099 0e3e 2482 923d 9867 bbbe 9dc4 9dbe
00000270: 66d9 f13d 17e1 b23e 6f2c d73e 8caa bfbe
00000280: 5bdb d5be d2ee f9bd 7d85 fa3e 2fc8 c13e
00000290: 5cf7 da3e 2011 88be 8df5 abbe ff25 cebd
000002a0: 801d 0bbe dc99 7dbe 348e 74be 6789 c03e
000002b0: e073 603e aacc bebd 168f b9be 869e 853e
000002c0: d8ac 51be 7332 81be 9e7e 77bd 3bba 9cbe
000002d0: 64f1 fcbd 93ff 98bd 3236 053e 037c 04be
000002e0: daa6 d03e 35d6 b03e e7ac 883d 376e 423d
000002f0: fdb5 b5bd cf78 10be df7e 9fbd efad 113e
00000300: a61d 03be 2d12 8bbc 1e50 aa3d 8f6e 62be
00000310: e3b0 d0bd 0193 a8be 0f78 0c3d 61de a13e
00000320: 57be eb3c aea7 8c3d eb2c dc3a 2c62 45bc
00000330: 2086 f33d a83a cc3e fb34 fd3d b47c d5be
00000340: 0ab4 bdbe 54c2 34be e415 7bbe f136 a1bd
00000350: afc4 bcbd b897 c2bd e0a6 9f3e 9b42 033d
00000360: b506 99be 030f e3bc 94d1 0ebe 13a7 b93e
00000370: b7da aa3e 06a1 5c3e 2867 f0be bb06 ac3b
00000380: 1dff 6bbe e44c da3c 309b 093e a283 893d
00000390: 2159 27be 8362 32be 178f 55be 9a18 3ebd
000003a0: db94 05bd 29c4 8cbe 951d c23e 3aa1 b83d
000003b0: 0b20 883e 83a5 f2be 7ba2 29be 6044 f2bd
000003c0: 7d18 afbe e900 96be 0b0c 90be c9e6 a6be
000003d0: 9cfb 90be d9b2 eabe cf98 fd3c 24c3 7a3e
000003e0: f7f4 dcbd 8120 9dbd 82f6 cbbe f9fe e3be
000003f0: a95d 533e 53b8 ce3d 24b8 d63d 890a 5dbe

bias f4 [64]
-0.18880093 -0.39527982 0.35483623 -0.08999866 -0.16088057 -0.14193437 0.06307746 -0.23105687
-0.2811099 -0.032903776 -0.37578166 0.18073691 -0.13605016 -0.30998242 0.117697306 -0.016486866
0.2944025 -0.112008914 -0.3774009 0.19875598 -0.32690814 -0.2915148 0.118963435 -0.33019188
0.01647522 0.06469182 -0.21091653 -0.32609972 0.20152597 0.40545243 -0.09265825 0.1934227
0.3232689 0.19011728 -0.28453073 0.067820586 -0.07520509 0.056061737 0.13565758 -0.051782954
-0.10722769 -0.24152818 0.39064926 -0.26306558 0.1913184 0.27696386 0.32008868 0.054885603
0.09169229 -0.130467 0.11046775 -0.29994226 0.24784698 -0.1929509 -0.21390091 0.033236884
-0.19599828 0.1635596 -0.3578303 -0.104866855 0.19347064 0.024253564 0.20729344 0.04040997
00000000: 0855 41be 1e62 cabe 18ad b53e 3851 b8bd
00000010: e0bd 24be 3e57 11be c12e 813d 2c9a 6cbe
00000020: a3ed 8fbe 1cc6 06bd 7466 c0be 1913 393e
00000030: bc50 0bbe 04b6 9ebe 490b f13d 770f 87bc
00000040: edbb 963e ee64 e5bd b13a c1be b086 4b3e
00000050: 8160 a7be 6e41 95be 1aa3 f33d e90e a9be
00000060: 0af7 863c 257d 843d 81fa 57be 8bf6 a6be
00000070: d35c 4e3e 7697 cf3e 9cc3 bdbd 9a10 463e
00000080: 8083 a53e 1bae 423e 03ae 91be 85e5 8a3d
00000090: 2005 9abd fea0 653d d2e9 0a3e 5d1a 54bd
000000a0: 319a dbbd 2a53 77be 2e03 c83e 88b0 86be
000000b0: f8e8 433e 35ce 8d3e aae2 a33e bacf 603d
000000c0: 2bc9 bb3d 2499 05be ea3c e23d 0892 99be
000000d0: 99cb 7d3e ec94 45be d708 5bbe 6623 083d
000000e0: c6b3 48be 2b7c 273e 8835 b7be 6fc4 d6bd
000000f0: 2b1d 463e 69af c63c bb44 543e ed84 253d

weight f4 [64, 64, 3]
-0.050192267 -0.12996787 -0.23422953 -0.023644913 -0.064317465 0.061743695 -0.085835226 0.03292627
0.12434814 -0.06357562 -0.05873271 0.074642405 0.026236055 -0.104791224 -0.1766075 -0.07801183
-0.12579101 -0.10903836 -0.059835587 -0.052406278 0.022885226 -0.015970077 -0.027369361 -0.05409468
-0.028367314 -0.06300202 -0.048361655 -0.057911616 -0.08261571 0.06905794 -0.0022341928 -0.05516655
-0.04057761 -0.02353777 -0.002440348 0.04023631 -0.046168298 -0.022590838 -0.059802692 -0.015509057
-0.029332789 0.07471606 -0.08966769 -0.07058586 0.035249446 -0.099290475 -0.038227856 0.074204564
0.01436086 0.021565864 0.030505426 -0.03718519 -0.03490862 0.053336035 0.032358114 -0.0053748344
0.0049826466 -0.043895245 -0.04660273 -0.03708028 -0.026097426 -0.025604237 0.08762529 0.018935999
-0.042522665 -0.12777646 -0.009945026 0.022954818 0.021483073 0.0056997463 -0.034849606 -0.018416656
-0.06836108 -0.04368954 0.059454743 -0.07531286 0.002246482 0.041480657 -0.04108094 -0.08708628
-0.0054287757 0.012572066 -0.10753947 -0.046228908 -0.030130232 -0.0078550195 -0.023252722 -0.018440086
0.02812302 0.02602905 -0.0437606 -0.025832467 0.07954379 0.010557025 -0.014889974 0.009214311
-0.047653418 0.014599107 0.0819576 -0.05471576 0.024877697 0.070575364 -0.032659736 -0.07956727
-0.05979358 -0.009222736 -0.0023111808 0.010637199 -0.04628624 -0.065193534 -0.05516892 0.004208404
-0.0051316535 -0.039639227 -0.044358615 -0.023837814 0.006632446 -0.030680442 -0.06513976 -0.0011276058
0.014467091 -0.0789859 -0.17777732 -0.03723957 -0.05014056 -0.09015737 -0.0386779 -0.009573479
0.055415336 -0.017569927 -0.01939205 -0.009365787 -0.07059753 -0.008280189 0.027709762 0.013254834
0.0012200074 0.050835587 0.010100583 0.0063848356 0.016970528 -0.051423006 -0.02518525 -0.023718571
-0.07884571 -0.015506994 0.04209687 -0.014890652 -0.017835425 -0.114911444 -0.04630702 -0.052166663
0.03367322 -0.015676761 -0.040600985 -0.047217768 -0.08896129 -0.010329428 0.009047007 -0.042089466
-0.06990046 0.010175472 -0.011477678 -0.061017387 -0.14502935 -0.060424116 -0.03519177 0.118049994
0.034764837 -0.038048163 -0.13419922 -0.08854316 -0.03175238 0.07860357 -0.009936054 -0.0869012
-0.22997716 -0.015862653 -0.071575046 -0.14961894 -0.06514268 -0.0857195 0.06539069 -0.041658375
-0.039117035 0.07892204 0.021266982 0.0021660298 -0.0009370763 -0.06534432 0.0012314888 0.093561456
0.016823642 0.011257127 0.046250444 -0.024302268 -0.016258813 0.04000066 -0.00020918297 0.0010788472
-0.035486687 0.030048473 0.016335607 -0.00302945 -0.010513687 0.0013882028 0.022327837 -0.0077399146
0.008324081 0.02332074 -0.01673616 0.011788397 0.00093037984 -0.0055344445 0.011406014 0.0103650065
-0.017757453 -0.011751131 0.01754255 0.016229 0.0054920623 -0.008169528 -0.0044879266 0.011596446
0.024842076 -0.0134243695 0.006549929 -0.01376136 0.023128258 0.0065780273 -0.012409931 0.017539393
0.002244366 0.027022768 0.019559037 0.030746814 -0.009079548 0.0299277 0.013253587 -0.009530005
-0.022004727 -0.01937824 -0.019427933 -0.0044259997 0.009556124 -0.0026853078 0.0077015106 0.0055038785
0.0403076 0.03060944 0.032940377 0.012929605 0.013822681 -0.01614655 0.007289111 -0.032710787
00000000: 6896 4dbd 4c16 05be ded9 6fbe fab2 c1bc
00000010: e0b8 83bd f5e6 7c3d 61ca afbd b2dd 063d
00000020: 3daa fe3d ef33 82bd b691 70bd 1ede 983d
00000030: ffec d63c c89c d6bd 99d8 34be abc4 9fbd
00000040: 5ccf 00be 814f dfbd 2916 75bd f7a7 56bd
00000050: cc79 bb3c aed3 82bc b635 e0bc 6292 5dbd
00000060: 9262 e8bc 3407 81bd df16 46bd bb34 6dbd
00000070: 6d32 a9bd 406e 8d3d 896b 12bb 52f6 61bd
00000080: b534 26bd 48d2 c0bc 3fee 1fbb d4ce 243d
00000090: f81a 3dbd 6c10 b9bc abf3 74bd b319 7ebc
000000a0: 514b f0bc bc04 993d b2a3 b7bd 528f 90bd
000000b0: b961 103d ce58 cbbd d094 1cbd 90f8 973d
000000c0: d049 6b3c e5aa b03c 84e6 f93c 7f4f 18bd
000000d0: 57fc 0ebd e376 5a3d f189 043d 611f b0bb
000000e0: 7845 a33b 80cb 33bd 81e2 3ebd 7ee1 17bd
000000f0: 45ca d5bc fabf d1bc e374 b33d ab1f 9b3c
00000100: 3f2c 2ebd d5d7 02be 76f0 22bc be0b bc3c
00000110: 45fd af3c f0c4 ba3b 76be 0ebd 87de 96bc
00000120: e500 8cbd cef3 32bd d186 733d a13d 9abd
00000130: b739 133b 9fe7 293d 7d44 28bd 4b5a b2bd
00000140: dfe3 b1bb 11fb 4d3c a73d dcbd 865a 3dbd
00000150: add3 f6bc 57b2 00bc 7e7c bebc aa0f 97bc
00000160: 3f62 e63c e03a d53c 513e 33bd 9c9e d3bc
00000170: dbe7 a23d 5ff7 2c3c 14f5 73bc 9ff7 163c
00000180: 3b30 43bd 1831 6f3c 63d9 a73d a21d 60bd
00000190: 50cc cb3c d189 903d 37c6 05bd 2af4 a2bd
000001a0: 1dea 74bd f51a 17bc 2e77 17bb a547 2e3c
000001b0: a496 3dbd 3084 85bd cef8 61bd a7e6 893b
000001c0: 6e27 a8bb be5c 22bd 61b1 35bd 8547 c3bc
000001d0: fd54 d93b 8d55 fbbc ff67 85bd 2ccc 93ba
000001e0: 6107 6d3c 5cc3 a1bd 420b 36be 8588 18bd
000001f0: 3060 4dbd 6da4 b8bd b86c 1ebd 15da 1cbc
00000200: 31fb 623d cfee 8fbc 14dc 9ebc f572 19bc
00000210: 7095 90bd a1a9 07bc 95ff e23c ce2a 593c
00000220: a8e8 9f3a fa38 503d ea7c 253c e237 d13b
00000230: c705 8b3c eea0 52bd 4c51 cebc 734d c2bc
00000240: dc79 a1bd 0c11 7ebc c46d 2c3d ecf7 73bc
00000250: 991b 92bc b156 ebbd 6eac 3dbd b6ac 55bd
00000260: eeec 093d 8d6c 80bc 384d 26bd 6b67 41bd
00000270: 5631 b6bd c33c 29bc e639 143c 0166 2cbd
00000280: f927 8fbd 06b7 263c df0c 3cbc 5eed 79bd
00000290: 9382 14be 477f 77bd 3f25 10bd 32c4 f13d
000002a0: 9365 0e3d 64d8 1bbd 856b 09be 1e56 b5bd
000002b0: c90e 02bd e9fa a03d d5ca 22bc 42f9 b1bd
000002c0: 227f 6bbe 65f2 81bc f095 92bd b535 19be
000002d0: 8769 85bd b58d afbd 8eeb 853d f9a1 2abd
000002e0: 2f39 20bd e1a1 a13d 1838 ae3c f3f3 0d3b
000002f0: 20a6 75ba 3ed3 85bd e869 a13a 269d bf3d
00000300: bcd1 893c d06f 383c 1b71 3d3d 8d15 c7bc
00000310: 3431 85bc bbd7 233d 2058 5bb9 1b68 8d3a
00000320: 7d5a 11bd 3728 f63c 40d2 853c bd89 46bb
00000330: 9941 2cbc 5bf4 b53a dee8 b63c 1c9f fdbb
00000340: ba61 083c 230b bf3c 451a 89bc 1f24 413c
00000350: bce4 733a 495a b5bb 4ae0 3a3c fdd1 293c
00000360: 1478 91bc d187 40bc 65b5 8f3c aef2 843c
00000370: c2f6 b33b 7cd9 05bc 750f 93bb 05ff 3d3c
00000380: 9c81 cb3c e3f1 5bbc c9a0 d63b 5477 61bc
00000390: 7977 bd3c 7e8c d73b 0653 4bbc c6ae 8f3c
000003a0: 3716 133b da5e dd3c 463a a03c bee0 fb3c
000003b0: 62c2 14bc f02a f53c 9325 593c bd23 1cbc
000003c0: 4243 b4bc 1dbf 9ebc 5427 9fbc fa07 91bb
000003d0: 4a91 1c3c fdfb 2fbb f45c fc3b e159 b43b
000003e0: 9519 253d a6c0 fa3c 7dec 063d b2d6 533c
000003f0: 8778 623c c545 84bc 7fd9 ee3b bffb 05bd

bias f4 [64]
-0.009007932 -0.048992217 -0.045154713 -0.03893435 -0.058249686 0.023541862 -0.04695131 -0.080039226
-0.0047174096 -0.034030437 -0.029432667 -0.026246566 -0.03761592 0.010459678 -0.049684968 -0.11735854
-0.045167662 0.0073814364 0.011341634 0.032324146 0.012418931 0.065417595 -0.0753276 -0.033937074
-0.044004265 -0.006607166 0.0062768525 -0.062140014 0.024322737 0.047593817 0.057116363 -0.0541022
-0.09430113 -0.060293272 -0.007788817 -0.10098273 -0.02807742 -0.045239348 9.300267e-06 -0.08500264
0.05052236 -0.04041672 0.021070035 -0.03216956 0.06937251 -0.056240894 -0.032828785 -0.07052399
0.0035817688 0.012911957 0.01347236 0.01207134 -0.04668161 -0.03908997 -0.043324795 -0.09011595
-0.08720987 -0.0017106225 -0.10507007 -0.09807668 -0.0788684 -0.016155632 0.03780559 -0.07211727
00000000: 0196 13bc 10ac 48bd 26f4 38bd a079 1fbd
00000010: 3997 6ebd ddda c03c 0450 40bd 9beb a3bd
00000020: 8094 9abb 8063 0bbd c71c f1bc 0a03 d7bc
00000030: 2713 1abd 125f 2b3c 7782 4bbd ad59 f0bd
00000040: ba01 39bd fadf f13b 43d2 393c 5366 043d
00000050: c678 4b3c a9f9 853d 5b45 9abd 9a01 0bbd
00000060: d13d 34bd ed80 d8bb 0eae cd3b 8786 7ebd
00000070: 7a40 c73c bcf1 423d d9f2 693d 459a 5dbd
00000080: f320 c1bd 14f6 76bd 5539 ffbb 09d0 cebd
00000090: 9e02 e6bc e54c 39bd 5808 1c37 dd15 aebd
000000a0: 89f0 4e3d 018c 25bd 119b ac3c 3bc4 03bd
000000b0: 2d13 8e3d da5c 66bd 7a77 06bd e26e 90bd
000000c0: 1cbc 6a3b ac8c 533c 2cbb 5c3c dfc6 453c
000000d0: 3735 3fbd ce1c 20bd 5775 31bd b68e b8bd
000000e0: 179b b2bd f736 e0ba fa2e d7bd 6ddc c8bd
000000f0: c185 a1bd d158 84bc 09da 1a3d 38b2 93bd

weight f4 [64, 64, 3]
-0.00041788287 -0.045838285 0.016553553 0.008178163 0.036866743 -0.02597686 -0.06948459 -0.18256956
-0.14525771 -0.14340709 -0.05014493 -0.032340884 0.08677906 -0.008110118 0.009336402 -0.018144734
-0.024385007 -0.038339164 -0.032746755 0.06290365 0.0061237384 0.068930686 0.05016716 -0.018790582
0.045786973 0.028712222 -0.10020004 -0.11413769 -0.042002074 0.09830533 -0.030384315 0.03963655
0.0038347573 0.09425499 0.07795817 0.08915705 0.1087192 0.09524549 0.03469524 -0.051824193
-0.023799216 0.008630376 -0.08460081 -0.05259426 -0.014590923 0.124831825 0.11306618 0.122129336
0.026265638 -0.019992694 0.004665703 0.05001356 -0.021794755 0.04369235 -0.11814281 -0.13264753
-0.07619784 -0.02939572 0.01626925 -0.011812482 0.028493581 -0.040416125 -0.013795998 0.01729554
-0.012307817 -0.020379916 -0.064008065 0.034646828 -0.046407115 0.042477373 -0.048454445 -0.07841586
-0.06253719 -0.041685414 0.04095782 0.023687208 0.022877242 -0.05803715 -0.038649756 0.037455235
0.051423345 -0.12503767 -0.05228328 0.07189012 -0.018633272 -0.008441811 -0.025223522 0.027669812
0.016441982 -0.0021095243 0.08355493 -0.01092579 0.011920383 0.07684265 -0.03121563 0.01962181
-0.016672866 0.02496169 0.012341768 -0.0358639 -0.032693457 -0.023949247 -0.030344002 -0.03836731
0.063367225 -0.019531231 0.04763143 0.055191495 -0.17403291 -0.019348657 0.06475126 -0.06794334
-0.035299126 0.020992737 -0.047898386 -0.07096353 0.025903419 -0.0020205094 0.084141366 0.028285222
0.02803975 -0.044307277 0.01025779 0.009979232 -0.012724877 -0.03092737 -0.06332621 -0.07171973
0.025155116 -0.0066726143 0.07361061 0.0060353517 0.036020063 -0.026907763 0.05449897 -0.063468955
-0.019643093 -0.00013384472 0.082610436 0.048862286 0.04861095 -0.015323674 0.06190609 0.0153158
-0.070170835 -0.017689396 0.060634676 -0.031165402 0.021208413 -0.015875988 0.05147678 0.014808693
0.027596714 -0.026247663 -0.020033782 0.014466654 0.07562842 0.07365889 0.041917868 -0.076870434
-0.12058686 0.05270574 0.023132613 0.0014927284 -0.08660247 -0.045069844 -0.026141481 0.03130157
-0.075266 0.021593073 0.019980246 -0.033697106 0.008812608 0.083737455 0.055257913 0.08428336
-0.05571009 0.013441625 0.047139235 -0.010580319 -0.048179124 -0.017758284 0.0194646 0.021137392
0.04655681 0.00889742 0.024454528 -0.06809174 -0.047454476 0.07543876 0.111993305 0.03609104
-0.15515092 0.008363359 -0.009033686 0.08057764 -0.09654238 -0.020392848 -0.05491188 0.12027481
0.043728203 -0.015169924 0.108154364 -0.04840224 0.046007223 -0.12869202 0.12492668 0.09534996
0.027925339 0.12613222 -0.022394933 0.053700395 0.0104496535 -0.0436098 0.09534621 -0.012998748
0.06537822 0.14212482 0.15443875 -0.01996758 0.077155635 -0.04148388 0.14549568 -0.09855217
-0.042232316 -0.025810132 0.12421034 0.07489947 -0.012427894 0.117304154 -0.0032436852 -0.096957974
0.03684036 -0.07461371 0.016815418 0.054333966 0.14045009 0.0054276492 0.10689019 0.051078208
-0.09345351 0.17122377 -0.020013126 -0.15230386 -0.059258908 0.13632399 0.030330816 0.09168546
0.0009656814 0.08853624 0.05774456 0.017726336 -0.06684209 -0.040634897 0.12026338 0.084542476
00000000: 4a17 dbb9 edc0 3bbd 519b 873c b4fd 053c
00000010: 9501 173d 6dcd d4bc f04d 8ebd 84f3 3abe
00000020: 70be 14be 4fd9 12be c564 4dbd e077 04bd
00000030: 38b9 b13d 4de0 04bc b5f7 183c 44a4 94bc
00000040: 11c3 c7bc 8709 1dbd 7621 06bd a1d3 803d
00000050: a4a9 c83b 882b 8d3d 147c 4d3d b5ee 99bc
00000060: 1f8b 3b3d e535 eb3c ae35 cdbd 05c1 e9bd
00000070: 5e0a 2cbd 4e54 c93d 87e8 f8bc ef59 223d
00000080: 8d50 7b3b c308 c13d 88a8 9f3d f997 b63d
00000090: 2ca8 de3d 1110 c33d 991c 0e3d 9b45 54bd
000000a0: 93f6 c2bc 6c66 0d3c 3143 adbd 146d 57bd
000000b0: c40e 6fbc d4a7 ff3d 3e8f e73d f21e fa3d
000000c0: 092b d73c b8c7 a3bc c1e2 983b 05db 4c3d
000000d0: ea8a b2bc c0f6 323d dcf4 f1bd c1d4 07be
000000e0: 9d0d 9cbd 4bcf f0bc 1747 853c 2489 41bc
000000f0: 5f6b e93c 618b 25bd 9c08 62bc 60af 8d3c
00000100: baa6 49bc c8f3 a6bc a916 83bd d5e9 0d3d
00000110: 6315 3ebd c1fc 2d3d 2b78 46bd 7f98 a0bd
00000120: 8013 80bd 53be 2abd 63c3 273d ad0b c23c
00000130: 0e69 bb3c 5db8 6dbd 354f 1ebd a96a 193d
00000140: 49a1 523d e009 00be fe26 56bd 213b 933d
00000150: cea4 98bc 864f 0abc 8fa1 cebc cdab e23c
00000160: 56b1 863c f23f 0abb d91e ab3d 1602 33bc
00000170: b64d 433c ae5f 9d3d ecb7 ffbc ebbd a03c
00000180: 8995 88bc 757c cc3c 2035 4a3c 06e6 12bd
00000190: 93e9 05bd 3631 c4bc fc93 f8bc 0a27 1dbd
000001a0: adc6 813d f6ff 9fbc 2d19 433d 7a10 623d
000001b0: af35 32be 1381 9ebc 4f9c 843d e125 8bbd
000001c0: d195 10bd f6f8 ab3c 1931 44bd 5455 91bd
000001d0: 6833 d43c 866a 04bb 4f52 ac3d 69b6 e73c
000001e0: 9eb3 e53c 8c7b 35bd 4a10 283c ef7f 233c
000001f0: 017c 50bc 655b fdbc 2cb1 81bd cbe1 92bd
00000200: 1a12 ce3c f2a5 dabb 29c1 963d 33c4 c53b
00000210: c689 133d ab6d dcbc 503a 5f3d 03fc 81bd
00000220: 8dea a0bc ab58 0cb9 a92f a93d d223 483d
00000230: 471c 473d 2610 7bbc 3d91 7d3d 1fef 7a3c
00000240: bab5 8fbd 5ae9 90bc 115c 783d 964e ffbc
00000250: 44bd ad3c 5c0e 82bc 51d9 523d 29a0 723c
00000260: 8112 e23c 5705 d7bc e31d a4bc 8b05 6d3c
00000270: 13e3 9a3d 79da 963d 12b2 2b3d 3f6e 9dbd
00000280: 3ef6 f6bd f9e1 573d 9b80 bd3c a7a7 c33a
00000290: a35c b1bd 289b 38bd a926 d6bc 1336 003d
000002a0: 1025 9abd f5e3 b03c 9dad a33c fa05 0abd
000002b0: c262 103c 8b7e ab3d 1f56 623d c19c ac3d
000002c0: 4330 64bd 433a 5c3c 1215 413d 1359 2dbc
000002d0: 7957 45bd d279 91bc 3a74 9f3c 5328 ad3c
000002e0: 5bb2 3e3d 7cc6 113c dd54 c83c af73 8bbd
000002f0: a05f 42bd a37f 9a3d bf5c e53d 33d4 133d
00000300: e2df 1ebe 7806 093c 0602 14bc e405 a53d
00000310: 03b8 c5bd e70e a7bc 48eb 60bd a452 f63d
00000320: 581c 333d 468b 78bc 0980 dd3d 6d41 46bd
00000330: 1272 3c3d d7c7 03be 8fd9 ff3d d746 c33d
00000340: aec3 e43c ce28 013e 9475 b7bc f2f4 5b3d
00000350: 0635 2b3c 31a0 32bd e044 c33d b3f8 54bc
00000360: 04e5 853d 2b89 113e 3125 1e3e 0d93 a3bc
00000370: c603 9e3d 00eb 29bd d2fc 143e b8d5 c9bd
00000380: cbfb 2cbd c56f d3bc fe61 fe3d e564 993d
00000390: 5e9e 4bbc 293d f03d 0294 54bb e791 c6bd
000003a0: ebe5 163d 13cf 98bd 7dc0 893c 4b8d 5e3d
000003b0: 26d2 0f3e 6cda b13b 3ee9 da3d 6237 513d
000003c0: 8e64 bfbd 4955 2f3e 91f2 a3bc 8bf5 1bbe
000003d0: 78b9 72bd 8498 0b3e 5578 f83c 96c5 bb3d
000003e0: c825 7d3a 7d52 b53d 8f85 6c3d d236 913c
000003f0: 81e4 88bd c770 26bd a64c f63d 9b24 ad3d

bias f4 [64]
-0.052046094 0.030268043 -0.03335656 -0.06936334 -0.10452105 -0.03905219 -0.123949796 -0.043432806
-0.044741314 -0.019911196 -0.11291009 -0.021457955 -0.012095887 -0.04256778 -0.05544249 -0.06468949
-0.045478184 0.052605126 -0.050338592 0.004846908 0.060182635 -0.04665477 0.04722403 -0.080293715
0.0029641404 -0.018225739 -0.067316264 -0.08503654 -0.033878937 -0.065566726 -0.06525119 -0.0455604
-0.053597916 -0.07934292 -0.12979075 -0.11547641 -0.08538401 -0.058168665 -0.056367736 -0.042205974
-0.048561174 -0.026424639 -0.024102474 -0.013562993 -0.03113813 -0.061480045 -0.04774254 0.033810895
0.040616177 0.01860547 -0.12051557 0.017517138 -0.0042438866 0.023764526 0.097525455 -0.0024963939
-0.00059729407 0.048706718 -0.1440399 0.022414563 -0.1000731 0.0118809445 -0.054590832 0.06521653
00000000: 492e 55bd b0f4 f73c e3a0 08bd 5e0e 8ebd
00000010: 220f d6bd 30f5 1fbd 64d9 fdbd 99e6 31bd
00000020: ab42 37bd ce1c a3bc 683d e7bd 98c8 afbc
00000030: d42d 46bc 8d5b 2ebd aa17 63bd ec7b 84bd
00000040: 5547 3abd 7978 573d d72f 4ebd d0d2 9e3b
00000050: 1182 763d 1219 3fbd fc6d 413d 0871 a4bd
00000060: 0642 423b 254e 95bc 1cdd 89bd a327 aebd
00000070: a4c4 0abd d947 86bd 6aa2 85bd 8b9d 3abd
00000080: 7d89 5bbd 8a7e a2bd dee7 04be e57e ecbd
00000090: d0dd aebd 4442 6ebd dbe1 66bd 2ce0 2cbd
000000a0: 15e8 46bd 7c78 d8bc 8d72 c5bc 5137 5ebc
000000b0: 6415 ffbc 80d2 7bbd ae8d 43bd 4b7d 0a3d
000000c0: 265d 263d 806a 983c ded0 f6bd 1a80 8f3c
000000d0: 4d10 8bbb d3ad c23c 6dbb c73d 8a9a 23bb
000000e0: ba93 1cba b280 473d 327f 13be bf9e b73c
000000f0: 20f3 ccbd 4ba8 423c a39a 5fbd 3e90 853d

weight f4 [64, 64, 3]
-0.042226497 -0.042238116 -0.0012497617 0.05938054 0.020430353 0.016576072 0.001444856 0.036322325
-0.042259473 -0.0069683557 -0.020046208 -0.03059871 -0.070502646 0.09774518 -0.026823694 0.009485331
-0.027161479 0.0062303045 0.02593027 -0.05081128 0.024608143 -0.051983714 -0.045995414 -0.060986347
-0.08169916 0.06583515 -0.19926682 0.13508576 -0.08758829 0.040919516 -0.005387939 -0.012454621
0.05789931 -0.111884736 0.063574195 0.0019631567 0.10502981 0.01849816 -0.033590283 -0.045440596
-0.074170604 0.0438961 0.0027661722 -0.0042008823 0.017857397 0.093938835 0.10913874 -0.14083341
0.065951854 0.029451862 0.053558163 0.014295379 -0.14926274 0.011652437 -0.05624856 -0.08953495
-0.07072088 -0.06557219 0.0404157 -0.06577145 -0.051955316 -0.05653262 0.0049435534 -0.013204648
-0.061404277 -0.020046446 -0.18717524 0.027598381 0.0038390963 0.025706694 0.0068483753 -0.0034284429
0.026044782 0.035460517 0.07110025 -0.091511644 -0.03713486 -0.008534631 0.0151026 -0.09623087
-0.034223225 0.036837187 0.05948416 0.049609132 -0.027556332 0.051913932 -0.09542853 -0.03528966
-0.03256789 -0.057359435 -0.006991452 0.03058158 0.123900324 -0.0017817686 -0.04949263 -0.0906882
0.006652982 -0.045330983 -0.047166247 0.04421363 -0.007992025 0.01603854 0.01592142 0.02334196
0.008954234 0.14065501 -0.004266936 0.10171001 0.024102954 0.004747602 -0.017307717 -0.02933656
-0.040752005 0.029169036 0.017426196 -0.016044414 0.04765547 -0.29999086 0.107875265 -0.15765
0.06233582 0.024932634 0.054387957 -0.024886234 0.023930233 -0.024794756 0.009623809 0.05296652
-0.07533001 0.006559732 -0.055845533 -0.03184067 -0.029636214 -0.10668506 0.036648996 0.014585089
-0.034556545 -0.03506076 -0.0011263138 0.013344588 -0.023019036 -0.016770007 0.035190504 -0.029863603
0.04931177 0.09468311 0.019414278 0.0046073087 -0.11264338 0.03972635 -0.10942131 0.2448061
-0.16583337 0.006955788 0.0073793167 0.012349986 -0.09320247 -0.039091792 0.011923749 -0.040795825
-0.09552643 -0.057189874 -0.048032183 -0.055348556 -0.02200772 0.15326966 0.044181705 0.065193765
0.03530298 0.033159796 -0.057968978 -0.09584936 -0.05955454 0.0141186295 0.024935689 0.039462566
0.091233216 0.008787779 -0.039370734 -0.008420627 0.016129835 -0.025020529 -0.007134243 -0.06403718
0.0063676178 -0.0009811686 0.17628397 0.015820887 0.0019863145 -0.09675968 0.042826038 -0.12818217
0.029247642 -0.004631387 0.04861606 -0.0072172247 -0.028784698 -0.0067502134 -0.025296092 -0.030739522
-0.11177698 0.04471582 0.0088061225 0.077299446 -0.029698053 0.114968024 -0.039179333 0.02035013
-0.0046528704 0.047248237 -0.016081765 -0.110451296 -0.007780191 0.045040287 -0.067125455 0.019271476
-0.017924432 -0.011153555 0.032604173 0.079684444 0.0048494213 0.004480205 -0.05705569 0.14647137
-0.008709343 -0.05635335 0.089269504 -0.06729845 -0.07280258 -0.02613251 -0.0391047 -0.0032941652
-0.07290575 0.024375135 -0.013570826 -0.04284905 -0.0012796709 -0.030149732 0.015432223 0.06253326
-0.027115418 0.0169301 -0.002495965 0.04872021 -0.020321004 0.061998926 -0.07375452 -0.045946
-0.123339966 -0.03807452 0.016920721 -0.04179142 0.010542634 0.03539002 0.034595307 0.010210975
00000000: b1f5 2cbd e001 2dbd 0bcf a3ba 0239 733d
00000010: 8e5d a73c 8bca 873c 5361 bd3a b8c6 143d
00000020: 4518 2dbd ce56 e4bb f237 a4bc 25aa fabc
00000030: b163 90bd a02e c83d 5dbd dbbc 5d68 1b3c
00000040: c081 debc 9527 cc3b b86b d43c 7d1f 50bd
00000050: 0497 c93c e0ec 54bd b065 3cbd d2cc 79bd
00000060: e451 a7bd 94d4 863d 9a0c 4cbe ec53 0a3e
00000070: 7d61 b3bd 399b 273d 4f8d b0bb 770e 4cbc
00000080: d427 6d3d d323 e5bd 3033 823d 4ea8 003b
00000090: de19 d73d 7489 973c f795 09bd eb1f 3abd
000000a0: c2e6 97bd 66cc 333d ab48 353b 8ea7 89bb
000000b0: ad49 923c 0163 c03d 2284 df3d a236 10be
000000c0: c411 873d 0845 f13c ce5f 5b3d 2a37 6a3c
000000d0: 55d8 18be dde9 3e3c e464 66bd 1a5e b7bd
000000e0: 1cd6 90bd b64a 86bd ef8a 253d 2fb3 86bd
000000f0: 19cf 54bd c08e 67bd 88fd a13b 4f58 58bc
00000100: 0d83 7bbd 7238 a4bc deaa 3fbe 0016 e23c
00000110: 5999 7b3b d896 d23c 5668 e03b baaf 60bb
00000120: de5b d53c 0c3f 113d 029d 913d 756a bbbd
00000130: b91a 18bd d6d4 0bbc e570 773c b114 c5bd
00000140: a72d 0cbd 97e2 163d aaa5 733d f232 4b3d
00000150: d1bd e1bc b4a3 543d 0870 c3bd e48b 10bd
00000160: e865 05bd baf1 6abd 8d18 e5bb 3986 fa3c
00000170: 74bf fd3d 3c8a e9ba c9b8 4abd bcba b9bd
00000180: 4201 da3b fbac 39bd 6531 41bd 5a19 353d
00000190: fcf0 02bc 4263 833c a36d 823c a337 bf3c
000001a0: c8b4 123c de07 103e a7d1 8bbb 564d d03d
000001b0: 8f73 c53c c691 9b3b eac8 8dbc 3a53 f0bc
000001c0: 93eb 26bd e7f3 ee3c 62c1 8e3c 936f 83bc
000001d0: 6232 433d 6798 99be b5ed dc3d 006f 21be
000001e0: d853 7f3d 863f cc3c e8c5 5e3d 37de cbbc
000001f0: 5609 c43c 5f1e cbbc 2ead 1d3c 6cf3 583d
00000200: 9f46 9abd 05f3 d63b 49be 64bd 5d6b 02bd
00000210: a5c7 f2bc b27d dabd 421d 163d 4cf6 6e3c
00000220: 2a8b 0dbd df9b 0fbd d2a0 93ba 42a3 5a3c
00000230: 6b92 bcbc 4161 89bc eb23 103d 84a4 f4bc
00000240: 23fb 493d 38e9 c13d b10a 9f3c e8f8 963b
00000250: 93b1 e6bd 19b8 223d 4818 e0bd 73ae 7a3e
00000260: 39d0 29be 61ed e33b 32ce f13b 9857 4a3c
00000270: f0e0 bebd b71e 20bd d45b 433c 8619 27bd
00000280: 5ca3 c3bd ee3f 6abd 65bd 44bd 2bb5 62bd
00000290: 8949 b4bc b9f2 1c3e e0f7 343d 4f84 853d
000002a0: dc99 103d 91d2 073d e170 6dbd ab4c c4bd
000002b0: 76ef 73bd d351 673c ee45 cc3c 80a3 213d
000002c0: 7bd8 ba3d 9efa 0f3c 3543 21bd abf6 09bc
000002d0: b722 843c daf7 ccbc 5ec6 e9bb ed25 83bd
000002e0: 73a7 d03b 8e9a 80ba c983 343e ce9a 813c
000002f0: d42c 023b f029 c6bd 5b6a 2f3d 3042 03be
00000300: c098 ef3c e4c2 97bb a221 473d 787e ecbb
00000310: e3cd ebbc e530 ddbb c039 cfbc 73d1 fbbc
00000320: 54eb e4bd f027 373d 8e47 103c 2c4f 9e3d
00000330: 5549 f3bc 5b74 eb3d 827a 20bd 51b5 a63c
00000340: 1b77 98bb 5e87 413d e8bd 83bc 4a34 e2bd
00000350: f9f0 febb 2a7c 383d 1279 89bd 37df 9d3c
00000360: 42d6 92bc 66bd 36bc f48b 053d 9931 a33d
00000370: e5e7 9e3b afce 923b 3ab3 69bd 97fc 153e
00000380: a2b1 0ebc c5d2 66bd eed2 b63d c5d3 89bd
00000390: 8519 95bd d813 d6bc 402c 20bd ece2 57bb
000003a0: 9c4f 95bd 5dae c73c 2b58 5ebc 7c82 2fbd
000003b0: a1ba a7ba 92fc f6bc 6fd7 7c3c 7011 803d
000003c0: 2721 debc feb0 8a3c 5893 23bb d88e 473d
000003d0: 3c78 a6bc 96f2 7d3d 9c0c 97bd df31 3cbd
000003e0: aa99 fcbd 07f4 1bbd 539d 8a3c 7b2d 2bbd
000003f0: 03bb 2c3c 20f5 103d cfb3 0d3d ef4b 273c

bias f4 [64]
-0.010171563 -0.03624341 0.016908158 -0.069856904 -0.09105587 -0.026954355 0.0094264215 0.041903928
-0.04975513 -0.049064178 -0.06790737 -0.12514126 -0.100994855 -0.091383874 0.027929366 -0.027194563
-0.091488 0.008727174 -0.060317386 -0.015346113 -0.052322257 -0.06267812 -0.06506614 -0.017478166
0.030062938 -0.03513918 -0.06335559 0.016257005 0.057231143 -0.055980332 -0.04692552 0.0012530287
-0.046656378 0.04692819 -0.026623622 0.0065254704 -0.054766927 -0.020671997 -0.060750134 -0.018254269
-0.07003212 -0.037919186 -0.025195872 -0.005175902 -0.01212381 -0.053094715 -0.013117711 -0.10158376
-0.02457001 0.011597117 0.03199591 -0.09674743 -0.013149721 -0.09601311 -0.00022425185 -0.027317995
0.006123449 -0.11591471 0.06758341 -0.12819104 -0.021100834 -0.050372027 -0.04188686 -0.002565936
00000000: a1a6 26bc f873 14bd fa82 8a3c 2311 8fbd
00000010: 807b babd 61cf dcbc 4771 1a3c 74a3 2b3d
00000020: 09cc 4bbd 85f7 48bd 0513 8bbd 0825 00be
00000030: 64d6 cebd 7827 bbbd 20cc e43c 22c7 debc
00000040: 0f5e bbbd 6cfc 0e3c 5d0f 77bd 436e 7bbc
00000050: dd4f 56bd 635d 80bd 6541 85bd 5f2e 8fbc
00000060: 8d46 f63c 1aee 0fbd 93c0 81bd 692d 853c
00000070: 346b 6a3d a24b 65bd f934 40bd ab3c a43a
00000080: c21a 3fbd c637 403d c819 dabc 9dd3 d53b
00000090: 4953 60bd 5258 a9bc 22d5 78bd fa89 95bc
000000a0: 006d 8fbd 2651 1bbd 9367 cebc 9d9a a9bb
000000b0: f2a2 46bc d879 59bd abeb 56bc 250b d0bd
000000c0: 0c47 c9bc d601 3e3c 250e 033d 8423 c6bd
000000d0: ed71 57bc 85a2 c4bd 2625 6bb9 fdc9 dfbc
000000e0: 37a7 c83b b164 edbd 2c69 8a3d 8344 03be
000000f0: a8db acbc e652 4ebd 8e91 2bbd 4329 28bb

weight f4 [64, 64, 3]
-0.010264594 -0.060816333 -0.03904774 -0.0028316393 0.010933929 0.02595365 -0.01177337 -0.025394747
-0.0440899 -0.0088533955 -0.027586251 -0.0013584415 -0.0081228195 0.02494124 0.07579984 0.13470061
0.02018434 -0.16230409 0.013733134 -0.0254241 -0.038008943 0.008293099 0.018712413 0.020298049
0.13436002 -0.12111146 -0.17333522 -0.013132586 -0.05010638 -0.004316539 -0.013366702 0.02076834
0.058959164 -0.00048572436 -0.048574872 -0.0722263 0.04873895 0.0130668385 -0.06287791 -0.111568436
0.09811916 0.18425663 -0.027621862 -0.008867957 0.023867685 0.014662823 0.023362236 0.014383977
-0.16309214 -0.07431255 0.0830366 -0.023642292 -0.04393899 0.07078083 0.08989959 0.04757679
-0.04265487 -0.0058828695 -0.07737064 -0.04448476 -0.053876527 -0.031667568 0.053720076 0.0963123
0.082532555 0.014748856 -0.010757656 -0.018919293 -0.002391549 -0.108482525 -0.054440245 0.009862039
-0.0796772 0.002845706 0.030744046 -0.06058635 0.06083296 0.16384086 -0.012252073 0.024411716
-0.0040979465 0.0045856 -0.013465156 -0.015616176 -0.004649157 -0.05873364 -0.020106405 -0.022386367
0.032026116 0.035151295 0.011478374 0.049754728 -0.049025152 -0.03806405 -0.02704539 -0.01122727
-0.022947257 -0.061031524 -0.0006422452 -0.022838442 0.0019696604 0.04683262 0.046707388 0.023093043
-0.012881804 0.03993481 0.00994141 -0.01225363 -0.019679673 0.004443436 0.057082485 -0.13808155
0.10032347 0.044782788 -0.091675006 -0.071658 -0.013005977 0.021605633 -0.010368218 -0.013010633
-0.0074288626 -0.022658914 0.031020012 0.10094626 0.12904355 0.036145896 0.0011774537 -0.024829458
-0.011436822 -0.013761485 -0.054855034 -0.014194903 0.020471357 -0.02368387 -0.009545393 0.091911376
-0.014485705 -0.040416237 -0.13643856 -0.10113899 0.07936774 -0.016389545 -0.036697663 -0.0008338117
-0.0071951994 -0.06354207 -0.021811664 -0.015261423 -0.030552335 -0.04782263 0.02341716 -0.0065178545
-0.052719913 0.052736938 0.08677055 0.03814972 -0.027722694 -0.0058858837 -0.012515108 0.04275299
0.0059440467 0.0058784205 -2.9689716e-05 -0.018255375 0.023493005 -0.0047363103 0.026376177 0.018526057
0.026548473 0.0069279 -0.04881469 0.033270445 0.054992296 0.085969165 -0.016362498 -0.05599615
-0.009307927 0.16447093 0.093694955 -0.010526845 0.036918156 -0.10579159 -0.010715945 -0.16121086
-0.03272225 0.12989342 -0.049507186 -0.06616272 -0.02634546 0.013340848 -0.024209458 -0.03206381
-0.034109764 0.010039555 0.010545302 0.101392984 -0.042057555 -0.014684039 0.086542256 0.10966319
0.039022498 -0.046280332 0.031062175 0.0053578834 -0.03273988 0.0149441855 -0.021945419 0.038924742
-0.017626427 -0.028407784 -0.0027166647 -0.011543507 -0.029130133 -0.034722436 -0.056725636 -0.0128270425
-0.013257243 0.005498806 -0.06446654 0.03556243 -0.04564682 0.037364885 0.084669694 -0.07928219
0.04592554 0.13316514 0.009576179 0.16920085 0.0034953272 0.002906837 -0.026829924 0.01692435
-0.048657916 0.06520413 0.019039659 0.07299617 0.03617082 0.021393972 -0.06625636 -0.0091290455
-0.040144246 -0.05075121 0.035781164 -0.13167301 -0.03762459 -0.13475816 0.015029873 0.048562497
-0.07672247 -0.05386057 0.039154593 -0.031516083 -0.010295792 -0.014704472 -0.078266636 0.03559244
00000000: d42c 28bc 8c1a 79bd 86f0 1fbd 0693 39bb
00000010: 3924 333c c09c d43c 18e5 40bc a508 d0bc
00000020: 9c97 34bd d50d 11bc 90fc e1bc bc0d b2ba
00000030: 9315 05bc 9251 cc3c f23c 9b3d f5ee 093e
00000040: a159 a53c 0b33 26be f000 613c 3446 d0bc
00000050: 44af 1bbd c7df 073c c64a 993c 1848 a63c
00000060: ac95 093e 4909 f8bd ca7e 31be 0f2a 57bc
00000070: 593c 4dbd c171 8dbb 0300 5bbc 5e22 aa3c
00000080: 2a7f 713d d2a8 feb9 72f6 46bd 62eb 93bd
00000090: 7ea2 473d 4b16 563c 22c6 80bd fe7d e4bd
000000a0: b3f2 c83d c5ad 3c3e 3e47 e2bc e84a 11bc
000000b0: 2a86 c33c 563c 703c 2962 bf3c c6aa 6b3c
000000c0: a001 27be 2e31 98bd 180f aa3d 7bad c1bc
000000d0: 5ff9 33bd 8af5 903d 471d b83d e1df 423d
000000e0: dfb6 2ebd 16c5 c0bb 8074 9ebd a735 36bd
000000f0: a2ad 5cbd dab5 01bd 9509 5c3d 623f c53d
00000100: d406 a93d 30a5 713c e140 30bc a2fc 9abc
00000110: 89bb 1cbb 162c debd bcfc 5ebd 6494 213c
00000120: cd2d a3bd 067f 3a3b f0da fb3c 6429 78bd
00000130: fb2b 793d e6c5 273e ebbc 48bc 14fb c73c
00000140: 1148 86bb cd42 963b f59c 5cbc fdda 7fbc
00000150: f557 98bb af92 70bd 30b6 a4bc 9d63 b7bc
00000160: d12d 033d cefa 0f3d ca0f 3c3c 9dcb 4b3d
00000170: 99ce 48bd 0de9 1bbd 4b8e ddbc 95f2 37bc
00000180: e3fb bbbc 31fc 79bd 595c 28ba af17 bbbc
00000190: 6b15 013b 90d3 3f3d 3f50 3f3d 9f2d bd3c
000001a0: 340e 53bc af92 233d 4ce1 223c 73c3 48bc
000001b0: 4437 a1bc 3e9a 913b 53cf 693d 4065 0dbe
000001c0: 6476 cd3d 286e 373d 1bc0 bbbd 6ec1 92bd
000001d0: 0517 55bc 4cfe b03c 75df 29bc 8d2a 55bc
000001e0: d16d f3bb 309f b9bc ae1d fe3c eabc ce3d
000001f0: fe23 043e b80d 143d ca54 9a3a 2667 cbbc
00000200: 8261 3bbc da77 61bc acaf 60bd bd91 68bc
00000210: 8cb3 a73c ad04 c2bc 4864 1cbc 083c bc3d
00000220: 7355 6dbc 7f8b 25bd 8db6 0bbe f521 cfbd
00000230: 8e8b a23d 5e43 86bc 4a50 16bd 2894 5aba
00000240: b5c5 ebbb 5822 82bd 60ae b2bc 0c0b 7abc
00000250: e448 fabc a9e1 43bd 58d5 bf3c ba93 d5bb
00000260: d6f0 57bd b002 583d c2b4 b13d e142 1c3d
00000270: b41a e3bc 5fde c0bb 2b0c 4dbc c21d 2f3d
00000280: 47c6 c23b c49f c03b 2e0e f9b7 4c8c 95bc
00000290: 6774 c03c 0d33 9bbb da12 d83c f5c3 973c
000002a0: 2f7c d93c 7003 e33b eaf1 47bd 9746 083d
000002b0: 9a3f 613d 9a10 b03d a50a 86bc 385c 65bd
000002c0: 4780 18bc 116b 283e 24e3 bf3d ca78 2cbc
000002d0: 7e37 173d 43a9 d8bd ee91 2fbc 7614 25be
000002e0: c407 06bd c802 053e 0cc8 4abd 5280 87bd
000002f0: 6fd2 d7bc 9293 5a3c ea52 c6bc 5755 03bd
00000300: aeb6 0bbd f27c 243c 34c6 2c3c 20a7 cf3d
00000310: 8b44 2cbd 5395 70bc 113d b13d 1897 e03d
00000320: 0ed6 1f3d 7290 3dbd 1a76 fe3c 2f91 af3b
00000330: 411a 06bd 75d8 743c e1c6 b3bc 8d6f 1f3d
00000340: 4c65 90bc 71b7 e8bc 120a 32bb fa20 3dbc
00000350: 51a2 eebc 1d39 0ebd 2459 68bd 8428 52bc
00000360: e834 59bc 542f b43b 0907 84bd e9a9 113d
00000370: 29f8 3abd ec0b 193d 4e67 ad3d b35e a2bd
00000380: 6b1c 3c3d 715c 083e 68e5 1c3c fd42 2d3e
00000390: dc11 653b a280 3e3b 6eca dbbc efa4 8a3c
000003a0: 864d 47bd be89 853d 0ff9 9b3c 047f 953d
000003b0: db27 143d 6942 af3c 6ab1 87bd fe91 15bc
000003c0: 4b6e 24bd 80e0 4fbd 458f 123d 4ad5 06be
000003d0: 3e1c 1abd 0bfe 09be db3f 763c 78e9 463d
000003e0: ac20 9dbd e79c 5cbd 9160 203d 0217 01bd
000003f0: aeaf 28bc 07eb 70bc 424a a0bd 61c9 113d

bias f4 [64]
-0.037488505 -0.09531196 -0.051677275 0.026145177 0.021817414 -0.010775582 -0.064003915 -0.05196391
-0.057311498 -0.049580973 -0.08032373 -0.024693815 -0.011600972 -0.0674877 -0.00018031016 0.010921228
-0.026822262 0.019448804 -0.05168062 0.03312388 -0.0055674776 -0.020205624 -0.005774707 -0.03712899
-0.07913979 0.025074104 -0.040716883 -0.05601775 -0.053611342 -0.061303873 -0.008849813 -0.032093994
-0.10644164 -0.06850038 -0.06297468 0.009042536 -0.026326433 -0.012038207 -0.03238913 -0.09853877
-0.016394217 -0.056484118 0.030697966 -0.005318648 -0.030666854 0.037298903 -0.05540444 -0.11963737
-0.028250657 -0.054069545 -0.08263542 -0.07520705 -0.06392388 -0.05679382 -0.06561556 -0.026794562
-0.033208616 -0.067090586 0.037516966 -0.08889011 -0.10655781 -0.090966076 -0.019210946 0.007602344
00000000: 8c8d 19bd eb32 c3bd 8dab 53bd 692e d63c
00000010: 6fba b23c 118c 30bc 7c14 83bd 1cd8 54bd
00000020: 76bf 6abd 6b15 4bbd c580 a4bd af4a cabc
00000030: 0112 3ebc fe36 8abd a411 3db9 f3ee 323c
00000040: 5cba dbbc 1953 9f3c 0faf 53bd e8ac 073d
00000050: 636f b6bb 4486 a5bc c139 bdbb 9114 18bd
00000060: 0b14 a2bd 3568 cd3c bfc6 26bd de72 65bd
00000070: 9197 5bbd c519 7bbd cefe 10bc fe74 03bd
00000080: 13fe d9bd ed49 8cbd def8 80bd 2527 143c
00000090: 88aa d7bc e63b 45bc 77aa 04bd b2ce c9bd
000000a0: 2a4d 86bc e45b 67bd 4d7a fb3c 0e48 aebb
000000b0: 0e39 fbbc bcc6 183d c4ef 62bd 7004 f5bd
000000c0: ec6d e7bc 0778 5dbd c23c a9bd 2706 9abd
000000d0: 86ea 82bd a3a0 68bd 7361 86bd 4580 dbbc
000000e0: c205 08bd ca66 89bd 64ab 193d 050c b6bd
000000f0: fb3a dabd 6c4c babd 4660 9dbc 151d f93b

weight f4 [64, 64, 3]
-0.05220289 -0.028169071 0.0023096835 -0.04289286 0.052398868 -0.001246356 0.11554979 0.0027900226
-0.023114018 0.052161675 0.04396081 0.038399845 0.0034145522 0.013068601 -0.02658546 0.11476806
-0.048801776 0.04703631 -0.0008986915 -0.025631694 -0.0062258765 -0.060517307 -0.058901723 -0.019362038
-0.006508972 -0.023443123 0.0007033063 -0.0006100478 -0.0025364626 -0.0052590887 -0.027561447 0.01564697
0.006081587 0.007170607 -0.048028328 -0.012331557 0.03229657 -0.047755037 -0.05504587 0.0040844246
0.011964677 0.0033555017 0.061267655 0.040235866 0.010038898 0.08249373 -0.07091743 0.089398
0.016857976 0.013722442 -0.014225543 0.004580373 -0.031129347 0.025306758 0.08872813 -0.032455444
-0.010097214 0.02751681 0.0126550365 0.005773542 0.043171056 -0.069705546 -0.04142525 0.021151807
0.008836294 0.026757352 0.01630483 -0.02895334 -0.0040080734 -0.14146143 -0.07189219 -0.039323013
-0.03149069 0.04118918 0.011730175 0.03322671 -0.025992176 0.05766783 -0.008111314 0.028592296
-0.0010464006 -0.06348857 -0.009583817 0.0119584175 0.046634674 0.018825581 0.024694635 -0.0067411973
-0.004356816 -0.006926207 -0.008451464 -0.046067286 -0.009966596 0.09404459 0.04469041 0.022710916
-0.036785606 8.359652e-05 -0.024756711 0.0044415495 -0.01146419 -0.0011195603 -0.05258963 0.0031956288
-0.019686293 0.012185169 0.015020282 0.009891813 -0.019228043 -0.025470316 0.05240338 0.025339292
0.01928099 -0.010646329 -0.020306695 -0.0146018695 -0.020420894 0.009518119 -0.0004428709 -0.02196605
0.029537976 -0.020494558 -0.026718829 0.008899955 -0.0033258644 0.03122646 0.0381727 -0.008455071
-0.0030511105 0.038062595 -0.080051415 -0.012685389 -0.015685815 -0.016870653 -0.012960339 0.06491782
-0.08786792 0.026994923 0.089865774 0.029712906 0.035950854 -0.038851775 -0.04308666 0.011802024
0.14903253 0.014958235 0.015309846 0.022211222 0.023391629 -0.03461899 0.04708241 0.05349938
0.033851314 -0.13822286 -0.10995301 -0.11129898 -0.005789022 0.00970292 0.061305106 0.2831198
-0.041500933 0.23430985 0.022255404 0.010197962 -0.016960885 -0.091953404 -0.044398732 -0.053293094
-0.012353391 0.054028407 0.029965151 0.060388837 -0.11000845 0.00052831345 0.07211017 -0.02717619
0.06558625 -0.02927332 0.007076178 -0.010432295 0.0029760126 0.0115999 0.010435195 -0.16822943
-0.16201344 -0.1217626 -0.0020611072 -0.04354685 -0.01816565 0.07846694 0.06314167 0.08304701
-0.012694548 -0.003767341 -0.008594752 -0.009997955 0.019247074 0.08659859 0.03151661 0.16073807
0.30016813 0.06713672 -0.047725324 0.08935624 0.025197158 0.08110283 0.030988993 0.028078789
-0.14836237 0.066000745 -0.014054268 -0.010366698 -0.027946858 -0.036000073 -0.12080334 0.18523999
-0.021357216 0.03691773 0.021650564 -0.03565776 0.020043036 -0.0034100907 0.008395607 -0.008551339
-0.012915045 0.028214576 -0.13441166 -0.09447471 0.027377313 0.01083154 0.009653662 -0.006968565
-0.012061724 0.08123119 0.057648692 -0.029162154 -0.017820401 0.04501289 -0.06972755 0.034870498
0.049939714 0.045292556 0.03950661 0.04972166 0.009612311 -0.05209275 0.005409025 -0.093547575
-0.038025785 -0.0049831546 -0.016591415 0.020244844 0.055889614 0.10870682 -0.012873188 -0.039386425
00000000: b3d2 55bd d3c2 e6bc 0f5e 173b 6cb0 2fbd
00000010: 32a0 563d c55c a3ba 5ea5 ec3d d0d8 363b
00000020: 9c59 bdbc 7ba7 553d 4010 343d 2849 1d3d
00000030: aec6 5f3b af1d 563c c0c9 d9bc 840b eb3d
00000040: 5fe4 47bd 25a9 403d 2a96 6bba 8ff9 d1bc
00000050: 7002 ccbb ffe0 77bd ef42 71bd 239d 9ebc
00000060: 3749 d5bb cb0b c0bc 165e 383a 9deb 1fba
00000070: c83a 26bb 6f54 acbb 8bc8 e1bc 132e 803c
00000080: 0d48 c73b 69f7 ea3b 5ab9 44bd 4d0a 4abc
00000090: 6849 043d c99a 43bd c777 61bd a3d6 853b
000000a0: 7e07 443c fae7 5b3b cbf3 7a3d 5dce 243d
000000b0: 317a 243c 79f2 a83d 283d 91bd 4c16 b73d
000000c0: bd19 8a3c 18d4 603c 4012 69bc f416 963b
000000d0: f902 ffbc 1e50 cf3c 18b7 b53d 00f0 04bd
000000e0: c96e 25bc ef6a e13c 1257 4f3c fb2f bd3b
000000f0: 22d4 303d c8c1 8ebd 86ad 29bd 8e46 ad3c
00000100: 1ac6 103c 3c32 db3c b591 853c 8e2f edbc
00000110: 2856 83bb 44db 10be 363c 93bd 2b11 21bd
00000120: 62fc 00bd fcb5 283d ec2f 403c bb18 083d
00000130: 8bed d4bc 1a35 6c3d 51e5 04bc 643a ea3c
00000140: 6127 89ba 4c06 82bd 7105 1dbc 3ded 433c
00000150: 0004 3f3d 1b38 9a3c 674c ca3c 43e5 dcbb
00000160: 9fc3 8ebb 3cf5 e2bb 0278 0abc 0db1 3cbd
00000170: ef4a 23bc 739a c03d 4b0d 373d 3e0c ba3c
00000180: 81ac 16bd 8a50 af38 96ce cabc 6b8a 913b
00000190: 4cd4 3bbc 36be 92ba 3968 57bd c16d 513b
000001a0: 2645 a1bc 4ea4 473c a117 763c 4511 223c
000001b0: 2184 9dbc 20a7 d0bc eda4 563d 5994 cf3c
000001c0: 2bf3 9d3c f16d 2ebc 3a5a a6bc ae3c 6fbc
000001d0: b849 a7bc e2f1 1b3c 2031 e8b9 25f2 b3bc
000001e0: a0f9 f13c 34e4 a7bc 72e1 dabc 1ed1 113c
000001f0: bff6 59bb a2ce ff3c fa5a 1c3d 2387 0abc
00000200: 24f5 47bb 86e7 1b3d fff1 a3bd 61d6 4fbc
00000210: 8a7f 80bc 5334 8abc 9a57 54bc a2f3 843d
00000220: 19f4 b3bd 7524 dd3c 8c0b b83d 7b68 f33c
00000230: 3441 133d 0a23 1fbd a37b 30bd 475d 413c
00000240: fc9b 183e 6313 753c 26d6 7a3c 4ff4 b53c
00000250: cd9f bf3c a4cc 0dbd 7cd9 403d 2a22 5b3d
00000260: ada7 0a3d 4b8a 0dbe 0b2f e1bd b8f0 e3bd
00000270: d6b1 bdbb fff8 1e3c 101b 7b3d 14f5 903e
00000280: e2fc 29bd ecee 6f3e f750 b63c 5a15 273c
00000290: 8ef1 8abc 1152 bcbd 72db 35bd dc49 5abd
000002a0: e165 4abc e44c 5d3d 7a79 f53c 495a 773d
000002b0: 1c4c e1bd 847e 0a3a 7fae 933d 9aa0 debc
000002c0: 1552 863d 9ace efbc 49df e73b 37ec 2abc
000002d0: 3509 433b 820d 3e3c 61f8 2a3c 5644 2cbe
000002e0: dae6 25be ac5e f9bd a413 07bb 2f5e 32bd
000002f0: 21d0 94bc 46b3 a03d 6b50 813d 8d14 aa3d
00000300: cbfc 4fbc 7ee5 76bb 01d1 0cbc 76ce 23bc
00000310: 0aac 9d3c 9a5a b13d 9017 013d 8598 243e
00000320: a3af 993e fa7e 893d a17b 43bd 6800 b73d
00000330: 456a ce3c 3e19 a63d a1dc fd3c 7d05 e63c
00000340: 4eec 17be 662b 873d df43 66bc 15d9 29bc
00000350: cff0 e4bc d074 13bd be67 f7bd 8daf 3d3e
00000360: 54f5 aebc 0c37 173d 865c b13c df0d 12bd
00000370: 4b31 a43c d47b 5fbb ba8d 093c ea1a 0cbc
00000380: a099 53bc 4122 e73c 36a3 09be f57b c1bd
00000390: 6346 e03c c676 313c 652a 1e3c 8f58 e4bb
000003a0: 8a9e 45bc 8a5c a63d 0921 6c3d 78e5 eebc
000003b0: 17fc 91bc 705f 383d 51cd 8ebd 5ed4 0e3d
000003c0: 968d 4c3d b084 393d afd1 213d f0a8 4b3d
000003d0: f47c 1d3c 355f 55bd 313e b13b df95 bfbd
000003e0: edc0 1bbd bb49 a3bb b8ea 87bc 84d8 a53c
000003f0: 82ec 643d aea1 de3d 10ea 52bc a953 21bd

bias f4 [64]
0.004746658 -0.06859025 -0.041982163 -0.08227159 0.013441805 -0.015302326 -0.034857716 0.016530711
0.005741965 -0.011233065 -0.0243546 -0.04231812 -0.020260785 -0.043792006 0.031988233 -0.033168513
0.0035879125 0.0036861717 -0.023647541 0.022057297 0.010720301 0.034767486 -0.028481979 -0.003206916
-0.029168643 -0.008051763 -0.02667413 -0.008246997 0.037584003 -0.098009646 -0.03636527 0.033159368
0.03500191 0.030224418 -0.038240332 -0.05964214 -0.11410299 -0.029866472 -0.06978895 -0.015476424
-0.020569995 -0.034685373 0.015735786 0.0039349985 0.015277577 0.032936756 -0.06772949 -0.00917168
-0.03156859 -0.01951084 -0.037106894 -0.054911878 -0.024990084 0.011827246 0.027615402 -0.029365849
-0.02361696 -0.04532228 0.0023022909 -0.0024381084 -0.019995214 -0.059561618 0.028883228 0.00811848
00000000: da89 9b3b 0c79 8cbd 7df5 2bbd 027e a8bd
00000010: 043b 5c3c 9bb6 7abc f7c6 0ebd 6a6b 873c
00000020: 1827 bc3b e40a 38bc 4c83 c7bc c455 2dbd
00000030: f2f9 a5bc 3f5f 33bd 1806 033d b5db 07bd
00000040: 2f23 6b3b b393 713b 7db8 c1bc 81b1 b43c
00000050: 34a4 2f3c 5a68 0e3d 0a53 e9bc 1f2b 52bb
00000060: 14f3 eebc 8beb 03bc b483 dabc 6a1e 07bc
00000070: aff1 193d 48b9 c8bd c0f3 14bd 1ed2 073d
00000080: 2a5e 0f3d 3399 f73c e5a1 1cbd 514b 74bd
00000090: d4ae e9bd 88aa f4bc 82ed 8ebd d490 7dbc
000000a0: 6882 a8bc 4012 0ebd 56e8 803c 29f1 803b
000000b0: cd4e 7a3c b1e8 063d c2b5 8abd d044 16bc
000000c0: 114e 01bd 32d5 9fbc 66fd 17bd 47eb 60bd
000000d0: 01b8 ccbc 11c7 413c b239 e23c a690 f0bc
000000e0: 5b78 c1bc dba3 39bd 08e2 163b acc8 1fbb
000000f0: 01cd a3bc e2f6 73bd 859c ec3c 6003 053c
