models/OSheaCNN2018_100_last_augmented.pt (torch, 650970 bytes, 20 tensors)

weight f4 [64, 2, 3]
0.26075256 0.49421465 0.044273384 0.4716904 0.3226185 0.45838848 -0.024945002 0.413774
0.30256745 -0.12851289 0.067993075 0.31945947 0.3772401 0.43943754 0.43624386 0.20122382
0.0999173 0.40429547 -0.3570592 -0.47921547 -0.35096812 -0.24851239 -0.17476095 0.34904408
0.25354335 0.24624129 0.19774911 0.34357223 0.36633775 -0.009819541 -0.1599764 -0.3217277
-0.2688685 -0.308842 0.017605683 -0.29404008 -0.009300941 -0.039065946 -0.061564658 -0.35293904
-0.22070752 -0.29095617 0.33985618 0.33155543 0.0013542931 0.2079581 0.15026942 -0.2702894
-0.10526236 -0.10818935 -0.09124711 0.30564383 0.28928903 0.3111321 0.64738435 0.3890761
0.69223696 -0.56627995 -0.43484372 -0.368095 0.060526304 -0.19699061 -0.35158163 0.30505612
0.5891391 0.37542966 0.39820653 -0.051561896 0.3470815 -0.34983444 -0.05578886 -0.2073044
-0.3646228 -0.43819904 -0.4878081 0.44373304 0.013643965 0.35390484 -0.34445247 -0.095720194
-0.1094688 -0.34007177 -0.2839452 -0.026632454 0.108910844 0.31395242 -0.24645084 0.12884699
-0.1204081 0.13640854 -0.07126898 -0.2685683 0.14029132 -0.3202245 -0.34557295 -0.4209771
-0.56125396 -0.27033344 -0.48071122 0.48660722 0.5834452 0.34449667 0.35625702 -0.044394694
-0.30454284 0.13793354 -0.11130027 0.2885514 -0.294719 0.18602763 0.47207958 -0.37742257
-0.4656387 -0.24711692 -0.36951783 0.11381133 0.20965731 0.34067097 0.1817151 0.29103234
0.30886716 0.30094162 0.21656601 -0.00022340927 0.041865762 0.07425475 0.38059145 0.25632337
-0.10967155 -0.40916494 -0.32074085 0.08598143 0.48624274 0.49072587 0.5550567 0.29615265
-0.028103225 0.011015099 -0.30578554 -0.1763887 -0.3437809 0.12061024 0.17663985 0.33049253
-0.714751 -0.45489514 -0.2035295 0.12517767 -0.050468706 -0.33543584 -0.44494462 -0.31904885
-0.15147537 0.13894607 0.092153 -0.022500826 0.0073136427 0.2996116 0.33719617 0.111607246
-0.2155685 -0.17775954 -0.5616018 -0.45386547 0.103912376 0.21976921 -0.007523213 0.28040707
0.10396544 0.061171845 0.08015146 -0.162343 -0.30323428 -0.1777299 -0.38713375 0.10198291
0.33459502 -0.05086298 0.3799011 -0.1981873 0.23106591 0.22037175 0.25896034 0.27074093
0.1884371 0.06868337 -0.017072715 0.031441372 -0.018253446 -0.14693688 -0.30888787 -0.37402
0.122161396 -0.093511485 0.04118972 0.45727605 0.32005817 0.16679482 -0.22739618 -0.4468367
-0.39584246 -0.5870062 -0.33424363 -0.56916547 0.10007461 0.17504862 0.14966242 0.2397204
0.1850469 0.21021204 -0.4499275 0.034873184 0.265255 -0.50793207 0.21249466 0.4027037
-0.28256047 -0.33704448 -0.27059034 -0.092022724 -0.13180244 -0.011301118 0.19274834 0.27024245
0.26381364 -0.09702085 0.023404546 0.056705028 0.098767415 -0.046408035 -0.21588676 -0.48497579
-0.024315415 0.28665394 0.46432656 0.22624941 -0.25681332 -0.15426834 -0.18512836 -0.26465976
-0.03601242 -0.40627414 -0.34639367 0.014373487 -0.16957334 -0.11196276 0.361167 0.08383043
0.12328176 0.12862165 0.15136045 0.41766652 -0.21280624 0.03139571 -0.2189102 -0.17543681
00000000: 5c81 853e b409 fd3e 0258 353d 6781 f13e
00000010: 412e a53e e5b1 ea3e 7659 ccbc 30da d33e
00000020: 1fea 9a3e e298 03be f43f 8b3d 3190 a33e
00000030: 9d25 c13e f5fd e03e 5b5b df3e 9e0d 4e3e
00000040: 71a1 cc3d d1ff ce3e 77d0 b6be bb5b f5be
00000050: 18b2 b3be 087a 7ebe 89f4 32be e8b5 b23e
00000060: 6fd0 813e ad26 7c3e be7e 4a3e b3e8 af3e
00000070: 9f90 bb3e 24e2 20bc dad0 23be 7eb9 a4be
00000080: 22a9 89be 8a20 9ebe cb39 903c 6c8c 96be
00000090: f962 18bc 9d03 20bd 392b 7cbd 6db4 b4be
000000a0: 2701 62be 35f8 94be a101 ae3e a2c1 a93e
000000b0: 8982 b13a f8f2 543e 3ae0 193e 5f63 8abe
000000c0: cb93 d7bd 6192 ddbd c4df babd 597d 9c3e
000000d0: b11d 943e b54c 9f3e fbba 253f fc34 c73e
000000e0: 7136 313f b9f7 10bf d6a3 debe f376 bcbe
000000f0: 6eea 773d e8b7 49be 8202 b4be 5130 9c3e
00000100: d2d1 163f 5138 c03e bae1 cb3e 9132 53bd
00000110: abb4 b13e 801d b3be dc82 64bd 9b47 54be
00000120: d7af babe a05b e0be fcc1 f9be fa30 e33e
00000130: f08a 5f3c 0433 b53e 135c b0be f308 c4bd
00000140: 2e31 e0bd e31d aebe 4461 91be 4e2c dabc
00000150: a60c df3d 5fbe a03e 9c5d 7cbe 77f0 033e
00000160: 8698 f6bd aeae 0b3e 79f5 91bd c981 89be
00000170: 87a8 0f3e 77f4 a3be f0ee b0be 4f8a d7be
00000180: 57ae 0fbf 2569 8abe c81f f6be 9524 f93e
00000190: aa5c 153f de61 b03e 5267 b63e 36d7 35bd
000001a0: 0aed 9bbe 733e 0d3e 65f1 e3bd 02bd 933e
000001b0: 69e5 96be 077e 3e3e 6ab4 f13e 883d c1be
000001c0: 3268 eebe 380c 7dbe 7131 bdbe ea15 e93d
000001d0: 68b0 563e 6d6c ae3e 8613 3a3e 3102 953e
000001e0: d623 9e3e 0515 9a3e 7bc3 5d3e f842 6ab9
000001f0: 6f7b 2b3d e012 983d e2dc c23e d13c 833e
00000200: 7a9b e0bd 117e d1be 2538 a4be 0817 b03d
00000210: cff4 f83e 6c40 fb3e 3218 0e3f 52a1 973e
00000220: bc38 e6bc ac78 343c ec8f 9cbe 3d9f 34be
00000230: 0d04 b0be 8002 f73d 14e1 343e 5136 a93e
00000240: ecf9 36bf 04e8 e8be 0a6a 50be 932e 003e
00000250: 46b8 4ebd 3fbe abbe c8cf e3be 5f5a a3be
00000260: 5c1c 1bbe e147 0e3e b6ba bc3d a753 b8bc
00000270: 48a7 ef3b b166 993e faa4 ac3e 5792 e43d
00000280: fdbd 5cbe 9906 36be 23c5 0fbf 0e61 e8be
00000290: 03d0 d43d 2e0b 613e 4985 f6bb 8491 8f3e
000002a0: d5eb d43d 548f 7a3d 7326 a43d 3e3d 26be
000002b0: 8641 9bbe d4fe 35be 6536 c6be 6adc d03d
000002c0: 0a50 ab3e b355 50bd 6682 c23e 9df1 4abe
000002d0: 8b9c 6c3e 22a9 613e 7396 843e 8e9e 8a3e
000002e0: a8f5 403e dea9 8c3d 14dc 8bbc abc8 003d
000002f0: 4088 95bc 9f76 16be 8d26 9ebe 8d7f bfbe
00000300: c12f fa3d f382 bfbd 8db6 283d 1620 ea3e
00000310: aade a33e 43cc 2a3e 8bda 68be c8c7 e4be
00000320: ddab cabe 0a46 16bf fb21 abbe d4b4 11bf
00000330: ebf3 cc3d f23f 333e 1b41 193e 4479 753e
00000340: ef7c 3d3e d341 573e e65c e6be 2fd7 0e3d
00000350: 81cf 873e d607 02bf 3398 593e 2e2f ce3e
00000360: c4ab 90be 1891 acbe d18a 8abe 6976 bcbd
00000370: 38f7 06be 5328 39bc d25f 453e 385d 8a3e
00000380: 9512 873e deb2 c6bd e4ba bf3c 8843 683d
00000390: 9246 ca3d 5a16 3ebd 6b11 5dbe bf4e f8be
000003a0: 1f31 c7bc 4ec4 923e 36bc ed3e edad 673e
000003b0: 097d 83be 85f8 1dbe 4a92 3dbe 7c81 87be
000003c0: c281 13bd 2a03 d0be 835a b1be c67e 6b3c
000003d0: a2a4 2dbe bb4c e5bd e2ea b83e 4aaf ab3d
000003e0: 267b fc3d 65b5 033e 3cfe 1a3e 63d8 d53e
000003f0: e1e9 59be ca98 003d ff29 60be b5a5 33be

bias f4 [64]
-0.28078791 -0.18901274 -0.32398874 -0.18126723 -0.30013764 0.41712117 0.38310927 -0.122536786
0.4460409 -0.30803004 -0.17630583 0.41833663 -0.20863077 0.40392548 -0.27373868 0.045509614
-0.4316292 -0.2726706 -0.16427179 -0.01966265 0.33152324 -0.13325493 -0.19157349 0.4940433
-0.28823012 0.42282793 -0.049416058 -0.28392276 0.13701454 -0.13820346 0.38468578 0.34624457
0.4143735 -0.5034346 0.22656493 -0.10201839 0.41874513 0.110897765 -0.021420605 0.21953456
-0.10849628 -0.059247512 -0.21624815 0.23147912 -0.19327047 -0.15899931 -0.0549604 -0.17102608
0.18851887 -0.16056909 -0.20577984 -0.29097447 0.21833277 0.38427785 0.38178006 -0.03490979
0.14418425 0.16173872 -0.34570375 -0.33769968 -0.3674183 -0.30250293 -0.3426914 0.006161745
00000000: 6fc3 8fbe 8e8c 41be dae1 a5be 1e9e 39be
00000010: a4ab 99be e890 d53e e626 c43e 91f4 fabd
00000020: 795f e43e 1db6 9dbe 8489 34be 3830 d63e
00000030: 4ea3 55be 52cf ce3e 7a27 8cbe 4a68 3a3d
00000040: 81fe dcbe 7b9b 8bbe dd36 28be 9113 a1bc
00000050: 6abd a93e fb73 08be d72b 44be 3ef3 fc3e
00000060: e692 93be e77c d83e 7e68 4abd 535e 91be
00000070: 8a4d 0c3e 3585 0dbe 89f5 c43e f846 b13e
00000080: c328 d43e 17e1 00bf a300 683e 05ef d0bd
00000090: c365 d63e 5e1e e33d 447a afbc abcd 603e
000000a0: 4c33 debd 85ad 72bd 2870 5dbe dd08 6d3e
000000b0: b2e8 45be b7d0 22be 281e 61bd 7621 2fbe
000000c0: 170b 413e 396c 24be f3b7 52be 9bfa 94be
000000d0: a092 5f3e 11c0 c43e ad78 c33e 91fd 0ebd
000000e0: 09a5 133e d69e 253e 1500 b1be f9e6 acbe
000000f0: 401e bcbe aae1 9abe 3f75 afbe 77e8 c93b

weight f4 [64, 64, 3]
0.10828887 0.14952835 0.0134384995 0.10990022 0.07144821 -0.061726715 0.12467998 0.08653685
-0.035337944 0.019976756 0.04352443 0.088973485 0.074157044 0.10881027 0.030446362 -0.055955075
-0.020256061 0.123998135 -0.00426268 -0.048614044 0.019074365 0.08279536 0.05724256 0.042130504
-0.036269844 0.06109076 0.049706083 0.12544943 -0.023815585 -0.050447416 0.025607068 0.15476662
0.11945682 0.104211174 -0.03890598 -0.086782515 -0.033922188 0.09017995 0.13503906 -0.053259093
-0.052043654 0.0090942625 0.09370873 0.07977413 0.05743275 0.02085006 -0.032627508 0.037656475
-0.02476411 0.11549151 0.13665919 0.111610085 0.100834996 0.09027838 0.03948528 -0.05015981
-0.07160231 -0.004865969 0.08356995 0.021258276 0.094399236 0.011654823 -0.08497527 0.14527616
0.013660405 0.010841302 0.124114536 0.05461681 -0.043441653 -0.05873278 0.026147189 0.06704644
-0.10659906 0.0057465085 0.113298364 -0.12053523 -0.00370859 0.067221835 0.05745872 0.005642859
-0.037009437 -0.036588 0.077052645 0.06490414 0.0414523 -0.026439289 -0.010605338 -0.025517706
0.04064735 0.015300158 0.04864728 0.04258515 -0.043803573 -0.009633185 -0.0484993 0.017635928
-0.010582931 0.09452895 0.04877676 0.021194316 -0.02739873 0.09919802 0.049755912 0.06748323
-0.01704249 0.04243119 0.012804303 -0.08277829 -0.08502588 -0.023973392 0.07895906 0.09576901
0.0059110853 -0.08641347 0.08884786 0.02596314 0.021227079 0.10774741 0.0052141156 0.048144873
-0.017829746 0.017534751 0.13350493 0.11524258 0.10014944 -0.012251857 0.025811547 -0.008803941
0.07195384 -0.09010633 0.020102588 0.13029727 0.024139287 0.14267617 0.107529275 -0.036519535
0.06312597 0.21186578 -0.06611843 0.0018025374 0.024421832 -0.056375854 -0.020525243 0.11359945
-0.006633421 -0.0065291724 0.10270695 0.05700078 0.056792803 0.1060527 0.023646383 0.12710233
0.007511142 0.034195084 0.08459163 0.041806437 -0.00551966 0.083504565 0.09434794 0.078401856
0.061476033 -0.03862854 0.06966163 -0.0007336254 -0.10960537 -0.105067864 -0.0016530829 0.04698144
0.05882128 -0.0344973 -0.046422094 0.004846676 0.0025203153 0.009345453 0.0176922 0.01593174
0.0986918 0.052867565 0.07154119 0.052682776 0.046653204 -0.06850944 0.015970996 -0.05036691
0.079104386 0.1852374 0.15602319 0.0562203 -0.02718204 0.07298789 -0.0023218694 -0.020207835
-0.0071297986 -0.104995206 -0.0018419629 -0.058217455 -0.017160485 -0.011802307 0.0052485224 -0.056843482
-0.084608555 -0.010116237 -0.07408561 -0.017535528 -0.04019247 -0.08692279 -0.035719633 -0.04170527
-0.037204653 0.09163796 -0.0051428536 -0.038122017 0.04442242 -0.060592275 -0.06794755 -0.033484474
-0.059751187 0.086326316 0.23675726 0.15312535 0.047059413 -0.26032773 -0.030595906 -0.057274077
0.11007654 -0.019996062 -0.03036075 -0.0036529454 -0.02704017 -0.10616596 0.04307942 -0.019096712
-0.04366715 0.03947281 -0.030729454 -0.024649983 -0.028369404 0.0327278 -0.035572387 -0.08588405
-0.00065249315 -0.07554919 0.016053056 -0.045188595 -0.017158473 0.008019695 0.02766045 -0.014656488
-0.14444521 -0.07152013 -0.04552127 0.09455656 -0.051970188 -0.026591707 0.092283405 0.021729456
00000000: 8ec6 dd3d f61d 193e 272d 5c3c 5e13 e13d
00000010: 7053 923d 27d5 7cbd 3858 ff3d 3b3a b13d
00000020: 85be 10bd 4ba6 a33c ac46 323d bb37 b63d
00000030: a6df 973d ebd7 de3d a66a f93c 2631 65bd
00000040: 0af0 a5bc bcf2 fd3d f4ad 8bbb 851f 47bd
00000050: d841 9c3c 9d90 a93d 2d77 6a3d 0991 2c3d
00000060: b08f 14bd 4e3a 7a3d 9b98 4b3d d175 003e
00000070: e718 c3bc f3a1 4ebd eac5 d13c 247b 1e3e
00000080: c7a5 f43d ab6c d53d e05b 1fbd 08bb b1bd
00000090: fef1 0abd 44b0 b83d ae47 0a3e 3526 5abd
000000a0: ba2b 55bd 1a00 153c 5dea bf3d 9e60 a33d
000000b0: 9a3e 6b3d bfcd aa3c 6ca4 05bd ad3d 1a3d
000000c0: 1ade cabc d086 ec3d 63f0 0b3e d493 e43d
000000d0: 9482 ce3d dfe3 b83d 51bb 213d 5f74 4dbd
000000e0: 3ba4 92bd b572 9fbb b926 ab3d d625 ae3c
000000f0: 6354 c13d dff3 3e3c 8407 aebd 46c3 143e
00000100: e4cf 5f3c b79f 313c c32f fe3d e0b5 5f3d
00000110: e0ef 31bd c991 70bd a132 d63c a54f 893d
00000120: 9c50 dabd 354d bc3b f908 e83d 2ddb f6bd
00000130: d10b 73bb 9aab 893d d659 6b3d bbe7 b83b
00000140: 3597 17bd 4cdd 15bd c7cd 9d3d 76ec 843d
00000150: e3c9 293d 3597 d8bc 03c2 2dbc 820a d1bc
00000160: d67d 263d 84ad 7a3c 5f42 473d c46d 2e3d
00000170: 606b 33bd 82d4 1dbc 34a7 46bd 3979 903c
00000180: 0864 2dbc 6598 c13d 24ca 473d b49f ad3c
00000190: 4d73 e0bc 5528 cb3d dbcc 4b3d a634 8a3d
000001a0: b19c 8bbc 54cc 2d3d 24c9 513c aa87 a9bd
000001b0: 0c22 aebd d963 c4bc 4ab5 a13d 8b22 c43d
000001c0: c7b1 c13b 8cf9 b0bd def5 b53d a7b0 d43c
000001d0: 69e4 ad3c adaa dc3d 2cdb aa3b 8f33 453d
000001e0: b00f 92bc 0aa5 8f3c 84b5 083e 4d04 ec3d
000001f0: 261b cd3d 03bc 48bc bd72 d33c 683e 10bc
00000200: 895c 933d ab89 b8bd 2fae a43c a66c 053e
00000210: c1bf c53c b419 123e 4f38 dc3d 8295 15bd
00000220: 3048 813d 58f3 583e 1969 87bd 1e43 ec3a
00000230: 4b10 c83c 5eea 66bd 8e24 a8bc d4a6 e83d
00000240: 2b5d d9bb abf2 d5bb 0558 d23d a679 693d
00000250: 929f 683d 2832 d93d 0fb6 c13c 1d27 023e
00000260: 0720 f63b 2510 0c3d 603e ad3d 3a3d 2b3d
00000270: 44de b4bb 7104 ab3d 7e39 c13d 2791 a03d
00000280: 4bce 7b3d f638 1ebd c2aa 8e3d c450 40ba
00000290: c878 e0bd d22d d7bd 42ac d8ba 9c6f 403d
000002a0: 95ee 703d 0a4d 0dbd 1825 3ebd ddd0 9e3b
000002b0: e02b 253b ac1d 193c 3cef 903c 4883 823c
000002c0: ed1e ca3d a98b 583d 3084 923d e5c9 573d
000002d0: 6e17 3f3d ad4e 8cbd 9bd5 823c 884d 4ebd
000002e0: 7b01 a23d dfae 3d3e 8bc4 1f3e 4247 663d
000002f0: dfac debc ad7a 953d 812a 18bb e78a a5bc
00000300: 16a1 e9bb ba07 d7bd 056e f1ba 6d75 6ebd
00000310: 2594 8cbc 775e 41bc ccfb ab3b b6d4 68bd
00000320: 4047 adbd 93be 25bc 32ba 97bd aba6 8fbc
00000330: dca0 24bd 9304 b2bd c04e 12bd 25d3 2abd
00000340: e863 18bd afac bb3d 6285 a8bb d525 1cbd
00000350: 49f4 353d 9b2f 78bd 1628 8bbd 0427 09bd
00000360: a9bd 74bd dacb b03d 7f70 723e e4cc 1c3e
00000370: 5fc1 403d ad49 85be 44a4 fabc 3998 6abd
00000380: cf6f e13d c8ce a3bc 1cb7 f8bc 4166 6fbb
00000390: 5983 ddbc 8a6d d9bd 0c74 303d b570 9cbc
000003a0: 53dc 32bd 3eae 213d 56bc fbbc c3ee c9bc
000003b0: f466 e8bc 960d 063d 5ab4 11bd fae3 afbd
000003c0: 130c 2bba 89b9 9abd b381 833c ad17 39bd
000003d0: ed8f 8cbc 0a65 033c 2b98 e23c c421 70bc
000003e0: 72e9 13be 2579 92bd 8374 3abd dfa6 c13d
000003f0: b1de 54bd dad6 d9bc 15ff bc3d f901 b23c

bias f4 [64]
-0.0890748 0.09338005 0.052907642 0.040768214 -0.094454244 -0.07107037 -0.07517628 -0.07748811
-0.036012724 -0.012418025 -0.08324097 0.008259926 -0.07417869 -0.15009053 -0.048312027 -0.0045762314
-0.07148367 -0.04888779 -0.07761206 -0.07968768 0.13661368 -0.021702534 -0.079546906 -0.020513434
-0.06523897 -0.03377553 0.1285155 -0.011647791 -0.08049223 -0.07885296 -0.0119124465 -0.0953487
-0.07044818 0.053923786 -0.09407396 0.03575294 -0.07008318 -0.09503461 -0.0011158366 -0.10183014
-0.10743808 -0.06197531 -0.041998815 -0.046154104 0.040184774 -0.08142963 0.14108269 -0.07671245
0.048811994 -0.025405526 -0.054242425 -0.19684823 0.059758198 -0.08801438 -0.06120952 -0.027281305
-0.060050316 0.045818515 -0.084195726 0.083864346 0.11132896 -0.051091176 -0.111273214 -0.03233238
00000000: d96c b6bd 0a3e bf3d afb5 583d 92fc 263d
00000010: 3a71 c1bd 588d 91bd 06f6 99bd 16b2 9ebd
00000020: 1482 13bd f974 4bbc 3e7a aabd a454 073c
00000030: ffea 97bd 55b1 19be d5e2 45bd 36f4 95bb
00000040: 0866 92bd 903e 48bd 12f3 9ebd 4b33 a3bd
00000050: 75e4 0b3e 83c9 b1bc 7de9 a2bd ca0b a8bc
00000060: 029c 85bd 3658 0abd 9199 033e 60d6 3ebc
00000070: 1cd9 a4bd a97d a1bd 6c2c 43bc 2e46 c3bd
00000080: 2347 90bd 30df 5c3d d9a9 c0bd ad71 123d
00000090: c587 8fbd 81a1 c2bd 4341 92ba 528c d0bd
000000a0: 7f08 dcbd d3d9 7dbd f306 2cbd 160c 3dbd
000000b0: ca98 243d 94c4 a6bd fb77 103e 6b1b 9dbd
000000c0: 16ef 473d 401f d0bc 4e2d 5ebd 9592 49be
000000d0: 03c5 743d e240 b4bd d5b6 7abd 0b7d dfbc
000000e0: 52f7 75bd 32ac 3b3d cf6e acbd 12c1 ab3d
000000f0: 7000 e43d fb44 51bd 36e3 e3bd f56e 04bd

weight f4 [64, 64, 3]
0.02693403 0.020627309 0.043822452 -0.030115683 -0.011458217 0.113636106 -0.056679152 0.044905882
0.043766245 0.10489738 -0.0951091 0.030009313 0.033479158 -0.0014048766 -0.106655106 0.0043658777
0.05086583 0.0050130757 -0.0945041 0.033833742 0.06511233 0.030254362 0.0025140538 0.07533885
0.04995353 -0.049694702 -0.16084312 -0.0048374454 -0.037411798 -0.16013676 0.06335186 -0.04008205
-0.04208222 0.04477885 -0.045714527 0.077806406 0.054975823 0.020639557 -0.04326345 0.116639905
-0.0067743026 -0.039740305 -0.012841363 -0.023174884 -0.01922759 -0.06289098 0.03597934 -0.04437256
0.03941816 -0.009366856 0.00091449067 -0.015798049 -0.035264518 0.05972418 -0.14505579 -0.00033928565
-0.09316885 0.053743985 0.062467523 0.035369746 -0.10818402 -0.010652523 -0.00783824 -0.08273011
0.033817276 -0.08240457 -0.061013218 -0.026282698 0.064682044 -0.0588577 0.010271658 -0.024408802
0.101301126 -0.045970097 -0.09644838 0.026915532 -0.01632973 -0.030203363 0.03996807 0.037743885
-0.05294901 0.067724906 -0.054399524 -0.016231984 -0.003907545 0.0016087911 -0.050985187 0.091148145
-0.05481394 -0.12859686 -0.020299606 -0.029593952 -0.0073429653 0.052896008 0.0743008 0.033016253
0.02033503 -0.006663358 0.021406218 0.028031537 0.064365454 -0.0719731 0.02977039 -0.056091312
0.03952569 0.024894586 -0.045122817 0.020693716 -0.009278144 0.058558222 0.02387442 0.123619996
-0.018257478 -0.066129535 -0.01903886 -0.056043457 -0.06489028 0.04215994 -0.109255396 -0.020974156
-0.032230277 0.02179892 -0.007571827 -0.047686562 0.050172593 -0.014557348 0.012440527 -0.011877203
0.04229136 0.0036820357 0.009179896 -0.037123732 0.075514436 0.007321795 -0.06991843 0.151448
0.06221536 -0.00012077917 -0.0664849 -0.027454041 0.100760244 -0.13859436 0.029118553 0.03238162
-0.02780533 -0.0018737223 0.0612654 -0.02804613 -0.06930364 0.016245684 0.017470835 0.055297695
-0.06481883 -0.0010133171 -0.042487748 0.038756385 0.011570924 -0.0031756917 -0.012867185 -0.06668705
-0.003986018 -0.036306642 0.09061215 0.02290346 -0.0037345914 -0.02805401 -0.011157546 0.06847699
-0.11911116 0.01431984 -0.07974253 0.004602776 -0.04281277 -0.040584564 0.10939348 0.0005446082
-0.12170538 -0.060474522 0.052082136 -0.028522186 0.037769895 -0.03734841 0.0019216543 0.08535155
-0.026561523 -0.016019017 -0.06691177 -0.018525232 -0.09930801 -0.07910303 -0.04099191 -0.050182436
0.04387229 -0.02180209 0.017393678 0.109756574 -0.039310385 0.13616377 -0.0332684 0.004324162
-0.10002332 0.011024131 0.010373956 -0.006403076 -0.034838766 0.014820651 0.036660027 0.035707533
-0.0280406 0.032408256 -0.028023835 -0.023059204 0.06371149 -0.057030585 0.010142762 -0.020724602
-0.06064195 -0.06691519 0.009688661 -0.012170797 -0.0065575903 -0.033629358 -0.040229186 0.025048774
-0.0070974356 -0.078561485 0.02616741 0.010610636 -0.06867679 0.005017663 -0.062955715 -0.11283355
0.025585122 0.048714627 -0.0057374705 -0.039315153 -0.0593804 -0.022007344 -0.061096787 0.009221419
-0.09250242 0.06270249 -0.13589704 0.058261544 -0.01851174 -0.035763368 0.04884971 -0.06764584
-0.056078434 0.008984936 0.020142538 -0.012517585 0.11809709 -0.04397753 0.1253789 0.004699524
00000000: c1a4 dc3c 9afa a83c 2c7f 333d 2ab5 f6bc
00000010: 3fbb 3bbc 0cba e83d 6628 68bd 3bef 373d
00000020: 3c44 333d 70d4 d63d 8fc8 c2bd 17d6 f53c
00000030: 7121 093d d623 b8ba fe6d dabd a30f 8f3b
00000040: b058 503d ba44 a43b 5e8b c1bd 4095 0a3d
00000050: 9d59 853d ffd7 f73c d3c2 243b 414b 9a3d
00000060: 139c 4c3d ac8c 4bbd 0fb4 24be 6f83 9ebb
00000070: 1d3d 19bd e4fa 23be 9fbe 813d 132d 24bd
00000080: 685e 2cbd 076a 373d 283f 3bbd f758 9f3d
00000090: 542e 613d 4a14 a93c 0435 31bd e7e0 ee3d
000000a0: f8fa ddbb bbc6 22bd 9564 52bc 41d9 bdbc
000000b0: 2e83 9dbc fccc 80bd 135f 133d 00c0 35bd
000000c0: f074 213d 7177 19bc 6eba 6f3a e96a 81bc
000000d0: 8771 10bd 57a1 743d 8189 14be 26e2 b1b9
000000e0: 4fcf bebd a722 5c3d f2dd 7f3d dedf 103d
000000f0: 958f ddbd eb87 2ebc f66b 00bc 676e a9bd
00000100: fc83 0a3d bac3 a8bd ffe8 79bd d04e d7bc
00000110: 0578 843d c614 71bd 754a 283c f8f4 c7bc
00000120: f776 cf3d 244b 3cbd ba86 c5bd f67d dc3c
00000130: edc5 85bc 0b6d f7bc 8fb5 233d 5599 1a3d
00000140: 10e1 58bd 5bb3 8a3d 09d2 5ebd f0f8 84bc
00000150: dd0a 80bb 12de d23a d8d5 50bd e1ab ba3d
00000160: 9584 60bd e5ae 03be 5c4b a6bc 046f f2bc
00000170: 429d f0bb 7ca9 583d 052b 983d 0d3c 073d
00000180: a695 a63c 4c58 dabb 185c af3c 65a2 e53c
00000190: 09d2 833d a266 93bd 08e1 f33c 01c0 65bd
000001a0: b1e5 213d bbef cb3c b4d2 38bd de85 a93c
000001b0: 5b03 18bc bfda 6f3d 4a94 c33c 7b2c fd3d
000001c0: b590 95bc ec6e 87bd 62f7 9bbc d38d 65bd
000001d0: 32e5 84bd e7af 2c3d 4bc1 dfbd fed1 abbc
000001e0: e503 04bd a693 b23c 171d f8bb fc52 43bd
000001f0: c781 4d3d f181 6ebc 5ad3 4b3c 9a98 42bc
00000200: b539 2d3d 4f4e 713b 4667 163c 0e0f 18bd
00000210: 50a7 9a3d abeb ef3b 6531 8fbd 2f15 1b3e
00000220: 89d5 7e3d d34a fdb8 3c29 88bd 4ce7 e0bc
00000230: 635b ce3d aeeb 0dbe 088a ee3c 97a2 043d
00000240: 01c8 e3bc b097 f5ba 6ef1 7a3d ffc0 e5bc
00000250: 11ef 8dbd ab15 853c ff1e 8f3c d67f 623d
00000260: bcbf 84bd 48d1 84ba a207 2ebd 04bf 1e3d
00000270: f993 3d3c 441f 50bb e3d0 52bc 3893 88bd
00000280: 249d 82bb 46b6 14bd dd92 b93d 09a0 bb3c
00000290: 0cc0 74bb 86d1 e5bc 24ce 36bc aa3d 8c3d
000002a0: 8df0 f3bd c39d 6a3c 0d50 a3bd e2d2 963b
000002b0: 715c 2fbd 003c 26bd b009 e03d 0ac4 0e3a
000002c0: ac40 f9bd 22b4 77bd 1454 553d 5ca7 e9bc
000002d0: 9bb4 1a3d a5fa 18bd 05e0 fb3a cbcc ae3d
000002e0: 8d97 d9bc 503a 83bc 0a09 89bd 3ac2 97bc
000002f0: ff61 cbbd c500 a2bd 22e7 27bd 198c 4dbd
00000300: 6eb3 333d 4c9a b2bc 307d 8e3c 0ec8 e03d
00000310: ed03 21bd 846e 0b3e 7244 08bd b3b1 8d3b
00000320: 07d9 ccbd 8f9e 343c 86f7 293c e5d0 d1bb
00000330: 18b3 0ebd 51d2 723c d328 163d 1042 123d
00000340: 66b5 e5bc 85be 043d 3e92 e5bc a8e6 bcbc
00000350: 2b7b 823d e798 69bd d42d 263c a4c6 a9bc
00000360: b263 78bd d50a 89bd 31bd 1e3c 0668 47bc
00000370: 0ee1 d6bb f0be 09bd 5cc7 24bd 1633 cd3c
00000380: 9b91 e8bb d8e4 a0bd 095d d63c 3cd8 2d3c
00000390: 6ba6 8cbd 356b a43b edee 80bd 4715 e7bd
000003a0: e497 d13c fd88 473d 6401 bcbb ed08 21bd
000003b0: dd38 73bd bf48 b4bc a040 7abd 6f15 173c
000003c0: e971 bdbd 2a6a 803d 9828 0bbe a8a3 6e3d
000003d0: efa5 97bc 9c7c 12bd a216 483d e789 8abd
000003e0: 80b2 65bd 8e35 133c f701 a53c 8f16 4dbc
000003f0: e3dc f13d c821 34bd 5463 003e 77fe 993b

bias f4 [64]
-0.013643162 0.025870986 -0.017973866 -0.012112699 0.022167088 -0.0148512265 -0.014525019 -0.004327449
-0.011849387 -0.015190589 -0.006930092 -0.001101597 -0.011112768 -0.0025226925 -0.0071387114 -0.028246537
-0.02992631 0.03591058 -0.02017574 -0.02244289 -0.018672789 -0.018839743 -0.015294861 -0.010616958
-0.08151543 -0.1314509 -0.015340827 -0.019112416 -0.054979146 -0.020355217 0.01421059 0.021070397
-0.10093752 -0.06682586 -0.05969847 -0.015505422 -0.060044877 -0.065736696 0.014121626 -0.014222384
0.11456434 -0.0070538586 -0.035880685 -0.010565759 -0.016543722 -0.05795003 -0.01532247 -0.01624115
-0.022063939 -0.020927887 0.025003374 -0.049634606 -0.03926854 -0.017517928 -0.063781 -0.11269287
-0.016144903 -0.055646997 -0.014575571 -0.0075558727 -0.019233322 -0.013944609 -0.017269528 -0.066408426
00000000: 9287 5fbc 64ef d33c ee3d 93bc 5874 46bc
00000010: c197 b53c 8f52 73bc 58fa 6dbc 46cd 8dbb
00000020: ee23 42bc f3e1 78bc d315 e3bb 7663 90ba
00000030: 5412 36bc c253 25bb daeb e9bb 4865 e7bc
00000040: 0528 f5bc f916 133d 9847 a5bc 27da b7bc
00000050: adf7 98bc ce55 9abc 4c97 7abc c0f2 2dbc
00000060: 90f1 a6bd 119b 06be 1858 7bbc a491 9cbc
00000070: d031 61bd fcbf a6bc 89d3 683c d39b ac3c
00000080: 55b8 cebd ffdb 88bd 6286 74bd 740a 7ebc
00000090: 9ef1 75bd f6a0 86bd 645e 673c 0105 69bc
000000a0: b5a0 ea3d 0e24 e7bb a0f7 12bd 011c 2dbc
000000b0: b386 87bc 035d 6dbd 190b 7bbc 290c 85bc
000000c0: 6fbf b4bc f670 abbc e0d3 cc3c a84d 4bbd
000000d0: 0cd8 20bd c281 8fbc 9d9f 82bd 85cb e6bd
000000e0: 5142 84bc 1bee 63bd 60ce 6ebc 4197 f7bb
000000f0: 338f 9dbc ee77 64bc d378 8dbc 2401 88bd

weight f4 [64, 64, 3]
-0.08871876 0.08108336 0.04815614 -0.0002721608 0.0077125905 -0.04713901 0.11155103 -0.04941219
0.085085824 -0.006767642 -0.014132195 -0.010977703 0.06988772 0.14553158 -0.008447895 -0.044493727
-0.039199654 0.16483189 -0.0062037697 -0.032993954 -0.048713524 0.015298219 -0.048086096 0.015843548
0.041147865 -0.10397035 0.026676653 -0.098631054 0.1218214 0.116081595 -0.02938754 0.027793977
0.007962045 0.051276356 0.07776234 -0.061420128 0.03916095 -0.05145908 -0.02975969 -0.081701644
0.20667328 -0.010422855 0.014135974 0.05207551 0.023816174 0.03037862 -0.006863351 0.005563792
-0.039229374 -0.05959777 0.09091539 0.033541452 0.00204796 -0.048169404 -0.07518669 -0.12579504
0.02109752 -0.025727455 0.006441784 0.0063290717 -0.007715288 -0.004658036 -0.07587397 0.031181091
-0.06991643 -0.064046875 -0.011889961 -0.07373001 -0.06962288 0.031759974 -0.004055589 0.013921565
0.02935268 0.035206646 0.034261063 0.03440167 0.04072485 0.024759587 0.03582968 -0.13762017
-0.012704771 -0.01343163 -0.07486337 -0.026058236 0.008937636 0.057055958 0.041296378 0.045054212
-0.06265537 0.004740004 -0.05877254 -0.048131894 -0.004041245 -0.0418369 -0.04958787 -0.06625341
-0.067289636 0.019065533 -0.009592302 0.055692106 -0.021341534 -0.028521612 0.040029958 0.055114772
0.048369948 -0.019769004 -0.05945057 -0.028009646 0.05807177 0.06114321 -0.0051988224 0.016913982
0.1114055 0.047622155 -0.017924132 0.13340639 0.04900692 -0.050490923 0.08307411 0.039304875
-0.055411384 -0.056301497 -0.03955062 -0.013537752 0.027909342 -0.0016067638 0.04887073 -0.0074371207
0.009486147 -0.078308485 -0.07007229 0.0012792462 0.17285249 0.026099814 0.023527984 -0.019313343
-0.0774622 -0.05267019 0.051689163 0.004198446 0.033399936 -0.011406223 0.0009881033 -0.008677996
0.08507648 0.010123723 0.02390407 -0.07260379 -0.043255124 0.0038890443 -0.16423912 -0.11654216
0.044618417 0.048926853 0.052393563 0.06755923 -0.027442163 0.109315366 0.012574318 -0.008068525
0.04127277 -0.04796324 0.043861873 0.07023438 -0.030854508 -0.014547733 0.029556096 -0.008588502
-0.011230461 -0.04846446 0.012291293 -0.009031342 -0.17232813 -0.07866815 -0.008085794 0.04782652
-0.04094311 -0.025952756 -0.027174743 -0.0315469 0.12021913 0.1471714 -0.031236377 0.027064413
0.055896774 0.0063413843 -0.0032929215 0.05424928 0.02927983 -0.0079373075 0.07469567 0.018574053
0.16039668 -0.12294135 0.06689921 -0.038341593 0.075173214 -0.060147233 0.09883689 0.13383974
-0.16232568 -0.03692332 0.0095461365 -0.023426143 -0.0131077925 0.024471426 0.019131968 0.2703071
0.05605718 -0.13530838 -0.017597914 -0.058628812 -0.0020198445 0.075458586 -0.04332141 -0.025601326
0.026137356 -0.0073758946 0.012791132 0.04418334 -0.14733596 0.14026852 0.067328244 0.023475185
-0.024349742 -0.09062223 0.20072503 0.05343791 0.02268506 0.02768695 -0.10517432 -0.016704261
-0.10455327 -0.009719953 0.0894761 -0.02079903 -0.02793361 0.01399504 0.02094387 0.03874215
0.11153205 -0.094668694 -0.12166702 0.022364885 -0.0006859875 -0.016664011 0.0041509774 0.029547714
0.06278098 0.04201628 -0.12596731 0.019039148 -0.025644016 -0.0815539 0.059387524 -0.118156925
00000000: 2eb2 b5bd 080f a63d 5f3f 453d ceb0 8eb9
00000010: e6b9 fc3b d614 41bd de74 e43d 7064 4abd
00000020: 7a41 ae3d 19c3 ddbb b98a 67bc d3db 33bc
00000030: 4b21 8f3d 3b06 153e 0a69 0abc 0e3f 36bd
00000040: d18f 20bd b1c9 283e fe48 cbbb ab24 07bd
00000050: d587 47bd 62a5 7a3c edf5 44bd 54ca 813c
00000060: aa8a 283d 68ee d4bd ff88 da3c 14ff c9bd
00000070: 807d f93d 30bc ed3d 23be f0bc 32b0 e33c
00000080: 3d73 023c 2807 523d dd41 9f3d ac93 7bbd
00000090: 3b67 203d c2c6 52bd 98ca f3bc 3153 a7bd
000000a0: 29a2 533e 9fc4 2abc 939a 673c 214d 553d
000000b0: 231a c33c 95dc f83c f6e5 e0bb 7850 b63b
000000c0: fbae 20bd cb1c 74bd d931 ba3d c362 093d
000000d0: 1137 063b 484d 45bd 7bfb 99bd 6ad0 00be
000000e0: b5d4 ac3c 62c2 d2bc 9a15 d33b 1a64 cf3b
000000f0: 87d0 fcbb 70a2 98bb d063 9bbd 7d6f ff3c
00000100: 5830 8fbd 022b 83bd 1cce 42bc c2ff 96bd
00000110: 7196 8ebd bf16 023d bfe4 84bb 4717 643c
00000120: 0875 f03c d834 103d 5455 0c3d c4e8 0c3d
00000130: 1acf 263d 9ed4 ca3c 24c2 123d 4dec 0cbe
00000140: ac27 50bc 5710 5cbc f751 99bd 1578 d5bc
00000150: 2a6f 123c 82b3 693d 6426 293d c48a 383d
00000160: 7551 80bd 0952 9b3b 7abb 70bd f325 45bd
00000170: 6c6c 84bb 2b5d 2bbd a61c 4bbd deaf 87bd
00000180: 26cf 89bd 522f 9c3c 0829 1dbc 681d 643d
00000190: 71d4 aebc 28a6 e9bc 74f6 233d 07c0 613d
000001a0: 911f 463d 9bf2 a1bc 7182 73bd 7c74 e5bc
000001b0: aadc 6d3d 4d71 7a3d e25a aabb 318f 8a3c
000001c0: 9128 e43d 730f 433d a1d5 92bc af9b 083e
000001d0: 7bbb 483d 92cf 4ebd c222 aa3d 26fe 203d
000001e0: 0cf7 62bd 669c 66bd d5ff 21bd 73cd 5dbc
000001f0: 22a2 e43c 0c9a d2ba ad2c 483d 17b3 f3bb
00000200: c96b 1b3c 3360 a0bd 1082 8fbd 61ac a73a
00000210: 3e00 313e 47cf d53c c2bd c03c 0437 9ebc
00000220: 80a4 9ebd b2bc 57bd 04b8 533d 1e93 893b
00000230: 5fce 083d 2be1 3abc 3f83 813a 272e 0ebc
00000240: 943c ae3d f9dd 253c 78d2 c33c 4cb1 94bd
00000250: 492c 31bd 56df 7e3b 4d2e 28be a8ad eebd
00000260: cdc1 363d 8667 483d a29a 563d 7e5c 8a3d
00000270: 63ce e0bc bce0 df3d 8304 4e3c d931 04bc
00000280: a30d 293d 1a75 44bd 82a8 333d 0bd7 8f3d
00000290: 98c2 fcbc 9d59 6ebc a01f f23c cab6 0cbc
000002a0: f8ff 37bc ab82 46bd 6b61 493c 32f8 13bc
000002b0: c976 30be c41c a1bd 477a 04bc bee5 433d
000002c0: f6b3 27bd e09a d4bc 919d debc 5237 01bd
000002d0: 7235 f63d 19b4 163e 6ee3 ffbc 30b6 dd3c
000002e0: 04f4 643d 63cb cf3b 0ece 57bb 7e34 5e3d
000002f0: 41dc ef3c 7b0b 02bc 0bfa 983d 9d28 983c
00000300: 073f 243e adc8 fbbd 7402 893d 130c 1dbd
00000310: 6af4 993d f25c 76bd ff6a ca3d 490d 093e
00000320: b438 26be e83c 17bd 6667 1c3c 2fe8 bfbc
00000330: 11c2 56bc 4d78 c83c a5ba 9c3c b165 8a3e
00000340: 379c 653d 488e 0abe 8029 90bc c424 70bd
00000350: 5e5f 04bb 088a 9a3d ca71 31bd dfb9 d1bc
00000360: 021e d63c 7db1 f1bb e591 513c 97f9 343d
00000370: 3ddf 16be 8da2 0f3e 64e3 893d 084f c03c
00000380: 1c79 c7bc 2698 b9bd dd8a 4d3e b6e1 5a3d
00000390: 05d6 b93c becf e23c a265 d7bd 60d7 88bc
000003a0: 0620 d6bd 7040 1fbc 3f3f b73d ba62 aabc
000003b0: 07d5 e4bc 744b 653c 7b92 ab3c 17b0 1e3d
000003c0: ea6a e43d a9e1 c1bd 8f2c f9bd 9036 b73c
000003d0: d8d3 33ba f782 88bc ec04 883b 0c0e f23c
000003e0: 5093 803d 4319 2c3d 93fd 00be fdf7 9b3c
000003f0: 6613 d2bc bb05 a7bd 5540 733d 42fc f1bd

bias f4 [64]
-0.019013172 -0.009383218 0.01032306 0.0041494276 -0.06062102 -0.028066922 -0.036295168 -0.07041164
0.028918264 -0.031915497 -0.0030848694 -0.07414744 -0.047193307 -0.026735641 -0.011079997 -0.023589367
-0.008396433 0.018005483 -0.028491113 0.005946931 -0.04800652 0.017492699 0.010568645 0.016241847
-0.009148789 -0.027763238 0.03292363 -0.047651727 -0.043854367 -0.025022458 0.0030190712 -0.030152246
-0.071100295 -0.017667811 -0.04287926 -0.034976296 -0.017432937 0.0010191046 -0.075840406 -0.01636949
0.025953706 -0.002896051 -0.005603347 0.03854699 -0.029085794 -0.010972324 -0.05488362 0.0020097604
-0.017530294 0.0077257724 -0.034274835 -0.0043584495 -0.015763732 -0.053832967 0.00240279 -0.021340637
-0.11793669 -0.033628866 -0.06324392 -0.03357369 -0.012805265 -0.022503719 -0.006169873 0.013931598
00000000: 83c1 9bbc 12bc 19bc 0d22 293c ecf7 873b
00000010: bf4d 78bd 9aec e5bc 3eaa 14bd fa33 90bd
00000020: ffe5 ec3c d3b9 02bd 852b 4abb 9dda 97bd
00000030: c54d 41bd b404 dbbc e088 35bc 7d3e c1bc
00000040: 3191 09bc 3c80 933c 3266 e9bc 79de c23b
00000050: 7ca2 44bd d94c 8f3c 1c28 2d3c 9f0d 853c
00000060: cde4 15bc bb6f e3bc eeda 063d 752e 43bd
00000070: a3a0 33bd e6fb ccbc 9cdb 453b d801 f7bc
00000080: 089d 91bd 16bc 90bc 2aa2 2fbd 4e43 0fbd
00000090: 85cf 8ebc 7a93 853a 3752 9bbd 4f19 86bc
000000a0: de9c d43c accb 3dbb 489c b7bb 73e3 1d3d
000000b0: 5545 eebc 43c5 33bc a6cd 60bd 2fb6 033b
000000c0: b19b 8fbc 7a28 fd3b c563 0cbd 53d1 8ebb
000000d0: f122 81bc f57f 5cbd 2078 1d3b 8fd2 aebc
000000e0: cb88 f1bd 6cbe 09bd 0786 81bd 9184 09bd
000000f0: 2dcd 51bc b859 b8bc a52c cabb 5b41 643c

weight f4 [64, 64, 3]
-0.020358946 0.03220248 -0.0022388685 -0.021776233 -0.011445467 -0.023134125 -0.0002674873 -0.04211193
-0.013610548 0.021382608 -0.042658865 0.012383084 -0.0772216 0.47833776 0.023924382 0.06278715
-0.39118907 0.10572373 0.08743802 0.13509916 0.07779436 -0.07733591 -0.025443153 -0.066341616
-0.020641932 -0.00089811435 0.025573418 0.014240231 0.016916087 -0.0017708843 0.015190156 -0.027358534
0.033921823 -0.06428375 0.4130978 -0.071846835 0.017827196 0.010382074 -0.024256002 -0.017614648
-0.013710674 0.029221969 -0.034220092 0.0032294584 0.026274892 0.035900813 0.0070837256 0.023640852
-0.025171153 -0.011226054 0.019596998 -0.00019264179 0.016262148 -0.0043828613 -0.026799634 0.05433082
0.024694957 0.0055975197 0.023373999 -0.028561087 -0.04938877 0.043989096 -0.027568927 0.024582962
0.060336422 0.009243675 0.03453841 0.047529172 0.009554182 -0.018934932 -0.012910209 -0.011874219
0.025391938 -0.031083224 -0.010325751 -0.0019728637 0.12005189 0.0103241755 -0.01337423 -0.039705448
-0.021558832 -0.036652174 -0.20578203 -0.0030023921 0.08535233 0.12488071 0.059953723 0.0123702455
0.16801982 0.012989307 -0.04421007 -0.0295856 -0.035756044 -0.017849617 0.024888687 0.0038733135
-0.057479396 -0.10056533 -0.052349415 0.035930976 0.10377542 0.0060733566 -0.0067944997 0.010944049
-0.030029574 0.058470428 -0.48708943 0.10346685 0.028176313 -0.2649979 -0.013813724 -0.04243168
-0.10013963 -0.0097861225 0.005236597 -0.058633015 -0.026593568 0.020793647 0.0013777126 -0.00052018574
-0.011772057 -0.054423388 -0.018355228 -0.010025584 0.008726336 -0.0037487298 0.0013762044 -0.10234307
-0.015898768 0.04863134 0.079207756 0.008729723 -0.032390766 0.1372076 -0.009920372 -0.062363405
-0.060834862 -0.09397685 -0.011874741 -0.029900331 0.016190588 0.031696513 -0.08607592 -0.026081882
0.0129602235 0.13017997 -0.018596174 -0.0019544887 -0.0140187675 -0.019414961 0.15019327 0.4581513
-0.024712916 0.07503495 -0.4863916 0.034973558 -0.005622176 0.06610979 -0.006368749 -0.018397247
-0.047664482 -0.0023915165 -0.037587672 -0.012166828 -0.0190871 0.025326518 0.017670395 -0.029027795
-0.009957697 -0.057546653 -0.04912616 -0.012013481 0.00783119 -0.03777587 -0.053696264 -0.05911478
-0.05600921 0.017542543 0.022782829 0.029786533 0.007659417 0.112872146 0.017785449 0.03797753
0.07559808 0.052916933 -0.02223275 -0.29220805 -0.0091686025 -0.008254094 0.025911728 0.018617522
-0.051199276 -0.0023036734 0.016875898 0.0013563413 -0.068672396 -0.018945852 -0.0010456133 -0.03781373
0.017145164 0.050460543 0.01629659 0.031370454 -0.13002014 0.3419045 -0.03610972 0.114326306
0.26072693 0.085717194 0.08069711 0.23018305 0.07728052 -0.045301072 -0.08219106 -0.06774062
-0.03586419 -0.05814951 -0.0163016 0.026630618 0.009082103 0.02489991 -0.006490265 -0.19955769
0.0016589893 -0.104627095 0.3772848 -0.116381355 -0.0030238046 -0.06999325 -0.002056471 0.033034533
0.018190784 0.04406415 0.019362511 0.27776384 0.017220203 0.0075564194 -0.024159174 0.017106455
0.013401082 0.00067022874 0.016738318 0.0038217534 0.0034514912 -0.005218893 0.009304158 0.046116706
0.019426906 0.002096807 0.011786121 0.023998935 0.017591547 0.022245562 0.027610028 0.009636311
00000000: cec7 a6bc bfe6 033d fbb9 12bb 1264 b2bc
00000010: c585 3bbc c783 bdbc 8a3d 8cb9 8f7d 2cbd
00000020: c7fe 5ebc 942a af3c 10bb 2ebd 6be2 4a3c
00000030: 5c26 9ebd b0e8 f43e 11fd c33c 8d96 803d
00000040: ef49 c8be af85 d83d b412 b33d 6f57 0a3e
00000050: a652 9f3d 4a62 9ebd 296e d0bc 1dde 87bd
00000060: 4519 a9bc 6f6f 6bba 587f d13c dc4f 693c
00000070: 9b93 8a3c 041d e8ba 22e0 783c 011f e0bc
00000080: 9cf1 0a3d 33a7 83bd 8e81 d33e 6f24 93bd
00000090: 570a 923c 9319 2a3c 86b4 c6bc 984c 90bc
000000a0: bca2 60bc e962 ef3c 5e2a 0cbd 52a5 533b
000000b0: 713e d73c bb0c 133d 991e e83b 76aa c13c
000000c0: bc33 cebc 7ced 37bc e289 a03c e3ff 49b9
000000d0: 3238 853c 1b9e 8fbb e88a dbbc fe89 5e3d
000000e0: 144d ca3c 666b b73b d47a bf3c f1f8 e9bc
000000f0: e14b 4abd e92d 343d 3bd8 e1bc 3562 c93c
00000100: 5323 773d c872 173c 2678 0d3d f3ad 423d
00000110: 2589 1c3c 6e1d 9bbc 5785 53bc 168c 42bc
00000120: c102 d03c 3fa2 febc 572d 29bc 294b 01bb
00000130: c4dd f53d bb26 293c 961f 5bbc 2ea2 22bd
00000140: 269c b0bc 9720 16bd 86b8 52be c8c3 44bb
00000150: 34cd ae3d 75c1 ff3d 0992 753d 92ac 4a3c
00000160: 630d 2c3e 1ad1 543c 9e15 35bd 805d f2bc
00000170: ee74 12bd 5c39 92bc 5ce3 cb3c 6bd7 7d3b
00000180: 846f 6bbd 32f5 cdbd 576c 56bd 5c2c 133d
00000190: 3588 d43d 0203 c73b 65a4 debb ab4e 333c
000001a0: 9500 f6bc b07e 6f3d c963 f9be 6ee6 d33d
000001b0: 03d2 e63c cead 87be f552 62bc d7cc 2dbd
000001c0: 0216 cdbd f955 20bc c297 ab3b 2c29 70bd
000001d0: c1da d9bc 7057 aa3c 5d94 b43a 135d 08ba
000001e0: 96df 40bc 0feb 5ebd b45d 96bc 5942 24bc
000001f0: e8f8 0e3c 40ad 75bb c261 b43a 3e99 d1bd
00000200: 223e 82bc a831 473d ad37 a23d 1d07 0f3c
00000210: 2eac 04bd 2680 0c3e 0e89 22bc c570 7fbd
00000220: fa2d 79bd ef76 c0bd 468e 42bc 8af1 f4bc
00000230: 20a2 843c 34d4 013d 9248 b0bd aca9 d5bc
00000240: 1e57 543c e64d 053e 0157 98bc e116 00bb
00000250: f9ae 65bc 200c 9fbc 44cc 193e cf92 ea3e
00000260: be72 cabc edab 993d 5208 f9be 6f40 0f3d
00000270: 3b3a b8bb 9264 873d f0b0 d0bb d3b5 96bc
00000280: d53b 43bd fdba 1cbb 88f5 19bd 6057 47bc
00000290: 8d5c 9cbc 8f79 cf3c 81c1 903c b3cb edbc
000002a0: 9c25 23bc 0ab6 6bbd 8338 49bd 31d4 44bc
000002b0: 644e 003c dfba 1abd 9df0 5bbd 5722 72bd
000002c0: ea69 65bd 61b5 8f3c 0ea3 ba3c e302 f43c
000002d0: d9fb fa3b 8329 e73d cab2 913c 548e 1b3d
000002e0: 2bd3 9a3d 6dbf 583d 7521 b6bc 4b9c 95be
000002f0: e837 16bc 2e3c 07bc d544 d43c c683 983c
00000300: 55b6 51bd 3af9 16bb 533f 8a3c 43c7 b13a
00000310: 1da4 8cbd 5534 9bbc f60c 89ba 92e2 1abd
00000320: 0474 8c3c b7af 4e3d 6d80 853c 4e7e 003d
00000330: 0024 05be 1b0e af3e c9e7 13bd e923 ea3d
00000340: 007e 853e 7f8c af3d 8744 a53d 1bb5 6b3e
00000350: 4045 9e3d 9e8d 39bd c953 a8bd 98bb 8abd
00000360: 54e6 12bd 2e2e 6ebd ef8a 85bc 7428 da3c
00000370: 1acd 143c e5fa cb3c 4aac d4bb da58 4cbe
00000380: 7272 d93a bb46 d6bd 792b c13e 5959 eebd
00000390: 062b 46bb 9f58 8fbd dcc5 06bb 384f 073d
000003a0: d704 953c 9c7c 343d 219e 9e3c 1037 8e3e
000003b0: 6211 8d3c d79b f73b 76e9 c5bc d622 8c3c
000003c0: 3690 5b3c 4ab2 2f3a cc1e 893c 6276 7a3b
000003d0: 6a32 623b 3f03 abbb 7870 183c dfe4 3c3d
000003e0: 2d25 9f3c 956a 093b 931a 413c 6a99 c43c
000003f0: 261c 903c 533c b63c 6d2e e23c 9ee1 1d3c

bias f4 [64]
-0.05145787 -0.14921813 0.003933625 -0.15649672 -0.027200494 -0.03734946 -0.048867445 -0.032934885
-0.098629706 0.0014811873 -0.03667861 -0.061353095 -0.08678063 0.00951628 -0.03755155 -0.034941524
-0.13239431 -0.012036873 0.009627911 -0.07015632 -0.02306995 0.03756073 -0.062950306 -0.040386915
-0.0037253979 -0.039392494 -0.019149113 -0.061763186 -0.028831704 -0.06075681 -0.005477756 -0.0315569
-0.01505332 -0.037554357 -0.028081272 -0.03155785 -0.13331659 0.019643513 -0.05527488 -0.036642157
-0.032419022 0.00021301243 -0.041378245 -0.08292253 -0.032178447 -0.024174532 -0.060277686 0.00030376777
-0.11404708 -0.048598748 -0.008439111 -0.0076264185 -0.008532663 -0.043570805 -0.007115881 -0.030346982
-0.005648189 -0.08748482 0.03943843 -0.09296717 0.023465034 -0.07262223 -0.02870595 0.10230091
00000000: 7dc5 52bd a3cc 18be a3e5 803b ad40 20be
00000010: 92d3 debc bffb 18bd 3b29 48bd bbe6 06bd
00000020: 5ffe c9bd 6624 c23a 4f3c 16bd 624d 7bbd
00000030: 0bba b1bd 2cea 1b3c a7cf 19bd d81e 0fbd
00000040: 6092 07be 4e36 45bc 63be 1d3c 1eae 8fbd
00000050: 31fd bcbc 48d9 193d 17ec 80bd c06c 25bd
00000060: ce25 74bb 065a 21bd 9ade 9cbc 65fb 7cbd
00000070: 7730 ecbc 22dc 78bd bf7e b3bb cf41 01bd
00000080: 33a2 76bc 99d2 19bd b20a e6bc ce42 01bd
00000090: 2584 08be 6feb a03c ea67 62bd 1616 16bd
000000a0: cfc9 04bd 175c 5f39 3c7c 29bd 4ad3 a9bd
000000b0: 8ccd 03bd ab09 c6bc bce5 76bd 0543 9f39
000000c0: 8491 e9bd 7b0f 47bd 3244 0abc 09e7 f9bb
000000d0: 95cc 0bbc 4d77 32bd 562c e9bb 3c9a f8bc
000000e0: 7214 b9bb 3e2b b3bd 318a 213d 9265 bebd
000000f0: be39 c03c f7ba 94bd be28 ebbc 2483 d13d

weight f4 [64, 64, 3]
-0.014086765 -0.04237765 -0.03514582 0.022625385 0.013666094 -0.013685344 0.016994791 0.033249937
0.008462158 0.019158605 -0.0041512307 -0.011626708 0.057382658 0.04109013 0.059601255 0.032703858
-0.009120787 -0.02332047 -0.010981119 0.022964977 0.03003757 0.14011517 0.16459088 0.13460279
0.019922037 0.027398577 0.047310915 0.09402092 0.040280182 0.07293804 0.00039284583 0.035335623
0.0025212104 0.052952323 0.057913914 0.052557275 -0.11254348 -0.06911997 -0.08645225 0.03000451
0.06059038 0.09694782 0.060031764 0.07883489 0.1301836 -0.057905156 -0.08067647 -0.08632232
-0.054226343 -0.05498582 -0.013806973 -0.03282164 0.025659742 -0.01178412 0.077175386 0.06359043
0.092343554 0.0774288 0.04759817 0.06395307 -0.03273035 -0.01053545 -0.029425295 0.05441197
0.06818048 0.031406187 -0.006237189 -0.033959396 -0.044298746 0.06757128 0.05977677 0.070291765
0.06396163 0.066692494 0.08052591 0.033235632 0.059984066 0.044026606 -0.019715112 -0.050482355
-0.051557947 -0.009404981 0.0064703277 0.020948716 -0.04989812 -0.039523013 -0.0152704725 -0.18748415
-0.18130293 -0.17158274 -0.07042834 0.0039254157 -0.04691647 0.0027924401 0.038055234 0.006804036
0.0005784686 0.0154922595 0.02340988 -0.04715325 -0.1078574 0.018124282 0.0006683118 -0.01571979
-0.0010721819 0.008979691 -0.051925287 -0.0683216 -0.046807565 -0.14306039 -0.10665246 0.013758323
0.016889414 0.015312082 -0.033099845 -0.026091095 -0.02070176 0.050786074 0.014055046 0.06452799
-0.018537952 -0.03166804 -0.05741116 -0.14382736 -0.09389858 -0.14337708 0.049630757 0.03106992
0.05139349 -0.013970748 -0.04658623 -0.021519955 -0.07872092 -0.03125712 -0.041466575 -0.03721868
0.046942405 0.010752681 0.0044510453 0.04086608 -0.0050649494 -0.02151394 -0.031633645 0.042442285
-0.007415305 0.00906051 0.0033754578 0.013018449 0.03639962 0.038852092 -0.07323412 -0.045517847
-0.032387547 -0.115831204 -0.11929988 -0.09637608 0.00045394138 -0.04528248 -0.02234942 -0.017715208
-0.016770903 -0.011062667 0.02010503 0.00301354 0.0050315233 -0.0192771 -0.025375165 -0.06291691
0.052455157 0.055711437 0.06284489 0.077583574 0.08603889 0.059095677 -0.10027371 -0.10371061
-0.107073255 0.10522614 -0.04048655 0.09386774 0.046704896 0.03325523 0.0285339 -0.029794972
-0.09163778 -0.035620317 -0.028019395 0.019933894 0.045593433 0.10312457 0.15707235 0.17726429
-0.02336051 -0.0074674245 0.023600848 0.00052500184 -0.02319105 0.008322006 -0.090001255 -0.10712719
0.047092605 0.027821572 -0.052310348 0.0022391845 0.13687353 0.052431274 -0.06167025 -0.021636708
-0.03474786 -0.035696324 -0.01653832 0.007046585 -0.01831362 -0.017936839 -0.079831764 0.051673967
-0.028625095 -0.023953104 -0.03280467 0.04394816 -0.031240677 0.016178904 0.0025972126 -0.0059939786
0.012262311 -0.06573261 -0.01209314 -0.0011938954 0.03177466 0.081792034 0.022379965 -0.051975645
0.0013396929 0.051495325 -0.0656395 -0.080882795 -0.08901954 -0.023145862 -0.068485506 -0.022056896
0.027435219 0.07244558 -0.06036704 -0.0021002663 -0.044147555 -0.07200095 -0.043959856 0.060376637
0.011495174 0.116464555 0.47694194 -0.099504836 -0.026728969 0.011986613 0.02028019 -0.07627568
00000000: 2dcc 66bc 3094 2dbd 10f5 0fbd df58 b93c
00000010: c1e7 5f3c 7e38 60bc a938 8b3c 1631 083d
00000020: dda4 0a3c 82f2 9c3c 0c07 88bb f37d 3ebc
00000030: 140a 6b3d 204e 283d 7220 743d 7bf4 053d
00000040: 5a6f 15bc 920a bfbc 27ea 33bc 0c21 bc3c
00000050: 5a11 f63c 5a7a 0f3e 838a 283e 50d5 093e
00000060: 8a33 a33c fb72 e03c 17c9 413d 0a8e c03d
00000070: d5fc 243d 8a60 953d e0f6 cd39 16bc 103d
00000080: e43a 253b 89e4 583d 2437 6d3d 4c46 573d
00000090: 327d e6bd c58e 8dbd e10d b1bd 05cc f53c
000000a0: 9e2d 783d 948c c63d dee3 753d 3074 a13d
000000b0: da4e 053e f52d 6dbd b539 a5bd c2c9 b0bd
000000c0: 711c 5ebd d038 61bd a436 62bc fc6f 06bd
000000d0: 6134 d23c 2f12 41bc 210e 9e3d b33b 823d
000000e0: 9e1e bd3d fe92 9e3d 4cf6 423d d4f9 823d
000000f0: 4210 06bd e19c 2cbc 510d f1bc 16df 5e3d
00000100: 35a2 8b3d c6a3 003d 5561 ccbb 0219 0bbd
00000110: 9a72 35bd d062 8a3d 7dd8 743d 21f5 8f3d
00000120: 51fe 823d 1396 883d c5ea a43d 1622 083d
00000130: dab1 753d 3e55 343d 9681 a1bc 96c6 4ebd
00000140: 6d2e 53bd 5917 1abc 0b05 d43b a49c ab3c
00000150: f961 4cbd e2e2 21bd 0131 7abc d8fb 3fbe
00000160: 7aa7 39be 63b3 2fbe bc3c 90bd c6a0 803b
00000170: 7c2b 40bd 5f01 373b cedf 1b3d 64f4 de3b
00000180: 5fa4 173a 3fd3 7d3c 14c6 bf3c c423 41bd
00000190: 57e4 dcbd 6079 943c a531 2f3a cac6 80bc
000001a0: 7488 8cba 8e1f 133c 9caf 54bd 32ec 8bbd
000001b0: 4ab9 3fbd 6c7e 12be 9b6c dabd 976a 613c
000001c0: ab5b 8a3c 87df 7a3c b493 07bd febc d5bc
000001d0: bd96 a9bc 0f05 503d 2347 663c 4027 843d
000001e0: e7dc 97bc 59b6 01bd f727 6bbd 7b47 13be
000001f0: e64d c0bd 71d1 12be 9f49 4b3d 5886 fe3c
00000200: fb81 523d 90e5 64bc 34d1 3ebd 9e4a b0bc
00000210: 6f38 a1bd 7707 00bd dbd8 29bd 9d72 18bd
00000220: ae46 403d 032c 303c 13da 913b 3163 273d
00000230: e0f7 a5bb 013e b0bc 4892 01bd f6d7 2d3d
00000240: 16fc f2bb 8972 143c c936 5d3b 554b 553c
00000250: c517 153d 5f23 1f3d c5fb 95bd ec70 3abd
00000260: cea8 04bd e938 edbd 7f53 f4bd d260 c5bd
00000270: fbfe ed39 1f7a 39bd 2116 b7bc 7c1f 91bc
00000280: 2263 89bc 3040 35bc 4eb3 a43c d07e 453b
00000290: 7adf a43b 02eb 9dbc 94df cfbc 95da 80bd
000002a0: 38db 563d ad31 643d d2b4 803d 23e4 9e3d
000002b0: 2835 b03d 4f0e 723d 4e5c cdbd 3a66 d4bd
000002c0: 3949 dbbd cd80 d73d 3ad5 25bd bb3d c03d
000002d0: a24d 3f3d a336 083d edbf e93c 9614 f4bc
000002e0: 97ac bbbd 9ce6 11bd ee88 e5bc 684c a33c
000002f0: 2ec0 3a3d f932 d33d 93d7 203e c584 353e
00000300: 8a5e bfbc 4cb1 f4bb 9156 c13c 47a0 093a
00000310: 28fb bdbc 0659 083c 9452 b8bd 8065 dbbd
00000320: 2de4 403d 11ea e33c 6043 56bd 48bf 123b
00000330: 9328 0c3e 2dc2 563d f299 7cbd 773f b1bc
00000340: c653 0ebd 4f36 12bd 5f7b 87bc 0ae7 e63b
00000350: 7206 96bc 47f0 92bc d67e a3bd 15a8 533d
00000360: 2d7f eabc 4d39 c4bc 315e 06bd fc02 343d
00000370: 73ec ffbc 9f89 843c ff35 2a3b 2369 c4bb
00000380: dce7 483c d29e 86bd 4e22 46bc 7b7c 9cba
00000390: 2526 023d 9582 a73d 3056 b73c 6ae4 54bd
000003a0: a298 af3a c3ec 523d 016e 86bd e1a5 a5bd
000003b0: e04f b6bd 649c bdbc 2142 8cbd aab0 b4bc
000003c0: d3bf e03c 595e 943d 6e43 77bd 9fa4 09bb
000003d0: 11d4 34bd 3c75 93bd 400f 34bd 7e4d 773d
000003e0: 4156 3c3c f884 ee3d bc31 f43e 31c9 cbbd
000003f0: b6f6 dabc 8063 443c a422 a63c 6c36 9cbd

bias f4 [64]
0.01815228 -0.028376583 -0.05272466 -0.0075678 -0.016900036 -0.010898744 -0.024793364 -0.0007241905
-0.03159011 -0.02956812 0.013164062 -0.13072328 -0.023320867 -0.012489197 -0.009450583 -0.009528667
-0.0005649233 -0.021996329 -0.0073427465 -0.012803585 0.017431797 -0.0045850626 -0.004767691 -0.036095127
-0.0034694746 -0.034132585 0.0045662886 -0.009660081 -0.11574445 -0.19615324 -0.05827802 0.001722949
-0.07050954 -0.0111024305 -0.01783368 -0.06359936 -0.035212327 -0.043971114 -0.036759958 -0.010004022
0.06256888 -0.015736178 -0.055139918 -0.034336425 -0.019396553 -0.053499125 -0.0017592803 -0.006133784
0.03467896 -0.029415417 -0.05696711 -0.029841341 -0.0148307495 -0.03891898 -0.05782596 -0.0020809905
0.01333692 -0.025583778 0.00400348 0.021600485 -0.045944054 -0.061699625 -0.08893531 -0.0715746
00000000: 17b4 943c 0276 e8bc d0f5 57bd 4ffb f7bb
00000010: f271 8abc a590 32bc 741b cbbc 9ad7 3dba
00000020: a264 01bd d838 f2bc 14ae 573c 53dc 05be
00000030: 670b bfbc 7d9f 4cbc 9ed6 1abc 201e 1cbc
00000040: 5c17 14ba a531 b4bc 6c9b f0bb 21c6 51bc
00000050: 21cd 8e3c 4b3e 96bb 4a3a 9cbb 7cd8 13bd
00000060: 2060 63bb 9cce 0bbd cea0 953b 5145 1ebc
00000070: 6d0b edbd 65dc 48be efb4 6ebd 93d4 e13a
00000080: 4e67 90bd f8e6 35bc f017 92bc 6240 82bd
00000090: cd3a 10bd 0e1b 34bd 9c91 16bd e9e7 23bc
000000a0: 1d24 803d 28e9 80bc 65da 61bd 5aa4 0cbd
000000b0: 85e5 9ebc e621 5bbd a797 e6ba e9fd c8bb
000000c0: 860b 0e3d 9af8 f0bc 5856 69bd d475 f4bc
000000d0: acfc 72bc 8269 1fbd eada 6cbd 3a61 08bb
000000e0: 1983 5a3c 1295 d1bc a02f 833b 80f3 b03c
000000f0: d52f 3cbd bfb8 7cbd b723 b6bd b495 92bd
