models/OSheaCNN2018_100_best.pt (torch, 650666 bytes, 20 tensors)

weight f4 [64, 2, 3]
-0.31976655 -0.33194634 -0.23450807 0.34615773 0.07145978 -0.2649979 0.061470393 0.031039637
-0.18649784 -0.017009335 -0.29794496 -0.35815483 0.27480313 0.25401 0.1683697 -0.2234983
-0.21466053 -0.18094212 0.5846776 0.13974003 -0.24399653 -0.3790619 0.21753308 0.015543616
0.24083553 0.19138885 0.2512444 0.32442066 0.17614593 0.15467472 0.02676854 0.3410871
-0.51643497 0.36360162 0.19896367 -0.1318254 -0.0130443545 -0.07925321 -0.067581974 -0.32051468
-0.2811267 -0.25507098 -0.5324451 -0.32362846 0.12653075 0.07158337 -0.21351656 -0.53006214
0.1610347 -0.23809326 -0.31106064 -0.39589703 0.035062574 -0.35998848 -0.34728172 -0.3580396
0.15475714 0.4285509 0.35955605 -0.17914446 -0.13507526 -0.026988082 -0.12929831 -0.5044893
-0.1898304 -0.4530889 -0.13543713 0.07694464 0.35809392 0.39950132 0.39050958 0.44149625
-0.23502764 -0.19182791 -0.3662693 0.03362508 0.109475866 -0.25887457 0.21139848 0.1700887
0.3058235 0.22610411 0.26186654 -0.06567702 0.009028448 0.28733507 -0.25911468 -0.07647401
-0.032420773 -0.29336464 -0.016996156 0.13799301 0.4842532 0.49058044 0.5179968 0.24653304
-0.3870749 -0.29947495 -0.23713602 -0.2925126 0.13003889 0.4546832 0.33671212 0.255315
-0.35374618 0.20851654 0.019206485 -0.49664867 -0.41013634 4.5751844e-05 -0.45934585 -0.053735137
-0.24363057 -0.41162688 -0.07057167 0.36253592 0.24993698 -0.21601793 -0.33764938 -0.29453778
-0.3142157 0.018644623 -0.061878677 -0.31191406 -0.2594 -0.095142655 0.53323495 0.57491887
0.5316714 -0.23020738 0.33707097 0.20812957 0.23214494 0.58265823 0.26611468 0.024594465
-0.31709298 0.10568288 0.20441005 -0.22917183 -0.53699464 -0.05699784 -0.068543024 0.13901246
-0.3048794 -0.12982303 0.101707086 -0.119959705 -0.1062791 0.39335963 -0.0029420604 -0.05762785
-0.08905907 0.19103469 0.22709957 0.5363805 -0.08001016 0.15248382 0.2097256 0.4311487
-0.08850619 0.2860426 0.1042267 -0.10082778 0.0048264647 -0.1348631 -0.33924198 0.04969216
-0.22675017 -0.09932353 -0.19726516 0.18604 0.15419492 0.34972093 0.5556835 0.43512648
-0.06491085 0.3906457 0.28071162 0.013864047 0.4116802 -0.107899584 0.13962767 -0.1659386
-0.47243893 -0.5988578 0.28374216 0.35326505 0.25365436 0.13183632 0.214414 0.12152242
0.15562785 0.045994893 0.13003436 0.41542664 -0.23892608 0.29547822 -0.37486118 -0.26387855
-0.014217419 0.26441827 -0.0426422 0.26075596 0.41858444 0.25018468 0.21773289 -0.45135882
-0.06235142 0.421664 -0.2987946 0.0483464 -0.05116248 0.17815791 0.26558995 0.24991956
0.5000871 0.13398668 0.28041592 0.24636793 -0.28065193 -0.27635977 -0.21963161 0.17634283
0.29858172 -0.3276892 -0.3246001 -0.12459232 -0.17066409 -0.30345365 -0.15580353 0.40435636
0.5834874 0.28377098 -0.37180516 -0.18905206 -0.46631202 0.29242292 0.1669555 0.2679106
-0.19094929 -0.10541188 0.39522746 -0.11933433 0.08136164 0.061112072 -0.062488303 -0.23121935
-0.21424752 -0.17124414 0.07829242 -0.2554644 0.3717712 0.11243921 -0.49983716 -0.33749935
00000000: 71b8 a3be dff4 a9be e222 70be 963b b13e
00000010: 8159 923d cead 87be 61c8 7b3d d646 fe3c
00000020: 4af9 3ebe 2957 8bbc 3e8c 98be 1260 b7be
00000030: ffb2 8c3e 990d 823e 1b69 2c3e bddc 64be
00000040: f8cf 5bbe e448 39be 6ead 153f 0318 0f3e
00000050: 3ada 79be 6714 c2be fec0 5e3e a7aa 7e3c
00000060: 979d 763e 70fb 433e 1ba3 803e 771a a63e
00000070: 995f 343e 0d63 1e3e b249 db3c f8a2 ae3e
00000080: 1535 04bf fe29 ba3e 22bd 4b3e 3dfd 06be
00000090: fdb7 55bc 824f a2bd 6b68 8abd 801a a4be
000000a0: d7ef 8fbe aa98 82be 524e 08bf a1b2 a5be
000000b0: 4791 013e 4d9a 923d 16a4 5abe 27b2 07bf
000000c0: 48e6 243e b8ce 73be 5743 9fbe 04b3 cabe
000000d0: c69d 0f3d 6950 b8be e9ce b1be f750 b7be
000000e0: a878 1e3e 066b db3e bb17 b83e a571 37be
000000f0: 2b51 0abe 1c16 ddbc c766 04be 3626 01bf
00000100: e662 42be 45fb e7be 08b0 0abe 2795 9d3d
00000110: 1658 b73e 708b cc3e dff0 c73e cc0b e23e
00000120: 16ab 70be 896e 44be a687 bbbe 74ba 093d
00000130: e234 e03d 358b 84be d878 583e bb2b 2e3e
00000140: e694 9c3e d687 673e 5f13 863e ac81 86bd
00000150: 0eec 133c 951d 933e aeaa 84be 689e 9cbd
00000160: a5cb 04bd e433 96be 863b 8bbc 0a4e 0d3e
00000170: 09f0 f73e 5c2d fb3e 709b 043f 2873 7c3e
00000180: ae2e c6be c854 99be c9d3 72be 36c4 95be
00000190: ea28 053e 3dcc e83e 8865 ac3e a6b8 823e
000001a0: 381e b5be 5c85 553e eb56 9d3c bc48 febe
000001b0: 64fd d1be abe5 3f38 612f ebbe 6019 5cbd
000001c0: 4b7a 79be c2c0 d2be e187 90bd 4f9e b93e
000001d0: 7bef 7f3e ce33 5dbe 61e0 acbe a8cd 96be
000001e0: e1e0 a0be 9cbc 983c 7f74 7dbd 33b3 9fbe
000001f0: 14d0 84be 27da c2bd 1682 083f e22d 133f
00000200: 9e1b 083f 7cbb 6bbe 9194 ac3e eb1f 553e
00000210: 67b7 6d3e 1729 153f 2f40 883e 557a c93c
00000220: 035a a2be 4470 d83d de50 513e 05ac 6abe
00000230: 7b78 09bf 9176 69bd 4960 8cbd 4859 0e3e
00000240: 2719 9cbe 54f0 04be ce4b d03d 6fad f5bd
00000250: dba8 d9bd 6f66 c93e 95cf 40bb 2e0b 6cbd
00000260: 9a64 b6bd 999e 433e ca8c 683e 3c50 093f
00000270: 5edc a3bd b824 1c3e 4fc2 563e 86bf dc3e
00000280: bc42 b5bd 2d74 923e cf74 d53d cc7e cebd
00000290: 5227 9e3b 8d19 0abe 20b1 adbe 028a 4b3d
000002a0: 3231 68be 236a cbbd e1ff 49be 4581 3e3e
000002b0: 46e5 1d3e 9f0e b33e 4641 0e3f e6c8 de3e
000002c0: fbef 84bd b702 c83e 6fb9 8f3e 0726 633c
000002d0: bfc7 d23e 75fa dcbd 8efa 0e3e cfeb 29be
000002e0: 84e3 f1be bf4e 19bf a746 913e 28df b43e
000002f0: fcde 813e 1a00 073e 588f 5b3e bfe0 f83d
00000300: e85c 1f3e 2465 3c3d ba27 053e cdb2 d43e
00000310: 0aa9 74be ec48 973e ceed bfbe 171b 87be
00000320: 2df0 68bc d561 873e 96a9 2ebd ce81 853e
00000330: b350 d63e 3518 803e 5ff5 5e3e 8118 e7be
00000340: 3464 7fbd 58e4 d73e 9bfb 98be e006 463d
00000350: c08f 51bd 076f 363e 68fb 873e eaea 7f3e
00000360: b505 003f ce33 093e ad92 8f3e e047 7c3e
00000370: 9cb1 8fbe 077f 8dbe 1ce7 60be 3793 343e
00000380: b4df 983e e1c6 a7be fc31 a6be 422a ffbd
00000390: 91c2 2ebe 475e 9bbe f68a 1fbe cc07 cf3e
000003a0: 6e5f 153f 6e4a 913e 3f5d bebe dd96 41be
000003b0: 73c0 eebe 75b8 953e 62f6 2a3e 942b 893e
000003c0: 3688 43be 2fe2 d7bd 415b ca3e 8f65 f4bd
000003d0: eea0 a63d a750 7a3d bcf3 7fbd c4c4 6cbe
000003e0: b463 5bbe a05a 2fbe c757 a03d 3bcc 82be
000003f0: cb58 be3e 8746 e63d a8ea ffbe b7cc acbe

bias f4 [64]
0.03134906 0.361978 0.47755438 0.14265977 0.21862039 0.0112675475 0.077625245 -0.3008706
-0.09132459 -0.12258681 -0.3000826 0.012764454 0.1790997 0.25119773 0.15254857 -0.37132546
0.34193504 -0.18018998 -0.2984633 -0.27662867 0.43032202 -0.423555 -0.3179421 0.27276608
-0.37373134 -0.09854561 0.29378834 -0.5122848 0.463822 -0.06787276 -0.21490416 0.5661176
0.03578859 0.29884604 0.26574084 0.193487 -0.16083036 0.33108094 -0.22595486 -0.08812688
0.27856806 0.3038868 -0.03061835 0.22128695 0.40552515 -0.12543543 0.1403228 -0.122616164
-0.2549476 0.32320675 -0.2694348 -0.4015868 0.3305867 0.43387738 0.096720114 0.40477458
0.3747537 0.26808816 -0.09656259 -0.29883808 0.47837123 0.3782926 -0.15999915 0.20772916
00000000: df67 003d 2e55 b93e 0282 f43e 6715 123e
00000010: 06de 5f3e 859b 383c fcf9 9e3d b60b 9abe
00000020: 6308 bbbd cb0e fbbd 6da4 99be 0022 513c
00000030: e965 373e fd9c 803e b135 1c3e 5f1e bebe
00000040: 1c12 af3e b983 38be 2fd0 98be 46a2 8dbe
00000050: 2b53 dc3e 33dc d8be 4fc9 a2be ffa7 8b3e
00000060: b759 bfbe 48d2 c9bd 6d6b 963e 1925 03bf
00000070: 147a ed3e e000 8bbd d60f 5cbe 15ed 103f
00000080: 0e97 123d 5902 993e 2f0f 883e 7521 463e
00000090: b7b0 24be 7183 a93e b660 67be de7b b4bd
000000a0: 79a0 8e3e 0d97 9b3e 55d3 fabc 0c99 623e
000000b0: fea0 cf3e 2572 00be c8b0 0f3e 2f1e fbbd
000000c0: 7e88 82be 5b7b a53e 5cf3 89be c99c cdbe
000000d0: a942 a93e 2d25 de3e 3215 c63d 9d3e cf3e
000000e0: b8df bf3e da42 893e 9bc2 c5bd 4e01 99be
000000f0: 13ed f43e 91af c13e d1d6 23be f4b6 543e

weight f4 [64, 64, 3]
0.08977753 0.042491682 0.05567658 -0.030465325 -0.015109057 -0.0041261897 -0.122707896 -0.11313753
-0.08813281 -0.099374846 -0.116989285 -0.08377315 -0.1367775 -0.12693693 -0.12965657 -0.03567967
-0.055538047 -0.038072724 0.008594097 0.013631168 0.015891192 0.09532316 0.06416748 0.046171356
0.024740025 0.013977481 0.031816732 0.05680432 -0.013105635 -0.02398415 0.06215929 0.060208857
0.058472026 -0.051283307 -0.05570584 -0.055709474 0.0582107 0.0361486 0.07321597 -0.13609871
-0.14427562 -0.16100559 -0.04148536 -0.029645788 -0.02120322 -0.032962844 -0.030283011 -0.050112177
0.052621942 0.04384597 0.05689287 -0.04629651 -0.04747059 -0.044606447 0.078781396 0.06680422
0.08571462 -0.016905684 0.002322132 -0.004963313 0.0037906854 0.010455004 -0.004411965 -0.17639595
-0.08530745 -0.10622044 -0.11381521 -0.081531174 -0.07647717 -0.0077462876 0.011298353 0.030866435
0.038013738 0.03180002 0.019851325 -0.0005009088 -0.021524385 0.028337158 -0.08649227 -0.10058126
-0.09526556 0.013662201 0.04201623 0.026566848 -0.00047180607 -0.025480676 0.0060962127 -0.18941797
-0.14745378 -0.10131672 -0.0008646874 0.027829055 0.0126182465 -0.18263716 -0.20391046 -0.1787532
-0.10097529 -0.084612526 -0.08321538 0.048593402 0.018001359 0.020875623 -0.16221388 -0.13925895
-0.14473027 0.00051661016 -0.040482856 0.00839371 -0.12911522 -0.07417053 -0.08329875 -0.060863055
-0.03922168 -0.04731619 0.05141986 0.01499698 0.062379748 0.07242408 0.041615505 0.090705045
-0.04439413 -0.033753242 -0.07188123 0.01744338 0.01251464 0.03166791 -0.036227517 -0.02394354
-0.030722804 0.048978623 0.03564902 0.051371362 0.011584401 0.014398858 0.013406004 0.06412084
0.058239788 0.062081687 -0.17626072 -0.11151289 -0.12705497 -0.06536235 -0.03665501 -0.033217356
0.12836102 0.09980872 0.11509355 -0.06881893 -0.05590347 -0.034552537 -0.057534043 0.007561246
-0.035756815 -0.040145975 -0.016657602 -0.010116244 -0.011359882 -0.018186709 0.028365424 -0.17113489
-0.1534345 -0.13924436 0.014634025 -0.010329472 -0.056702476 -0.021255441 -0.013651891 0.0014193883
-0.01775834 -0.009806279 0.0057446864 -0.07116482 -0.0561746 -0.06784567 -0.02672253 -0.031741206
-0.016171884 0.11992928 0.11372538 0.116495855 0.056513693 0.021147022 0.032427456 -0.12419949
-0.103687555 -0.09499798 0.06775684 0.05294302 0.11440659 -0.094367534 -0.103103675 -0.054139152
0.08432065 0.044998497 0.1178508 0.04523958 0.03765007 0.08536436 -0.055900734 -0.06270616
-0.016195303 -0.08176058 -0.033562183 -0.063863635 -0.16435751 -0.14840984 -0.14415967 -0.018710736
-0.030249616 0.047081392 0.06463845 0.05797007 0.06718191 0.14937481 0.06096001 0.13161138
0.07149578 0.07754637 0.0780211 0.026305242 -0.012315099 0.014121368 0.12661466 0.07194365
0.09135841 -0.1257281 -0.082567014 -0.11421033 0.09590298 0.07547419 0.14780974 -0.1442366
-0.15216193 -0.12290741 0.023358798 0.007091446 0.06909062 -0.1258029 -0.10347847 -0.11389631
0.08306188 0.100700684 0.09587289 -0.035103504 -0.050009403 0.049895953 0.14728673 0.08005043
0.21168594 0.010216888 -0.037888676 0.01193645 0.089412145 0.07733907 0.079339795 -0.21796378
00000000: 48dd b73d c20b 2e3d 200d 643d 6b92 f9bc
00000010: fa8b 77bc fd34 87bb 474e fbbd a6b4 e7bd
00000020: fa7e b4bd 0a85 cbbd 1498 efbd 4291 abbd
00000030: 670f 0cbe c1fb 01be b1c4 04be d824 12bd
00000040: dd7b 63bd 25f2 1bbd 41ce 0c3c 4355 5f3c
00000050: 3f2e 823c ca38 c33d 3d6a 833d 2d1e 3d3d
00000060: 98ab ca3c ce01 653c 4352 023d a6ab 683d
00000070: 04b9 56bc 687a c4bc bd9a 7e3d 909d 763d
00000080: 5d80 6f3d 720e 52bd cf2b 64bd 9e2f 64bd
00000090: 586e 6e3d 8e10 143d 41f2 953d 765d 0bbe
000000a0: fdbc 13be a6de 24be 8eec 29bd b9db f2bc
000000b0: 60b2 adbc 0c04 07bd 1414 f8bc 6d42 4dbd
000000c0: 1b8a 573d d597 333d 8008 693d 69a1 3dbd
000000d0: 8570 42bd 40b5 36bd 2458 a13d a7d0 883d
000000e0: 268b af3d ca7d 8abc e92e 183b 4aa3 a2bb
000000f0: 266d 783b 774b 2b3c 3f92 90bb 24a1 34be
00000100: acb5 aebd 1a8a d9bd f317 e9bd d1f9 a6bd
00000110: 10a0 9cbd 92d4 fdbb ba1c 393c 9bdb fc3c
00000120: 4bb4 1b3d bd40 023d 3f9f a23c 6c4f 03ba
00000130: e853 b0bc 5423 e83c dc22 b1bd 8cfd cdbd
00000140: 971a c3bd 6dd7 5f3c 3619 2c3d b8a2 d93c
00000150: bd5c f7b9 dabc d0bc bdc2 c73b c9f6 41be
00000160: 20fe 16be 247f cfbd 30ac 62ba c2f9 e33c
00000170: c3bc 4e3c 3c05 3bbe e7cd 50be 140b 37be
00000180: 22cc cebd 5549 adbd d36c aabd e009 473d
00000190: 9677 933c 5b03 ab3c 651b 26be e699 0ebe
000001a0: 2c34 14be 1f6d 073a 5ad1 25bd c585 093c
000001b0: c836 04be b8e6 97bd 8998 aabd 8a4b 79bd
000001c0: eaa6 20bd 9fce 41bd a29d 523d e5b5 753c
000001d0: e881 7f3d 1353 943d 0575 2a3d 91c3 b93d
000001e0: 9fd6 35bd d740 0abd 7736 93bd 6be5 8e3c
000001f0: 340a 4d3c 36b6 013d 4e63 14bd 3e25 c4bc
00000200: 64ae fbbc cf9d 483d b504 123d c76a 523d
00000210: 80cc 3d3c 30e9 6b3c dba4 5b3c c951 833d
00000220: d88c 6e3d 5e49 7e3d b17d 34be df60 e4bd
00000230: b31a 02be b2dc 85bd 9023 16bd ec0e 08bd
00000240: 1271 033e 8468 cc3d 2bb6 eb3d f0f0 8cbd
00000250: 09fb 64bd f686 0dbd d1a8 6bbd 54c4 f73b
00000260: bd75 12bd 1b70 24bd 8675 88bc 9abe 25bc
00000270: cc1e 3abc 4bfc 94bc 9b5e e83c fc3d 2fbe
00000280: ef1d 1dbe 1396 0ebe 8dc3 6f3c f23c 29bc
00000290: db40 68bd e41f aebc 2eac 5fbc c50a ba3a
000002a0: f079 91bc 84aa 20bc ec3d bc3b dcbe 91bd
000002b0: 5617 66bd acf2 8abd 35e9 dabc 1103 02bd
000002c0: e67a 84bc 7b9d f53d dae8 e83d 6195 ee3d
000002d0: e77a 673d 853c ad3c a7d2 043d 4d5c febd
000002e0: 245a d4bd 4d8e c2bd 19c4 8a3d c8da 583d
000002f0: 014e ea3d c443 c1bd 0528 d3bd 04c1 5dbd
00000300: 4eb0 ac3d 5850 383d c35b f13d 234d 393d
00000310: f636 1a3d 82d3 ae3d 2bf8 64bd 166c 80bd
00000320: 03ac 84bc 1772 a7bd 8078 09bd f0ca 82bd
00000330: 564d 28be c0f8 17be 989e 13be 4247 99bc
00000340: 0bce f7bc 6bd8 403d 2a61 843d 0672 6d3d
00000350: ab96 893d b6f5 183e 34b1 793d 22c5 063e
00000360: 616c 923d a2d0 9e3d 87c9 9f3d 177e d73c
00000370: 45c5 49bc 4f5d 673c 46a7 013e 3157 933d
00000380: 1e1a bb3d debe 00be e518 a9bd 1be7 e9bd
00000390: c868 c43d 3692 9a3d 705b 173e c2b2 13be
000003a0: 56d0 1bbe e1b6 fbbd f35a bf3c 5c5f e83b
000003b0: 627f 8d3d 7ad2 00be 85ec d3bd 7842 e9bd
000003c0: 591c aa3d 293c ce3d 0159 c43d b1c8 0fbd
000003d0: a9d6 4cbd b35f 4c3d 55d2 163e 7bf1 a33d
000003e0: 33c4 583e bc64 273c 2831 1bbd 1a91 433c
000003f0: b71d b73d f263 9e3d e77c a23d e631 5fbe

bias f4 [64]
-0.04347919 0.023610076 -0.043701462 0.002190009 -0.08341949 -0.085953526 -0.03757468 0.011641023
-0.063407406 -0.07718463 -0.037973255 -0.054935012 -0.078629985 -0.016735267 -0.051656567 0.031473402
0.0040288083 -0.04288247 0.05186429 -0.10968909 -0.058780562 -0.039766535 0.055707607 0.00032043742
-0.08087261 -0.09889279 -0.07227232 -0.11570501 -0.08037717 -0.05917493 -0.08966711 -0.09120355
-0.045495927 -0.07176914 -0.06560223 -0.03592353 -0.01980344 0.008571819 -0.04522744 -0.07346654
0.06306055 -0.02624102 -0.13883245 -0.07096988 -0.10416828 -0.06251808 -0.0024887444 -0.06676207
-0.07518836 -0.046632588 -0.09132571 -0.08414362 0.060726278 -0.045613393 -0.100998275 0.00876535
-0.094392516 0.03151675 0.07843701 -0.087991826 -0.030713279 -0.049929213 -0.053216435 0.0788936
00000000: 3c17 32bd eb69 c13c 4e00 33bd 4186 0f3b
00000010: d6d7 aabd 6708 b0bd e8e7 19bd fdb9 3e3c
00000020: bedb 81bd fa12 9ebd d889 1bbd 8903 61bd
00000030: c208 a1bd 6618 89bc d695 53bd 41ea 003d
00000040: 1804 843b 87a5 2fbd a66f 543d aca4 e0bd
00000050: e3c3 70bd 3ce2 22bd a92d 643d 6200 a839
00000060: 8aa0 a5bd 4e88 cabd 8303 94bd c0f6 ecbd
00000070: c99c a4bd 6961 72bd 64a3 b7bd edc8 babd
00000080: f059 3abd b3fb 92bd 765a 86bd 8d24 13bd
00000090: d33a a2bc d170 0c3c 6840 39bd a075 96bd
000000a0: e425 813d 68f7 d6bc 182a 0ebe a858 91bd
000000b0: 2e56 d5bd 7b09 80bd 341a 23bb 8dba 88bd
000000c0: 5bfc 99bd d001 3fbd f908 bbbd 7e53 acbd
000000d0: 1ebc 783d 1cd5 3abd 2fd8 cebd 8b9c 0f3c
000000e0: dd50 c1bd b517 013d 95a3 a03d 0f35 b4bd
000000f0: 6a9a fbbc 9382 4cbd 7af9 59bd f892 a13d

weight f4 [64, 64, 3]
-0.023923215 -0.03936457 0.11278015 -0.0025137346 -0.05642538 0.0405747 0.13660432 -0.11366398
0.027056374 0.053459242 -0.1599543 0.063218385 -0.070261344 -0.13740773 0.051135495 -0.032576855
-0.3123596 -0.035209063 0.07812361 -0.3037429 -0.10271173 0.12747297 -0.14498095 0.059267186
-0.024305638 -0.16398963 0.14432517 -0.09536669 -0.026924822 0.15434437 0.15612668 -0.04618078
-0.05212283 -0.06894861 -0.27383024 -0.051554635 -0.11242387 -0.012394333 0.13049778 -0.00069470285
-0.06515153 0.09687961 0.002030908 -0.08220341 0.10418046 -0.0023621786 -0.11041547 0.09877369
0.0441909 -0.1409833 0.076972686 0.058538463 -0.20197709 -0.028705109 -0.064219825 0.12556471
-0.10777124 0.072792284 -0.28915322 -0.11210651 0.0018451603 -0.33339724 -0.0740511 -0.007842379
-0.13645588 0.12904824 -0.34847894 0.26747316 -0.22753839 -0.030607183 -0.12286126 0.12418815
0.025683388 -0.044847038 -0.14062345 0.018550368 -0.16724914 0.0672671 -0.044383794 -0.25850156
0.0093121 -0.070421256 -0.00788215 0.15049571 0.03394508 -0.23864256 0.023312354 0.057793465
-0.2919994 -0.12407297 -0.14587286 -0.25055802 -0.04431239 -0.032853782 -0.27027053 -0.050518323
5.5763838e-05 -0.2518047 -0.060891163 -0.15252642 -0.14811997 0.07050083 -0.084780484 -0.3268919
0.014072569 0.0758286 -0.3149002 -0.072952844 0.11947636 -0.11249706 0.08411622 0.04256707
-0.056510005 -0.20719397 0.04617296 -0.006345011 -0.03148966 -0.1282708 0.0047735716 0.16076887
-0.32164243 0.28735074 -0.18972257 0.22288711 -0.12679428 0.021375846 -0.23261304 -0.029402804
0.11233789 -0.17273135 0.06245461 0.08730315 0.037443437 -0.16827941 0.03317066 -0.10993625
-0.2543961 -0.064054094 -0.04573143 -0.093255885 0.13803892 -0.037817378 -0.06901451 0.09830985
0.07315346 -0.099461176 -0.09896717 -0.06690459 -0.070557214 0.092982 0.08470033 -0.21185435
-0.115542814 -0.11788035 -0.12441426 0.08695217 -0.14849533 0.20409465 -0.17509143 0.014185525
-0.25990546 -0.13520369 0.032067157 -0.29606724 -0.0366084 0.03223848 -0.09794354 0.075966686
0.09563306 -0.31510416 -0.024945589 0.020943912 -0.10993173 0.07479134 -0.09338146 0.094643354
-0.11456671 -0.0060009696 -0.26060987 -0.10010384 0.044144064 -0.2090122 -0.059820138 -0.059579004
-0.2532491 -0.067421995 0.0029594065 -0.2571194 -0.14380853 -0.37964818 0.42266357 -0.05164331
-0.022114638 0.007439919 -0.0024567626 -0.109367594 0.03021338 -0.00069605623 0.042617775 -0.005265594
-0.0016707649 -0.04617684 -0.0012677086 -0.0006925567 0.05571762 -0.0011715086 -0.046715267 0.059382144
-0.0059772665 0.032955814 0.115317166 -0.013298367 0.019890178 -0.010795827 0.018075421 -0.0022450094
0.041879002 -0.008924489 -0.0196758 0.048300285 -0.026588425 0.012264106 0.035524864 -0.0385428
0.017087333 0.027855132 -0.019318298 -0.04940088 -0.058756076 0.026608048 -0.008612066 -0.13530152
0.031442005 -0.0098035075 -0.045962818 0.051100302 -0.0032187216 0.034551293 -0.10360113 -0.055556353
-0.14257649 0.021924704 0.02717435 -0.039032634 -0.0016944031 0.011010179 -0.0529306 -0.013946496
-0.02178017 -0.004428042 -0.051026322 -0.020151565 0.11439731 -0.056431867 -0.06158846 -0.025912818
00000000: 9efa c3bc be3c 21bd 47f9 e63d 78bd 24bb
00000010: 4d1e 67bd a831 263d 01e2 0b3e a9c8 e8bd
00000020: 54a5 dd3c 14f8 5a3d 0fcb 23be a478 813d
00000030: 2ee5 8fbd 9db4 0cbe 7473 513d 4f6f 05bd
00000040: 99ed 9fbe 6137 10bd 45ff 9f3d 3084 9bbe
00000050: 875a d2bd 4688 023e e375 14be 26c2 723d
00000060: 9e1c c7bc e6ec 27be fac9 133e 9c4f c3bd
00000070: 7291 dcbc 730c 1e3e acdf 1f3e 0f28 3dbd
00000080: c07e 55bd ee34 8dbd 7a33 8cbe f42a 53bd
00000090: 7c3e e6bd 9a11 4bbc 36a1 053e b81c 36ba
000000a0: 2a6e 85bd d168 c63d fb18 053b 435a a8bd
000000b0: 915c d53d c8ce 1abb 8221 e2bd dc49 ca3d
000000c0: 8401 353d ed5d 10be dba3 9d3d 07c6 6f3d
000000d0: 15d3 4ebe fa26 ebbc af85 83bd 0994 003e
000000e0: 2bb7 dcbd 1f14 953d e40b 94be 1998 e5bd
000000f0: 4ed9 f13a 0bb3 aabe 1aa8 97bd 527d 00bc
00000100: 17bb 0bbe 3925 043e d56b b2be 3ef2 883e
00000110: d3ff 68be eabb fabc af9e fbbd 5b56 fe3d
00000120: f865 d23c 87b1 37bd 98ff 0fbe f1f6 973c
00000130: 5c43 2bbe 55c3 893d c8cb 35bd 515a 84be
00000140: c791 183c 0539 90bd 2224 01bc 8c1b 1a3e
00000150: ff09 0b3d b75e 74be 8df9 be3c d7b8 6c3d
00000160: f280 95be f819 febd b25f 15be 2449 80be
00000170: e980 35bd b091 06bd e660 8abe 4dec 4ebd
00000180: f7e3 6938 8cec 80be 0369 79bd e32f 1cbe
00000190: c3ac 17be bd62 903d 64a1 adbd 605e a7be
000001a0: a290 663c 064c 9b3d 993a a1be 4d68 95bd
000001b0: 06b0 f43d dc64 e6bd 2045 ac3d cf5a 2e3d
000001c0: 0977 67bd a82a 54be dc1f 3d3d cfe9 cfbb
000001d0: 4dfb 00bd 6c59 03be 9f6b 9c3b 98a0 243e
000001e0: 51ae a4be a31f 933e a246 42be 853c 643e
000001f0: 5cd6 01be 661c af3c 1d32 6ebe 26de f0bc
00000200: 6811 e63d 7de0 30be 68d0 7f3d fecb b23d
00000210: 4a5e 193d 7051 2cbe f5dd 073d 4226 e1bd
00000220: 3540 82be cb2e 83bd e150 3bbd f1fc bebd
00000230: 135a 0d3e 65e6 1abd 7b57 8dbd ad56 c93d
00000240: 7bd1 953d 4db2 cbbd 4daf cabd 4605 89bd
00000250: 4d80 90bd 596d be3d 5e77 ad3d 59f0 58be
00000260: b6a1 ecbd 416b f1bd e7cc febd fb13 b23d
00000270: 290f 18be 30fe 503e 2b4b 33be 676a 683c
00000280: 5412 85be d672 0abe da58 033d 2096 97be
00000290: b1f2 15bd 7f0c 043d 9f96 c8bd 6c94 9b3d
000002a0: 44db c33d 5555 a1be b15a ccbc 9192 ab3c
000002b0: e323 e1bd 342c 993d c73e bfbd 60d4 c13d
000002c0: f4a1 eabd c8a3 c4bb a86e 85be 3e03 cdbd
000002d0: 68d0 343d 4b07 56be f605 75bd 1d09 74bd
000002e0: dea9 81be 8b14 8abd 9af2 413b 27a5 83be
000002f0: 8b42 13be 3f61 c2be 5c67 d83e ef87 53bd
00000300: c229 b5bc 90ca f33b a301 21bb 1efc dfbd
00000310: 0d82 f73c 8b77 36ba fa8f 2e3d 018b acbb
00000320: 91fd daba ed23 3dbd 3e29 a6ba b28c 35ba
00000330: 2938 643d 4e8d 99ba 8258 3fbd b13a 733d
00000340: f2dc c3bb adfc 063d 682b ec3d 65e1 59bc
00000350: baf0 a23c fbe0 30bc e812 943c 0221 13bb
00000360: 5189 2b3d 0538 12bc 252f a1bc 85d6 453d
00000370: f8cf d9bc 64ef 483c 8582 113d 0edf 1dbd
00000380: bcfa 8b3c 7230 e43c 6841 9ebc 9458 4abd
00000390: 36aa 70bd 1ff9 d93c 9f19 0dbc 7b8c 0abe
000003a0: 55c9 003d e49e 20bc 8243 3cbd 8d4e 513d
000003b0: 30f1 52bb a885 0d3d d42c d4bd 0f8f 63bd
000003c0: 92ff 11be 709b b33c be9c de3c afe0 1fbd
000003d0: bc16 deba 0a64 343c c2cd 58bd d87f 64bc
000003e0: 546c b2bc 1c19 91bb fa00 51bd e514 a5bc
000003f0: 2349 ea3d 1a25 67bd 2e44 7cbd 1e47 d4bc

bias f4 [64]
-0.0569305 -0.019506048 -0.119509734 -0.032750715 -0.018771416 -0.03283149 -0.04123352 -0.089517675
-0.012288892 0.011030508 -0.010718974 -0.04576808 -0.020126063 -0.076040216 -0.16316293 -0.022505714
-0.017192438 -0.017493593 -0.076244526 -0.029469516 -0.019455587 -0.0211925 -0.005995608 -0.008989381
-0.010569257 -0.01911401 0.05011146 -0.08024225 -0.018984262 -0.06668154 -0.042358823 -0.024412528
-0.042940743 -0.0065847714 -0.008810033 -0.025650311 -0.023412824 -0.01952544 -0.004418648 -0.032024935
0.004956522 -0.03971801 -0.0006267321 -0.027908016 -0.038011525 -0.03182453 -0.018597255 -0.028012909
-0.045439858 -0.013045934 -0.07564682 -0.08387183 -0.01480739 -0.097899616 -0.042316385 -0.043636076
-0.033776313 -0.02680031 -0.0256436 -0.012498701 -0.015147177 -0.083759844 -0.03695688 -0.012110323
00000000: f52f 69bd 26cb 9fbc 85c1 f4bd 9d25 06bd
00000010: 83c6 99bc 507a 06bd 7be4 28bd 0b55 b7bd
00000020: 5957 49bc 4eb9 343c a39e 2fbc 4f77 3bbd
00000030: 6adf a4bc f9ba 9bbd 2f14 27be e75d b8bc
00000040: 28d7 8cbc b94e 8fbc 1726 9cbd 0e6a f1bc
00000050: 5361 9fbc e59b adbc ce76 c4bb 3248 13bc
00000060: ad2a 2dbc fc94 9cbc ad41 4d3d 0c56 a4bd
00000070: e284 9bbc 5590 88bd 7280 2dbd c8fc c7bc
00000080: a2e2 2fbd 11c5 d7bb f557 10bc 9a20 d2bc
00000090: 40cc bfbc d1f3 9fbc 4eca 90bb 942c 03bd
000000a0: 526a a23b 5aaf 22bd 474b 24ba 5a9f e4bc
000000b0: f9b1 1bbd 705a 02bd 4559 98bc 547b e5bc
000000c0: 251f 3abd 9dbe 55bc b8ec 9abd fec4 abbd
000000d0: b29a 72bc 987f c8bd f253 2dbd bebb 32bd
000000e0: 0859 0abd 538c dbbc 8712 d2bc 5ac7 4cbc
000000f0: dd2b 78bc 488a abbd 1960 17bd 606a 46bc

weight f4 [64, 64, 3]
0.06403895 -0.26395985 0.10202208 0.002107174 -0.0306534 0.04089215 0.1501583 -0.5925572
-0.18093562 0.056241795 -0.060436346 0.0034997284 0.06853025 -0.030911071 -0.016551493 0.04818135
-0.031668205 0.0052737286 0.061486606 -0.24228469 -0.0347696 -0.06265205 -0.03338545 -0.050025765
-0.042502616 0.014260035 -0.004443294 0.11609277 -0.21417506 -0.09131611 -0.009242396 -0.05865369
0.03975146 0.013575236 -0.028153308 0.01930497 0.009343882 -0.051173408 0.008839275 0.08277681
-0.23340556 0.06461129 0.13995631 -0.6783785 0.29314485 -0.027655836 -0.053688258 -0.00049309473
0.09038066 -0.11143448 0.10548863 -0.062605396 -0.039506856 -0.015136577 -0.08213303 0.05085169
-0.08686728 -0.078233264 0.016439585 0.010345603 0.045417227 -0.056453254 -0.0036850618 0.07142922
-0.04755825 0.026966728 0.011685057 -0.042072706 0.025186427 0.026786756 -0.08043836 0.11273299
-0.013486238 -0.0017273482 -0.077268854 -0.07877984 0.07395111 -0.0637197 0.029541776 0.005245994
-0.0439445 -0.031545337 0.06538034 -0.048157364 0.003958533 -0.033191286 0.04562802 -0.069346815
0.11491274 -0.0999609 0.08216854 -0.130576 -0.061093982 -0.028654438 -0.04816527 -0.011723445
-0.03989005 -0.066403314 -0.003962762 -0.051636763 0.023354432 0.058602933 -0.004477979 0.016084481
-0.03144891 -0.049145594 -0.041639093 -0.02733788 0.033834815 -0.004926574 -0.019743936 -0.022061093
0.010461116 0.010391161 0.029411405 -0.0042241924 -0.0019093524 0.02853945 -0.040569812 -0.009535305
0.006837523 0.03095508 0.01020827 -0.023659892 -0.29585156 0.04147547 -0.019292403 -0.038522232
0.007629615 -0.02762982 -0.02711699 -0.009339448 -0.005195181 -0.02837187 0.006260655 -0.047647353
-0.043971203 0.014589021 0.05934195 -0.11830541 0.07560456 -0.05035997 -0.042265948 -0.04595259
0.042932197 -0.008198523 0.016150728 0.042544186 -0.06952963 0.067224875 -0.0467402 0.02932977
-0.01587863 0.0007533863 0.013549712 -0.20733236 0.033998676 -0.0568454 0.041211 0.06280822
-0.788238 0.058676057 -0.014142176 -0.07984786 0.0027522843 0.0126084015 -0.006796803 0.023780163
0.043342665 -0.0037745084 -0.028256057 0.04013125 0.0072699357 0.051797386 0.057680484 -0.015684418
0.0037370753 0.041823346 -0.024532253 0.0058556455 -0.042359788 0.028629221 -0.033151507 -0.05549036
0.07354731 -0.050762273 0.01726267 -0.0016773967 0.035226885 0.059583183 -0.010022561 0.009593677
-0.07396821 0.05864528 -0.043436754 0.036400497 0.11489187 -0.024135375 -0.047070473 -0.012207079
-0.023033662 -0.07284426 -0.22725193 -0.052092306 0.15128638 -0.06100522 0.03357216 0.1488727
0.088726625 -0.0092933625 0.0047210776 -0.07833355 0.028659029 0.121266745 0.121119924 0.07405662
0.027534073 -0.062694974 0.047929205 0.029638873 -0.08863578 -0.105816804 0.0067831087 0.052730337
0.030923791 0.17100795 0.16850659 -0.028981403 -0.13039066 -0.31140333 0.021675842 0.011298819
-0.051035795 -0.043306086 -0.041302513 -0.024317851 -0.07190568 -0.019246958 0.096736096 0.018107707
0.078313634 0.0017452171 0.0036384265 -0.22087556 -0.22437525 0.057572097 -0.0070904866 -0.024331605
-0.008214679 0.053833656 0.26628172 -0.08641898 -0.038917795 0.028087303 0.027015569 0.02855122
00000000: da26 833d bf25 87be f4f0 d03d 8318 0a3b
00000010: d71c fbbc 877e 273d 19c3 193e d4b1 17bf
00000020: 3047 39be cc5d 663d 1a8c 77bd b35b 653b
00000030: 9659 8c3d 3739 fdbc ff96 87bc cf59 453d
00000040: 85b6 01bd 3ecf ac3b 61d9 7b3d 7a19 78be
00000050: 916a 0ebd b84f 80bd 2ebf 08bd d1e7 4cbd
00000060: 3917 2ebd eca2 693c 0d99 91bb 0cc2 ed3d
00000070: b550 5bbe f103 bbbd 6b6d 17bc da3e 70bd
00000080: 6dd2 223d ab6a 5e3c c4a1 e6bc 7525 9e3c
00000090: 1517 193c 359b 51bd 9bd2 103c e386 a93d
000000a0: de01 6fbe ed52 843d b550 0f3e 37aa 2dbf
000000b0: 1517 963e 7e8e e2bc 38e8 5bbd 0743 01ba
000000c0: 7f19 b93d c337 e4bd 6c0a d83d 4237 80bd
000000d0: f1d1 21bd 68ff 77bc 5d35 a8bd dd49 503d
000000e0: 79e7 b1bd c338 a0bd 4fac 863c 9b80 293c
000000f0: 6a07 3a3d 873b 67bd 1481 71bb 7c49 923d
00000100: 71cc 42bd 54e9 dc3c ae72 3f3c 6e54 2cbd
00000110: c453 ce3c e66f db3c debc a4bd 8ee0 e63d
00000120: 62f5 5cbc 3068 e2ba 223f 9ebd 5357 a1bd
00000130: ae73 973d 797f 82bd 9801 f23c 96e6 ab3b
00000140: 26ff 33bd af35 01bd 21e6 853d a840 45bd
00000150: 95b6 813b 96f3 07bd 72e4 3a3d b405 8ebd
00000160: 5f57 eb3d 4db8 ccbd fb47 a83d b7b5 05be
00000170: af3d 7abd b6bc eabc f248 45bd b113 40bc
00000180: c063 23bd 76fe 87bd 0fda 81bb 1281 53bd
00000190: cb51 bf3c a109 703d 03bc 92bb 9ac3 833c
000001a0: 92d0 00bd e44c 49bd c18d 2abd b1f3 dfbc
000001b0: 6096 0a3d 196f a1bb 09be a1bc 77b9 b4bc
000001c0: 1a65 2b3c b03f 2a3c 30f0 f03c 186b 8abb
000001d0: 3c43 faba 91cb e93c 882c 26bd f839 1cbc
000001e0: 4d0d e03b 8295 fd3c 9640 273c 64d2 c1bc
000001f0: db79 97be 2fe2 293d 1a0b 9ebc 7dc9 1dbd
00000200: d901 fa3b ef57 e2bc 7324 debc 7c04 19bc
00000210: 563c aabb 206c e8bc 2e26 cd3b df29 43bd
00000220: 261b 34bd ca06 6f3c 8b10 733d 1b4a f2bd
00000230: 90d6 9a3d 4246 4ebd 0f1f 2dbd c838 3cbd
00000240: acd9 2f3d 1953 06bc 884e 843c d042 2e3d
00000250: 8d65 8ebd 32ad 893d a772 3fbd fc44 f03c
00000260: e713 82bc e67e 453a 9cff 5d3c ef4e 54be
00000270: 3242 0b3d b9d6 68bd decc 283d 99a1 803d
00000280: f7c9 49bf 4e56 703d 96b4 67bc 4687 a3bd
00000290: ab5f 343b 7893 4e3c b7b7 debb 9ece c23c
000002a0: 1488 313d be5d 77bb 3f79 e7bc aa60 243d
000002b0: a438 ee3b 7f29 543d 5f42 6c3d 9c7c 80bc
000002c0: b8e9 743b f54e 2b3d ddf7 c8bc b7e0 bf3b
000002d0: 7581 2dbd d487 ea3c e0c9 07bd dc49 63bd
000002e0: f99f 963d 1aec 4fbd 716a 8d3c 18dc dbba
000002f0: 114a 103d 7f0d 743d ab35 24bc cc2e 1d3c
00000300: a57c 97bd 0836 703d bdea 31bd b018 153d
00000310: 6e4c eb3d 8db7 c5bc f8cc 40bd 3300 48bc
00000320: 17b1 bcbc 5f2f 95bd bbb4 68be be5e 55bd
00000330: d1ea 1a3e 9ce0 79bd f682 093d 1672 183e
00000340: 4eb6 b53d 3043 18bc 45b3 9a3b 576d a0bd
00000350: 57c6 ea3c b35a f83d b90d f83d ffaa 973d
00000360: 238f e13c 3966 80bd 6a51 443d 39cd f23c
00000370: ad86 b5bd 7bb6 d8bd d744 de3b c4fb 573d
00000380: e453 fd3c b51c 2f3e fe8c 2c3e 686a edbc
00000390: 2185 05be 4270 9fbe 8991 b13c af1e 393c
000003a0: e90a 51bd b961 31bd d32c 29bd 3b36 c7bc
000003b0: 4943 93bd ccab 9dbc 931d c63d 9d56 943c
000003c0: e662 a03d c5bf e43a ab72 6e3b 342d 62be
000003d0: a0c2 65be b8d0 6b3d 5057 e8bb 1353 c7bc
000003e0: dc96 06bc ae80 5c3d 1456 883e 6ffc b0bd
000003f0: 4468 1fbd 5817 e63c c14f dd3c 40e4 e93c

bias f4 [64]
-0.031289514 0.0062180418 -0.016102187 -0.055676565 0.03476233 -0.00781482 -0.022448286 0.008625487
-0.08192556 -0.09838215 -0.1603305 -0.07288707 -0.052827694 -0.052583575 -0.06454011 0.024695752
-0.019479144 0.014189257 0.02043697 0.046928864 0.055978283 0.013601996 0.02513705 -0.0036415197
-0.012373679 -0.017559517 -0.014969055 -0.057122238 -0.011237334 0.015063678 -0.113811255 -0.041021574
-0.060889788 -0.0166683 -0.015636953 -0.013191548 -0.08015169 -0.09507567 0.07693141 -0.047787283
0.0030574703 0.06625931 0.015110016 0.04637206 -0.013966031 0.08183808 -0.020601079 0.061424904
-0.067579165 -0.00014248544 -0.07398012 -0.040392857 0.06722423 -0.07291799 -0.03500933 -0.060628053
-0.037268028 -0.106217824 -0.070486315 0.0235598 -0.013723102 -0.025098518 0.017557256 -0.012852921
00000000: 6f29 00bd b7c0 cb3b bce8 83bc 1c0d 64bd
00000010: f262 0e3d bb09 00bc 78e5 b7bc ea51 0d3c
00000020: 97c8 a7bd 957c c9bd ae2d 24be d145 95bd
00000030: da61 58bd e061 57bd 9b2d 84bd bf4e ca3c
00000040: ba92 9fbc 0f7a 683c 6f6b a73c 7b38 403d
00000050: 7c49 653d e8da 5e3c 37ec cd3c 90a6 6ebb
00000060: f9ba 4abc fad8 8fbc c440 75bc 02f9 69bd
00000070: cc1c 38bc a5cd 763c e015 e9bd 3d06 28bd
00000080: 9267 79bd f58b 88bc 1119 80bc 5d21 58bc
00000090: 9226 a4bd 08b7 c2bd 378e 9d3d 99bc 43bd
000000a0: d75f 483b f6b2 873d 0090 773c a1f0 3d3d
000000b0: c8d1 64bc b99a a73d 98c3 a8bc ae98 7b3d
000000c0: f266 8abd 2568 15b9 e482 97bd fb72 25bd
000000d0: dbac 893d 0756 95bd f165 0fbd 1f55 78bd
000000e0: 5ca6 18bd bb88 d9bd 215b 90bd 7b00 c13c
000000f0: ddd6 60bc 689b cdbc 3cd4 8f3c 0f95 52bc

weight f4 [64, 64, 3]
0.024421131 0.17478712 0.073864244 -0.036819045 -0.032896902 0.050614547 0.016809631 -0.024594149
-0.030295439 -0.033617362 0.0145033095 -0.013911765 0.0097494805 0.016989063 0.12428826 0.043064047
-0.013223335 -0.07453387 -0.06494717 0.03308616 -0.015703175 0.047350444 0.062476452 0.018057654
-0.06905712 0.024985561 0.08933903 0.0108036315 -0.1199112 -0.07964861 -0.039128076 -0.029425794
-0.046701446 -0.055511963 -0.03504704 -0.049959112 0.13951428 -0.013307692 -0.053251676 -0.020954877
0.029473921 0.029409824 0.022259949 -0.2767095 -0.11066748 0.02359141 0.07031211 0.03744848
0.034289144 -0.02375666 0.055383727 0.029556314 0.01628868 -0.08062377 0.08326325 -0.039164174
-0.0044354247 -0.011442119 0.058228284 0.11183319 0.010152623 0.039546143 -0.0022482264 0.060074773
0.05444039 0.051913984 -0.10192986 -0.13081989 -0.13996258 0.026758667 0.13336886 0.1045076
0.07179269 -0.020830924 0.019738695 -0.012828009 -0.067138575 -0.1283801 0.012044468 0.017282277
0.07136037 0.031070504 -0.026298724 0.011550291 0.04768507 0.06941287 -0.0017624547 -0.030584536
-0.16236895 -0.25752708 -0.0056057656 0.09790357 0.117154665 -0.07908521 -0.029903898 -0.048126563
-0.03615114 -0.009378936 0.0052744728 0.086493656 0.10389712 0.026257899 0.04225094 0.020183682
0.0016158959 0.0924757 0.012216815 -0.033797488 0.04620433 0.0076581547 0.1691002 -0.0067552784
-0.0048207655 -0.046759907 -0.017850118 -0.078070655 -0.029000027 0.042967442 0.006104706 -0.057200193
-0.0105798775 0.039392706 0.016383171 0.006851696 0.05833789 0.022044027 0.04770602 0.021664709
0.035394654 -0.007837176 -0.025664417 -0.015161754 -0.028311986 0.06473998 0.033792313 -0.024221037
-0.016232548 0.008903716 0.014177626 -0.025798079 -0.0897891 -0.014134675 0.036940124 -0.005195314
0.0827484 0.013770479 0.038262077 -0.22671293 -0.20094188 -0.16209915 0.048150063 -0.026668768
0.0029192006 -0.067523524 -0.038879395 0.015924606 -0.007769833 0.0671015 0.040855695 0.013290642
0.069497 0.08906034 0.005178323 -0.010937955 0.045056395 0.0188524 0.06945974 0.010305449
-0.058812924 0.009673373 -0.0061134924 -0.07304708 -0.09796264 -0.15026686 0.011462478 0.006353857
0.033646364 -0.026901167 -0.066544145 -0.052885268 0.1097929 0.0015958388 0.032038845 0.047083985
-0.00032332054 -0.08177989 -0.046052687 -0.035634484 -0.007948402 0.007822224 0.0054450165 -0.03734475
0.07829996 0.067606136 0.006779917 0.0018696095 0.006116582 -0.062925465 -0.00048641834 -0.06202431
-0.115224645 0.0944405 0.085084796 0.008750224 0.0069483332 -0.03628766 -0.068883285 0.046377987
0.013209777 -0.083364755 -0.025011273 0.022998353 -0.04259205 -0.00024423256 -0.03247113 -0.01164274
-0.05119423 -0.032123625 -0.011116715 0.043447018 0.03951549 -0.03811265 -0.05819392 0.040995046
0.036353625 0.0029595452 -0.028689126 -0.010187438 0.08057507 0.052170455 -0.013854345 -0.06273202
-0.019131029 0.022644987 -0.005175354 -0.0071380544 0.079191804 -0.052383665 -0.031654157 0.023506755
0.043180946 -0.012430782 -0.03400415 0.121629916 0.028997445 -0.035893198 -0.018334957 0.00738726
-0.022001162 0.032678667 0.014239871 -0.022963598 0.023910532 8.668152e-05 0.0626297 -0.05788422
00000000: d30e c83c 65fb 323e 2346 973d 91cf 16bd
00000010: e7be 06bd 3351 4f3d 5ab4 893c ab79 c9bc
00000020: 242e f8bc 5cb2 09bd 4a9f 6d3c 2cee 63bc
00000030: 49bc 1f3c a62c 8b3c d88a fe3d ed63 303d
00000040: b0a6 58bc 37a5 98bd 0603 85bd 5a85 073d
00000050: f2a3 80bc 8af2 413d 4fe7 7f3d a5ed 933c
00000060: d26d 8dbd 85ae cc3c 62f7 b63d b701 313c
00000070: 0194 f5bd cf1e a3bd c344 20bd 5d0e f1bc
00000080: 044a 3fbd 8360 63bd 7c8d 0fbd eda1 4cbd
00000090: d5dc 0e3e 8108 5abc 6e1e 5abd 90a9 abbc
000000a0: 4b73 f13c dfec f03c 7f5a b63c deac 8dbe
000000b0: a2a5 e2bd c642 c13c ccff 8f3d 9463 193d
000000c0: c672 0c3d 549d c2bc 0cda 623d 1520 f23c
000000d0: d66f 853c 131e a5bd ec85 aa3d 9d6a 20bd
000000e0: 0a57 91bb ba77 3bbc c880 6e3d cd08 e53d
000000f0: 3057 263c 23fb 213d fb56 13bb f710 763d
00000100: e3fc 5e3d c2a3 543d 9ac0 d0bd a6f5 05be
00000110: 5a52 0fbe fe34 db3c d991 083e 1508 d63d
00000120: 0c08 933d 9da5 aabc 0bb3 a13c 922c 52bc
00000130: f37f 89bd 1376 03be 2956 453c 9093 8d3c
00000140: 6325 923d 9287 fe3c 6c70 d7bc 6f3d 3d3c
00000150: 6c51 433d 5628 8e3d 2b02 e7ba 6c8c fabc
00000160: 0c44 26be 97da 83be 92b0 b7bb ab81 c83d
00000170: c9ee ef3d 6df7 a1bd 05f9 f4bc 5c20 45bd
00000180: 3813 14bd 1caa 19bc 7cd5 ac3b 9623 b13d
00000190: 03c8 d43d ce1a d73c 520f 2d3d 4058 a53c
000001a0: 78cc d33a e663 bd3d 0929 483c 3c6f 0abd
000001b0: c040 3d3d 42f1 fa3b 9a28 2d3e 625b ddbb
000001c0: 83f7 9dbb 5187 3fbd 693a 92bc 82e3 9fbd
000001d0: 7791 edbc a1fe 2f3d fc09 c83b c04a 6abd
000001e0: 3957 2dbc 3f5a 213d 0036 863c 3184 e03b
000001f0: b6f3 6e3d ad95 b43c 6367 433d 307a b13c
00000200: fcf9 103d 8067 00bc 2f3e d2bc 0169 78bc
00000210: 8aee e7bc 6596 843d cf69 0a3d 326b c6bc
00000220: 1ffa 84bc e4e0 113c 4649 683c 7e56 d3bc
00000230: 59e3 b7bd 2095 67bc 874e 173d 743d aabb
00000240: fe77 a93d 939d 613c b2b8 1c3d 6f27 68be
00000250: b5c3 4dbe 52fd 25be 0039 453d 7678 dabc
00000260: 0f50 3f3b c649 8abd 0040 1fbd 5274 823c
00000270: 159a febb 836c 893d 4d58 273d fec0 593c
00000280: 7154 8e3d 4465 b63d ecae a93b 1c35 33bc
00000290: 0e8d 383d 5970 9a3c e840 8e3d 30d8 283c
000002a0: d2e5 70bd 117d 1e3c b153 c8bb b599 95bd
000002b0: a3a0 c8bd 8edf 19be 1ecd 3b3c 0434 d03b
000002c0: c5d0 093d d65f dcbc 4c48 88bd 399e 58bd
000002d0: 1adb e03d 772b d13a 2a3b 033d 23db 403d
000002e0: 5983 a9b9 377c a7bd bea1 3cbd 77f5 11bd
000002f0: 043a 02bc c928 003c 1c6c b23b cff6 18bd
00000300: bb5b a03d 1675 8a3d 112a de3b af0d f53a
00000310: 9c6d c83b 11df 80bd f705 ffb9 340d 7ebd
00000320: e6fa ebbd 056a c13d f040 ae3d 195d 0f3c
00000330: d8ae e33b 5fa2 14bd ae12 8dbd d8f6 3d3d
00000340: d26d 583c 24bb aabd 71e4 ccbc 0b67 bc3c
00000350: 0075 2ebd 570c 80b9 7300 05bd 31c1 3ebc
00000360: 0ab1 51bd 1094 03bd e222 36bc 80f5 313d
00000370: ffda 213d 031c 1cbd bf5c 6ebd 6cea 273d
00000380: 8ae7 143d eef4 413b 7505 ebbc 36e9 26bc
00000390: 8b04 a53d b0b0 553d 56fd 62bc a579 80bd
000003a0: adb8 9cbc fb81 b93c 0496 a9bb 57e6 e9bb
000003b0: 502f a23d 4190 56bd caa7 01bd 3d91 c03c
000003c0: 81de 303d 7baa 4bbc f047 0bbd 1b19 f93d
000003d0: 0d8c ed3c bf04 13bd 3133 96bc d410 f23b
000003e0: c83b b4bc 11da 053d 594e 693c 281e bcbc
000003f0: 05e0 c33c c9c8 b538 0044 803d 0118 6dbd

bias f4 [64]
-0.0026093225 -0.044333246 -0.110384636 -0.0035631463 -0.08779244 -0.12027039 -0.012299497 -0.01067299
0.034673095 -0.07010924 -0.045513317 0.014966919 -0.05699958 -0.15032764 -0.023267535 -0.062032092
-0.025104014 -0.003516905 -0.058312178 -0.08077234 0.006116748 -0.110107206 0.029204339 -0.01549382
-0.07075094 -0.036025483 -0.027571037 -0.0010610962 -0.037372287 -0.055839512 -0.033018835 -0.10851908
-0.053843908 -0.05160028 -0.0063673775 -0.024942514 -0.05592627 0.01609719 -0.042588893 -0.04666703
-0.03838282 -0.07558463 -0.0540003 -0.0073522395 -0.05749729 -0.008302059 -0.012954127 -0.041567635
-0.017580874 -0.016783338 -0.024337858 -0.042035896 -0.018275602 -0.016556904 -0.049746126 -0.005293933
-0.02641906 0.05111808 0.00863674 -0.048213694 -0.06957888 -0.057443265 -0.12287095 0.028053567
00000000: 2b01 2bbb c796 35bd 5711 e2bd ad83 69bb
00000010: 86cc b3bd 5250 f6bd d483 49bc c4dd 2ebc
00000020: 6005 0e3d 6f95 8fbd 2c6c 3abd cf37 753c
00000030: 6478 69bd 7def 19be 8f9b bebc 5d15 7ebd
00000040: efa6 cdbc e07b 66bb c0d8 6ebd f86b a5bd
00000050: 006f c83b e37f e1bd f03d ef3c cbd9 7dbc
00000060: dee5 90bd 758f 13bd a8dc e1bc 7b14 8bba
00000070: af13 19bd f9b7 64bd c23e 07bd 403f debd
00000080: 6e8b 5cbd d15a 53bd 6fa5 d0bb 3e54 ccbc
00000090: f212 65bd 41de 833c b171 2ebd ed25 3fbd
000000a0: 4e37 1dbd 1dcc 9abd 6b2f 5dbd 0eeb f0bb
000000b0: 4782 6bbd 5c05 08bc 8c3d 54bc d342 2abd
000000c0: c405 90bc 367d 89bc 3060 c7bc d52d 2cbd
000000d0: b7b6 95bc 58a2 87bc 98c2 4bbd bb78 adbb
000000e0: c96c d8bc 3161 513d 1d81 0d3c b97b 45bd
000000f0: 5f7f 8ebd a149 6bbd c4a3 fbbd 98d0 e53c

weight f4 [64, 64, 3]
-0.037278574 -0.060078528 -0.036809206 0.087557316 -0.014246096 0.046344936 0.024497977 0.0032817263
0.02476583 0.008200305 0.011025185 -0.0069221114 0.06771001 0.08570125 -0.024109734 0.043095164
0.010420846 -0.010076387 0.0211737 0.00023972122 -0.022488942 -0.038175423 -0.04476226 -0.053773504
0.03383234 0.016012821 0.07509047 0.03339827 0.0562359 0.19527845 0.03398365 0.044086255
0.07063673 -0.024174975 -0.036788005 -0.013226319 -0.025177367 -0.0049423277 -0.040940676 0.037029166
0.08593518 0.27797484 -0.0075528156 -0.01744569 -0.017474135 0.047543958 0.044434305 -0.002494158
-0.037534572 -0.036657766 -0.017017225 -0.033591215 -0.042460173 -0.06549763 0.02108003 -0.063679144
-0.02923128 -0.10013737 -0.087046854 -0.08699987 -0.0026030159 0.013005719 0.003711016 0.1377691
0.30438444 -0.053528685 0.026289571 0.027202886 0.07244141 -0.019916413 0.12465681 -0.0073120673
0.013989795 0.026667355 -0.014939619 0.0024104526 -0.04437782 -0.011171311 -0.014907952 -0.032000534
0.06962029 0.0320982 -0.035419002 -0.010812735 0.045594018 0.030445568 0.055085532 -0.018612754
-0.008916499 -0.11332373 -0.02727808 -0.033975087 0.011459906 0.0112879 0.0051069916 0.006432417
0.03410933 0.016411452 0.013051569 -0.009545019 -0.043248877 -0.034119047 -0.01535201 0.008508359
0.0045460905 -0.02381334 -0.0023686953 -0.007822444 -0.00944449 0.061563708 -0.0041047926 0.008827384
0.016346447 0.06913824 -0.027480762 -0.02465277 -0.007746928 0.035173815 0.016028333 -0.010021196
0.06467267 -0.0072324234 -0.021776123 0.023009682 0.020674972 -0.035337128 -0.05654443 -0.03471464
-0.047293477 -0.038592495 -0.02916372 -0.03721471 0.023005417 -0.03135905 -0.06578561 -0.055988573
-0.014757517 0.03854284 -0.016544454 -0.006897554 -0.020155963 -0.034360778 -0.0613985 0.0253169
-0.045720194 -0.027450848 -0.06092855 0.021137808 0.0069238176 0.008956144 -0.002430301 0.00050098775
-0.011864542 -0.027012534 -0.009198367 0.015902476 -0.007246643 -0.006655993 0.0006260136 -0.0034935249
0.031382862 0.03819138 -0.023826934 -0.023002457 -0.027171167 -0.009030516 -0.012895014 -0.03992345
-0.0199739 0.013401122 -0.01984584 -0.013327144 -0.016052948 0.03655381 0.007651887 -0.0026475873
0.020711422 -0.011254012 -0.049969513 -0.050868493 -0.08635799 -0.08250389 -0.09187422 -0.049526554
-0.013161695 -0.02483668 0.065842286 -0.016851189 -0.0417597 0.006584597 0.018167375 0.036741145
0.019810643 -0.008627155 0.02242086 -0.14878088 0.03292132 0.04330895 -0.002850039 0.02510901
-0.0113756005 -0.0019526834 0.049464546 0.04416748 -0.013367822 0.019882293 0.023124307 -0.019710014
-0.01138395 0.0031275551 0.097607955 0.06401959 0.09179637 0.09494334 0.062237576 0.14139408
0.016788159 0.03149381 -0.019879721 -0.100525945 -0.060815856 -0.049924307 0.011147206 0.015366966
0.042250942 -0.017180871 -0.036235034 -0.009288372 -0.048083834 -0.07699173 0.016812928 -0.01754809
-0.041636284 0.019406633 -0.013211384 0.016062416 0.0231285 0.011389222 -0.020306481 -0.016658442
0.017712936 -0.028904723 -0.020569244 -0.17496848 -0.083306745 -0.09239766 -0.0029408955 0.022664236
0.022093961 -0.08339965 -0.04331809 -0.0564892 -0.11120083 -0.09890268 0.0054640183 -0.11499083
00000000: 6bb1 18bd e714 76bd 40c5 16bd 4051 b33d
00000010: 7568 69bc 30d4 3d3d fbaf c83c 3b12 573b
00000020: b6e1 ca3c 925a 063c faa2 343c e1d2 e2bb
00000030: 8cab 8a3d 2384 af3d c781 c5bc 8e84 303d
00000040: 32bc 2a3c 6e17 25bc 7874 ad3c ad5d 7b39
00000050: bb3a b8bc d55d 1cbd a258 37bd 9b41 5cbd
00000060: c893 0a3d 522d 833c 08c9 993d a0cc 083d
00000070: 9d57 663d 13f7 473e 7132 0b3d ca93 343d
00000080: fda9 903d 990a c6bc 05af 16bd 34b3 58bc
00000090: c440 cebc 40f3 a1bb 69b1 27bd e5ab 173d
000000a0: c9fe af3d b852 8e3e 9c7d f7bb 44ea 8ebc
000000b0: eb25 8fbc 74bd 423d bf00 363d 0775 23bb
000000c0: dabd 19bd 7426 16bd b567 8bbc f196 09bd
000000d0: b8ea 2dbd 9f23 86bd 07b0 ac3c 366a 82bd
000000e0: 7076 efbc d214 cdbd 9f45 b2bd fd2c b2bd
000000f0: 5c97 2abb f015 553c 8434 733b 5813 0d3e
00000100: 47d8 9b3e e540 5bbd 3a5d d73c 96d8 de3c
00000110: 295c 943d bf27 a3bc 124c ff3d 119a efbb
00000120: 7435 653c 7f75 da3c 4ec5 74bc aff8 1d3b
00000130: 84c5 35bd e007 37bc 7c40 74bc fe12 03bd
00000140: 1595 8e3d 6779 033d 8413 11bd e627 31bc
00000150: cbc0 3a3d fc68 f93c 5ea1 613d c679 98bc
00000160: 8216 12bc 4616 e8bd 4876 dfbc 7629 0bbd
00000170: 54c2 3b3c e2f0 383c 8d58 a73b 06c7 d23b
00000180: 3ab6 0b3d 4f71 863c 40d6 553c b662 1cbc
00000190: bc25 31bd 6ac0 0bbd ff86 7bbc a566 0b3c
000001a0: 5ff7 943b 3214 c3bc 1d3c 1bbb b529 00bc
000001b0: 10bd 1abc 3a2a 7c3d 7f81 86bb bba0 103c
000001c0: fce8 853c 5998 8d3d 561f e1bc 9bf4 c9bc
000001d0: f1d9 fdbb 6b12 103d da4d 833c f12f 24bc
000001e0: 1b73 843d f7fd ecbb d763 b2bc cd7e bc3c
000001f0: 8f5e a93c aabd 10bd 229b 67bd f030 0ebd
00000200: ceb6 41bd 2a13 1ebd c1e8 eebc 746e 18bd
00000210: db75 bc3c 5972 00bd 9bba 86bd 4654 65bd
00000220: 83c9 71bc 19df 1d3d 3c88 87bc e004 e2bb
00000230: 1e1e a5bc e3bd 0cbd fe7c 7bbd 6365 cf3c
00000240: 1945 3bbd 9ae0 e0bc 3790 79bd 3229 ad3c
00000250: 31e1 e23b cabc 123c af45 1fbb b854 033a
00000260: 7f63 42bc 6449 ddbc bfb4 16bc e945 823c
00000270: 3f75 edbb 841a dabb 101b 243a 9ff3 64bb
00000280: 518b 003d 916e 1c3d b430 c3bc a66f bcbc
00000290: 1196 debc bbf4 13bc 9c45 53bc c686 23bd
000002a0: 4ea0 a3bc 6190 5b3c be93 a2bc 185a 5abc
000002b0: 7981 83bc 73b9 153d aebc fa3b 2583 2dbb
000002c0: 00ab a93c bf62 38bc d5ac 4cbd 7b5b 50bd
000002d0: 75dc b0bd cdf7 a8bd 8d28 bcbd 5bdc 4abd
000002e0: 26a4 57bc 4b76 cbbc 52d8 863d 810b 8abc
000002f0: 380c 2bbd 9ac3 d73b bfd3 943c e27d 163d
00000300: ee49 a23c e958 0dbc f4ab b73c 045a 18be
00000310: 82d8 063d ba64 313d b8c7 3abb 69b1 cd3c
00000320: ba60 3abc 2ff1 ffba 569b 4a3d f6e8 343d
00000330: b604 5bbc 31e0 a23c 306f bd3c e576 a1bc
00000340: bf83 3abc abf7 4c3b aee6 c73d b41c 833d
00000350: bcff bb3d a771 c23d d4ec 7e3d 9cc9 103e
00000360: 5287 893c a7ff 003d ccda a2bc 8ce0 cdbd
00000370: 0c1a 79bd 6e7d 4cbd c5a2 363c bac5 7b3c
00000380: 530f 2d3d e6be 8cbc 306b 14bd 412e 18bc
00000390: 8ef3 44bd d7ad 9dbd 44bb 893c 03c1 8fbc
000003a0: cf8a 2abd a9fa 9e3c 9074 58bc 5495 833c
000003b0: fb77 bd3c dc99 3a3c c759 a6bc 4977 88bc
000003c0: b81a 913c 99c9 ecbc d580 a8bc f02a 33be
000003d0: ba9c aabd fc3a bdbd 0abc 40bb 59aa b93c
000003e0: 65fe b43c 70cd aabd 4f6e 31bd 3861 67bd
000003f0: 43bd e3bd 7d8d cabd 820b b33b 5080 ebbd

bias f4 [64]
-0.009953846 -0.028748583 -0.001132761 -0.037791185 -0.012280867 -0.032300323 -0.020998927 -0.011776466
-0.10984968 -0.02513595 -0.003927944 -0.11681434 -0.04927149 -0.090503775 -0.16724785 -0.06474113
-0.020578293 -0.08773437 -0.010250638 -0.028014837 -0.07832062 -0.02173813 -0.00034494436 -0.045536924
-0.019332593 0.0046638134 0.028979305 -0.06122444 0.071562186 -0.023933232 -0.066203676 -0.017028924
-0.01779272 -0.084779635 0.0065960395 -0.008277134 -0.0075730574 4.1342762e-05 -0.0056670606 -0.021701409
0.015436275 -0.08008693 -0.018410891 -0.058435485 -0.042548608 0.002092377 -0.0011420416 0.017823553
0.04089617 -0.013344595 -0.020665621 -0.01805687 -0.06122769 0.008549703 -0.06630977 -0.037451
-0.040724397 -0.05720921 -0.038611248 -0.06446847 -0.024296409 -0.03656709 -0.07448732 -0.10077951
00000000: 7515 23bc 2682 ebbc 2779 94ba eeca 1abd
00000010: b135 49bc 584d 04bd f105 acbc 14f2 40bc
00000020: def8 e0bd e8e9 cdbc fcb5 80bb 5b3c efbd
00000030: e7d0 49bd 0b5a b9bd 0543 2bbe ff96 84bd
00000040: cf93 a8bc 14ae b3bd 4bf2 27bc 5f7f e5bc
00000050: 9066 a0bd 2a14 b2bc a6d9 b4b9 ed84 3abd
00000060: 635f 9ebc e7d2 983b 0266 ed3c 7ac6 7abd
00000070: 328f 923d a00f c4bc cb95 87bd 3e80 8bbc
00000080: 0ac2 91bc f2a0 adbd 9723 d83b d19c 07bc
00000090: 6927 f8bb 7467 2d38 c0b2 b9bb 27c7 b1bc
000000a0: 6ee8 7c3c 9e04 a4bd 70d2 96bc 0c5a 6fbd
000000b0: 7347 2ebd 4320 093b 8fb0 95ba b302 923c
000000c0: be82 273d 4aa3 5abc f34a a9bc 00ec 93bc
000000d0: e3c9 7abd 0e14 0c3c 6bcd 87bd 3866 19bd
000000e0: a0ce 26bd 3454 6abd d426 1ebd 0c08 84bd
000000f0: 4309 c7bc 5fc7 15bd cf8c 98bd 7d65 cebd
