models/OSheaCNN2018_5_best.pt (torch, 650618 bytes, 20 tensors)

weight f4 [64, 2, 3]
00000000: 5f48 c83d ccf6 b43e b216 1e3e 7c56 70be
00000010: 54fc 1e3e f19d b0be c9a2 dabe cfb3 8cbd
00000020: d438 c1be 3e0e 4bbd ef80 32be 6ce1 17bd
00000030: c72d 4a3e 791f 0abe 82aa 7a3e 8cd1 09be
00000040: b097 90be 5281 64be c4b1 abbe 072a 4c3e
00000050: ce55 a33e fe98 343e f5cd af3e 46ee b03d
00000060: 3ae9 30bc 0c31 13be ceef 043d 3f6e b63c
00000070: 8dd1 953d 0144 3b3d f512 48be a616 d4be
00000080: 7a3d 57bd ea63 26be 7f7e a33e 15e8 1a3e
00000090: f0bc 3abe 5c5d d63d 0767 61bd 81db aabe
000000a0: 3c4a dfbe 2974 8ebe 1511 0bbe efa1 adbe
000000b0: 969c 5fbc 7d26 72be 7755 afbe 4998 a43d
000000c0: 3e34 b33e 4e63 a9bd 1751 993c 9c14 c03e
000000d0: 1783 963e 2997 b63e 444c dc3d 404e d93d
000000e0: 61d7 83be 3fd7 533e 856e cf3d 4f71 4abe
000000f0: 48c1 c03e 851b 98bc 10a9 9b3b 6678 623e
00000100: 895d a7be 0ed0 a7be 04d6 12bd 4ae1 0cbd
00000110: 8e42 c13e 52c7 71be 253f 913e 221b 143e
00000120: d0ef a7be 1a6e 413e ece7 c1be c97c 26be
00000130: d1a7 c8bd 68aa 0dbe f3c3 703d 3939 9fbe
00000140: 9b49 f7bd 09bc 743e 8782 0bbe dbef 8abe
00000150: f581 c23e 4177 a6be 2990 273e e4d5 233d
00000160: 29db 35be 9d07 74be f41e 793e 8701 b8bc
00000170: 142a 85be 3ac4 a73e 5dd9 9e3e 777e 883c
00000180: df1a c93b 585b 38be d6cf a43d ba1a cebe
00000190: 75de c8be c99f 8b3e 8b6d 21be 4a6e a0be
000001a0: 570c b33e 2ff2 183e a393 57bc cccd 443e
000001b0: 320e 513e 3d40 5c3d a6c6 8f3e 419f 29be
000001c0: a2f8 a9be 44e1 ebbe 6d38 893e 2d2a 95be
000001d0: 7375 c5bd 573e 0b3e cdc6 3d3d 3158 8bbd
000001e0: 4d38 cebe c5e2 e1be f085 d1be 2196 9c3e
000001f0: e023 97be 07e4 ae3e c26b b13e 5a20 47be
00000200: c094 353e 6501 ffbd 2d19 c2bd b888 b53e
00000210: a554 393d 0ba3 3b3e 0da6 e3bc 0642 8a3e
00000220: 553a 82be 202a 68bc a54e a4bd 3cbc 083e
00000230: f0cb c0be df17 82be 66e9 29bd 5cd3 25be
00000240: dc2b 2f3e 4718 1b3e fdaa 4fbe fa86 fb3d
00000250: eb02 cbbe 4b7b aabe 9b22 ab3d d3b8 1d3b
00000260: fe45 873e 3de8 483e d524 0e3e 979a 8f3e
00000270: 9537 51be 60be 0d3c 5dd9 1f3e 51fb 263e
00000280: 3bee a7be 6738 003d be3d 75be 315c b33e
00000290: c5aa 393e 742e e83e 70ff db3e afcc 26be
000002a0: ff35 af3e a49b 84be 4986 7a3e ea86 96bc
000002b0: 644a 8dbd ab9a b63e 2036 083e dd2b ae3e
000002c0: fdf4 c93e 1b2b fc3d 8b4a b0bd b2ab 55bc
000002d0: 1009 f8bc f0b3 0dbd e3c7 233d 5ea1 993e
000002e0: 0a27 c6be 9d94 2c3e 4659 58be 4b3f 063e
000002f0: e73c 14bd 9d4e 9ebc e0b9 adbe d8c0 3cbe
00000300: b7c9 09be f3e4 bebd b94e 033e f215 8dbe
00000310: 5729 a9bd 7fd8 c6be 70b4 b83e 7ee2 843e
00000320: 7727 823e 2d6e ba3e e014 87be 33ba 743e
00000330: 3212 cebd 5172 a6be 2587 053e 541a a13e
00000340: 9c56 9bbe 9d8e ae3e fd5c d2be 1405 d3be
00000350: 1e82 55bd 74ba d2bc 13e2 bd3d 4534 0cbe
00000360: 6b96 7dbe 0cc5 933e df1a 60be 7fad 88be
00000370: 39d2 4f3e f7e5 d1bd 93cc a13e 58bf d13e
00000380: 7448 59be d884 b0bc 86f0 a4be eca4 d43d
00000390: 8c1e 2a3c cd98 c1bc 2ed5 d43e 8afe c8be
000003a0: ebec 71bd 7b66 cebe 2a62 60be 4973 d83d
000003b0: 7eaa b3be 051c 8ebe 90c2 c13e 0248 923d
000003c0: ea80 af3c f3b5 493e 0191 613e 3602 a43d
000003d0: 0b2c 6d3e c31b d5bd 8250 91be ceaa ec3d
000003e0: 6c0a adbe 3d57 813e 622a c83e 7f29 9f3e
000003f0: e71a 79be 6647 0f3e c146 a5bd aa9e b73d
0.09779429 0.3534454 0.15438345 -0.23470491 0.15525943 -0.344955 -0.4270232 -0.06870233
-0.3773867 -0.04957413 -0.17431997 -0.037080213 0.19744025 -0.13488568 0.24479106 -0.13458842
-0.28240728 -0.22314957 -0.33534062 0.19937907 0.319014 0.17636487 0.3433682 0.08639197
-0.010797793 -0.14374179 0.032455258 0.022269366 0.07315359 0.04571915 -0.19538482 -0.4142353
-0.052548863 -0.16249052 0.31932446 0.15127595 -0.18236136 0.10467026 -0.055029895 -0.33370593
-0.43611324 -0.27822998 -0.13580735 -0.33912608 -0.013648173 -0.23647495 -0.34244892 0.080368586
0.35000795 -0.08270894 0.018715424 0.37515724 0.2939689 0.356622 0.10756734 0.10610628
-0.2575026 0.20687579 0.10128502 -0.19769786 0.37647462 -0.01856781 0.0047503784 0.22116241
-0.3268855 -0.3277592 -0.035848632 -0.03439454 0.3774609 -0.23611191 0.28368488 0.14463475
-0.3280015 0.18889657 -0.37872255 -0.1625854 -0.097976334 -0.13834536 0.05878062 -0.31098345
-0.12074586 0.23899855 -0.13624011 -0.2713612 0.37989774 -0.3251286 0.16363586 0.039998904
-0.17759384 -0.23831029 0.24328214 -0.022461666 -0.26008666 0.32766896 0.3102521 0.016661866
0.0061372365 -0.18003595 0.08047454 -0.40254766 -0.3923222 0.27270344 -0.15764444 -0.31334144
0.34970352 0.14936136 -0.013157758 0.1921913 0.20415571 0.0537722 0.28081244 -0.16564657
-0.33197504 -0.46070302 0.26800862 -0.2913374 -0.09641542 0.13598 0.04633217 -0.068039306
-0.4027733 -0.44118324 -0.409225 0.3058329 -0.29519558 0.34158346 0.34652525 -0.19445935
0.17732525 -0.12451438 -0.09477458 0.3545587 0.04524674 0.18323915 -0.02778914 0.27003497
-0.2543513 -0.0141702 -0.08022813 0.13353056 -0.37655592 -0.25408837 -0.04148235 -0.16193908
0.17106575 0.1514598 -0.2028007 0.12281604 -0.39650664 -0.3329719 0.0835621 0.0024066463
0.26420587 0.19619842 0.13881238 0.2804763 -0.20431359 0.008651346 0.15610261 0.16306807
-0.32798943 0.03130379 -0.23949334 0.35031274 0.1813155 0.4534794 0.4296832 -0.16289018
0.34220883 -0.25899994 0.24465288 -0.018374879 -0.068989545 0.35664877 0.13301897 0.3401784
0.39444724 0.12312909 -0.08607968 -0.013041424 -0.030277759 -0.03459543 0.03998555 0.30005926
-0.3870166 0.16853566 -0.21127805 0.13110082 -0.036190894 -0.019324595 -0.33930874 -0.18432939
-0.13455854 -0.09321012 0.12822999 -0.27555805 -0.08259838 -0.38837048 0.36075163 0.2595405
0.25420734 0.36412182 -0.26383114 0.23899154 -0.10062064 -0.32509091 0.13039835 0.314654
-0.30339515 0.3409318 -0.4108657 -0.41214812 -0.052126043 -0.025723673 0.09271636 -0.13691814
-0.24764411 0.28861272 -0.2188525 -0.26694867 0.20295037 -0.102489404 0.3160139 0.40966296
-0.21219045 -0.02154772 -0.32214755 0.10383019 0.0103832595 -0.023632431 0.41568893 -0.39256698
-0.059063833 -0.4031256 -0.21912447 0.10568864 -0.35091013 -0.27755752 0.37843752 0.07142641
0.021423776 0.19698314 0.22027971 0.08008234 0.23161332 -0.10405686 -0.28381735 0.11556016
-0.33797014 0.2526187 0.39094836 0.31086347 -0.24326669 0.1399208 -0.08070136 0.0896581

bias f4 [64]
00000000: 13e9 a73e 30e6 a3bd 4fce 8dbd 8e67 39be
00000010: 1ca6 f03d 3608 14be 6505 9c3d ce2c b1bc
00000020: e4da 073e b4d7 8a3e a13c 313c c72d 1a3d
00000030: 2cfa 7d3e b195 4c3e 53e4 07be 6b7f babe
00000040: b9ea 6fbe 70b6 8abd 39a8 ddbd 2876 84bd
00000050: 756e f33d ad99 ce3d 046c 8d3e 3654 f7bd
00000060: 12f8 05be a0ee b4bd e849 833e b3d7 13be
00000070: da1c 873c 1f87 cf3c cdcd 78be e577 9b3e
00000080: 4de3 eabc 1435 0f3d 902c 90be d527 20bd
00000090: ad29 e73d 7df3 bcbe 4a21 bc3e 33ca b0be
000000a0: 36db 7e3d 3625 bbbe deae e7bd d207 33bc
000000b0: 38d7 0dbe ed62 253d f72d dbbc 7d03 41be
000000c0: 083f 903e 7c75 b53e 270c ebbd 0246 7dbe
000000d0: 4cf8 2b3d aa33 7e3e 325e 213e 0181 99be
000000e0: 9eaa 843c 07f0 4dbe 9524 793e bbe7 b33e
000000f0: 0a9d bcbc f38b 453e d925 1b3e 260d 58bd
0.3279501 -0.08002889 -0.06924116 -0.18105909 0.11750433 -0.14456257 0.076182164 -0.02162781
0.13267094 0.27117693 0.010817678 0.037641313 0.24802464 0.19978978 -0.13270693 -0.36425337
-0.23429383 -0.067730784 -0.108231016 -0.06467849 0.118863024 0.10087905 0.27621472 -0.12076609
-0.13082913 -0.088345766 0.25642323 -0.14437751 0.01649325 0.025332985 -0.24297257 0.3036491
-0.028672839 0.03496273 -0.28158998 -0.039100487 0.11287246 -0.36904517 0.36744148 -0.34529266
0.062220775 -0.36551827 -0.1131265 -0.0109271575 -0.1385163 0.040377546 -0.026755316 -0.18848987
0.2817309 0.35441196 -0.11476927 -0.24733737 0.04198484 0.24824396 0.15758589 -0.29981235
0.016194638 -0.20111094 0.24330361 0.35137734 -0.0230241 0.19291668 0.15151156 -0.052746914

weight f4 [64, 64, 3]
00000000: d50c 863c 018c 7a3d cb79 23bd 5c88 e5bc
00000010: e53f 5cbd 6ded b1bd 36e3 b43c 20d3 89bd
00000020: 7e42 f83b bde6 3a3d 5ac4 043d a54c c7bc
00000030: 68e8 9b3c bc3e af3b 506a 30bc 7e8c fd3b
00000040: bf5b 21bc f7cc b3bb 41f4 a9bd 8eeb cbbc
00000050: 8545 0d3b 51d0 89bd 10db 85bd b06e 80bd
00000060: 5cb6 de3c 8008 f73c eb87 65bc 0a35 863d
00000070: c1ed 05bd 2727 673d 2f1f 113d b44b da3c
00000080: c0e3 38bd d81c 703d 02fc 9c3d eb50 47bd
00000090: adca d93c ac9d e63b 6014 3d3b aa24 d33c
000000a0: 0ebe dd3c e1c9 293d a558 12bd 5b11 d6b8
000000b0: a1ed 3abd 2c93 b83c eea5 923c 31c2 873c
000000c0: 99f4 7cbb c38a 81bc 8e19 21bc 308b 653d
000000d0: 6e2d 8f3d 2c7a a9bc 7e45 f3bc e5d6 c8bc
000000e0: d0fb cfbc a8b4 cab9 094c 34bb cce6 243d
000000f0: baa4 3abd 0f27 bd3c b7b6 9d3d fea2 113d
00000100: cf20 523d 1fa7 853c d95f b4bc 6023 6c3d
00000110: 62b7 1c3d 0270 2abd d1b1 81bd 4d93 7cbd
00000120: 8291 57bd abbd 84bb 0fc7 9dbd e843 573c
00000130: 4ccb c3bc 4c42 863c 4745 bbbc 1d7d 6f3d
00000140: da77 603d d213 643d 7036 763d f63c 80bc
00000150: 7578 813c e8b8 9abb 53f3 1cbc d3f1 d3bc
00000160: 5f6c 133d c222 6bbd 473b acbc c4e2 afbc
00000170: f972 d73c 7316 6ebb 7a09 95bc ef7b 423d
00000180: 8615 08bd 0281 36bc da13 afbd 2970 703d
00000190: a43b 553c e4c3 6e3b 3a5a 5f3d f48a 573c
000001a0: 96a2 2f3d 5423 7cbd b32c 29bb 9689 1a3d
000001b0: 39f0 b6bb 39e6 27bd d155 c8bc 51be 243d
000001c0: 0ae6 4abd cf52 1c3c aae9 40bd cee9 b2bc
000001d0: 59af 7cbd 574e 45bc 008c fabc 762b e43c
000001e0: 6412 dabb 9c4b debc 1afb 5bbb d167 da3b
000001f0: 8f75 533d ceeb 963d a278 3cbd e085 29bd
00000200: 29db 833c 32b3 a53a ed3f 6a3d b423 6d3d
00000210: 5724 dabc 9593 933d ee5f d2bc 3e27 08bd
00000220: 925b b9bc af8e dc3c 1d19 c3bd cdd6 73bd
00000230: fc45 f73c 87d6 653d 5e7e 5b3b 1667 a73c
00000240: 9423 113c 2bb4 1fbd ef5c a7bc cbdc c8bb
00000250: 8496 f1bc 9b46 14bd 49ea 893c 5890 653c
00000260: 7207 0cbd ce15 033d 471f 873c 5c38 69bd
00000270: 9fe5 30bc 18b9 a6bc 4748 ecbb 21ce 87bc
00000280: ad54 bdbc 5394 a93b 71f4 28bc 2a9e 41bd
00000290: b608 4dbd 3c9c 0e3d 53d9 bf3d 6827 e43c
000002a0: 6c97 5fbb 179a 053d e1e1 1cbd 532a 963c
000002b0: cf2c 003c de83 ebbc c23e 20bd 22dc 5d3d
000002c0: 2ddb 303d 809f e73c 1fed d2bc f365 6dbc
000002d0: c2c1 553d b5b4 513d ac7d 273d 0f64 1dbd
000002e0: 9739 5d3d 4b8c 84bc e655 f1ba 6cf8 873b
000002f0: 3058 1a3d 9735 5fbc bf24 7a3c 6168 963c
00000300: 359c 023d 658c 5abb 2482 1a3d e321 2ebd
00000310: e678 3c3b 2548 4bbd 4b28 c23c 1242 89bd
00000320: 870d e13b 1733 1cbc 29a3 1dbc f92d b03c
00000330: 09f1 113d 188b 1cbc 0dfb 863d 9f3c 8ebd
00000340: 1959 5cbb ea7f 3b3d fbbe 513d 5ee4 85bd
00000350: 470d 83bd 4508 5bbd 3f7f 3dbd 00d6 8cbd
00000360: cd36 71bb f779 123c 9172 733d f692 bbbc
00000370: f2f2 2e3d a6c3 253d 51fa acbb 2246 8cbd
00000380: 1625 99b9 ea27 50bc 17a9 47bd 4cfa 6abd
00000390: cda3 783d ea9d 9a3a cb0b 223d 77d4 5fbd
000003a0: 0a5d 3a3d b136 a6bc d731 423d c8a3 613d
000003b0: 4bbd 80bd 8486 a7bc 5fa9 583d 64dd 853d
000003c0: 0cbe 3b3d 9cc7 7a3d 79c4 1a3d 8c50 65bd
000003d0: 6f43 0fbd 7e42 293c d74e a2bd 6dc9 bcbd
000003e0: 4c96 7fbd 81bb 843d f06f 05bd 6200 573d
000003f0: c231 abbd 7188 97bd 9be5 9dbc 1a3f 2bbb
0.01636354 0.061168674 -0.039911073 -0.028019123 -0.053771872 -0.086878635 0.022080999 -0.06729722
0.007576286 0.045630205 0.032413818 -0.02432854 0.019031718 0.0053480547 -0.010767534 0.0077376952
-0.009848534 -0.00548708 -0.08298541 -0.024892595 0.002155633 -0.06729186 -0.065359235 -0.06271112
0.027186565 0.03015542 -0.014009456 0.06553085 -0.032697443 0.056433823 0.03543013 0.026647426
-0.045139074 0.058621258 0.07665254 -0.048661154 0.026585901 0.007037839 0.0028851256 0.025774319
0.027068164 0.041452292 -0.03572907 -0.00010207548 -0.045636777 0.022531115 0.017901387 0.01657209
-0.003859794 -0.015813237 -0.009832753 0.056040943 0.06991087 -0.020688139 -0.029696222 -0.024516532
-0.025388628 -0.00038663042 -0.002751114 0.040259168 -0.04556725 0.023089914 0.07700866 0.035555832
0.05130082 0.016315041 -0.02201836 0.057650924 0.038260825 -0.041610725 -0.06332744 -0.061663914
-0.052629 -0.0040509305 -0.07703983 0.013138749 -0.02390065 0.016389035 -0.022860182 0.058468927
0.0548018 0.055682965 0.06011051 -0.015654068 0.015804509 -0.0047217496 -0.009579497 -0.025872147
0.035992023 -0.057406195 -0.02102436 -0.021470435 0.02629994 -0.0036329299 -0.018192995 0.047481474
-0.03322365 -0.011139156 -0.08548708 0.058700714 0.013014708 0.0036432678 0.054529406 0.013155688
0.042879663 -0.06155713 -0.0025813996 0.03772887 -0.005582836 -0.04099104 -0.024454983 0.040220562
-0.04953579 0.0095412275 -0.04709784 -0.021840002 -0.061690662 -0.012042603 -0.030584335 0.027852755
-0.0066550244 -0.027135663 -0.0033566416 0.006665208 0.051625784 0.07369195 -0.046013482 -0.04138744
0.016095715 0.0012641905 0.05718987 0.057895377 -0.026628656 0.072058834 -0.025680508 -0.03324055
-0.022626672 0.026923506 -0.09526274 -0.059531022 0.030184738 0.056112792 0.0033492069 0.020434897
0.00885858 -0.03899018 -0.020430056 -0.006129836 -0.029490717 -0.036200147 0.016835349 0.014011465
-0.034186788 0.032003216 0.016494406 -0.056938514 -0.010796933 -0.020351931 -0.0072107646 -0.016577782
-0.023111666 0.0051751523 -0.010312186 -0.047269978 -0.050057136 0.034816965 0.09367623 0.027850822
-0.0034117354 0.032617655 -0.038301352 0.018330729 0.007823183 -0.028749403 -0.03912235 0.054165013
0.043177772 0.028274298 -0.025747834 -0.014489639 0.052186735 0.051197726 0.040891334 -0.0384255
0.05401 -0.016180178 -0.001841244 0.0041494872 0.03768176 -0.013623617 0.01526755 0.018360319
0.031887252 -0.0033347842 0.037721768 -0.042512786 0.0028758585 -0.04962935 0.023700854 -0.06702055
0.0068680677 -0.009533665 -0.00962142 0.021506296 0.03563026 -0.009554647 0.06590853 -0.06945156
-0.0033622442 0.045776285 0.051207524 -0.06537698 -0.06399017 -0.053474683 -0.04626393 -0.06876755
-0.0036806345 0.0089402115 0.05943543 -0.022897225 0.04271216 0.040469788 -0.0052788635 -0.06849314
-0.00029210065 -0.012704829 -0.04874524 -0.057367608 0.060703088 0.001179633 0.039562028 -0.05464598
0.045498885 -0.02028975 0.047410812 0.055087835 -0.06286105 -0.020449884 0.0528959 0.065363675
0.04583554 0.06122552 0.037785027 -0.05598502 -0.03497642 0.010330794 -0.07925194 -0.092181064
-0.062399194 0.06481076 -0.032577455 0.0524906 -0.083591 -0.07399071 -0.019274523 -0.002613014

bias f4 [64]
00000000: 5b79 1f3d 9220 84bc 0ca8 4a3d d096 0b3d
00000010: 8c09 69bc c338 0dbd 667b bb3c 49cb 09bd
00000020: 8f6b a13d c3a4 3c3c 2fff a6bd 3852 1e3d
00000030: 5667 62bd 075a 4ebb d06f 03bb b7b8 66bd
00000040: e83b dabd f09f ba3c cb5a 533d 44db bd3c
00000050: 1e38 70bd d444 69bc 4ce1 12bd d654 5c3d
00000060: 89bf 993c 980d 8fbd 138c 8fbc 39d1 73bc
00000070: 6900 4a3d a149 833d b18f 3dbb 8256 4fbd
00000080: 633a 8dbd f17c 5c3c 6c59 3ebd 1173 9bbc
00000090: c16b 52bd 851c 2abc 6da2 3b3d d7ee f2bc
000000a0: 5cef 81bc ac71 35bd 3d1a 09bc 4a97 a63d
000000b0: f642 24bc bb93 a5bd 1265 81bd a75a 4bbc
000000c0: 5d04 843a e90b bc3b 84c7 81ba ab97 a73c
000000d0: 50ae 08bd e33b 27bd 4a29 84bd c8b0 853a
000000e0: 7e4a 3dbd 1c2a 90bd 6ab3 a9bb abe2 60bd
000000f0: dd36 e03c cc1f 9abd 9dcf d83c 8e5b 9f3d
0.038934093 -0.016128812 0.04947667 0.034079373 -0.014223468 -0.03447796 0.02288599 -0.033641133
0.07881843 0.011513892 -0.08154141 0.03865263 -0.05527433 -0.0031486766 -0.002005566 -0.0563285
-0.106559575 0.022781342 0.05160026 0.023175843 -0.058647268 -0.014237601 -0.03585939 0.053791843
0.018768089 -0.06985015 -0.017522847 -0.014881426 0.049316797 0.06410528 -0.0028924758 -0.05061961
-0.06895902 0.013457523 -0.046471998 -0.018975766 -0.051372293 -0.010382776 0.0458092 -0.029654903
-0.015861206 -0.04429786 -0.008368072 0.08134325 -0.01002573 -0.08084818 -0.06318106 -0.01241175
0.0010072101 0.0057387245 -0.0009901379 0.020458063 -0.033369362 -0.040828597 -0.06453188 0.001019978
-0.04621362 -0.07039282 -0.0051788585 -0.054903667 0.02736991 -0.07525596 0.026466185 0.077811345

weight f4 [64, 64, 3]
00000000: 602c 24bd 6bd3 ad3c 90f2 113d af4c 343d
00000010: 0c62 573d b0df 16bd 24c6 853c 423f 283c
00000020: e55b 113d 9298 793c 50d8 00bd 6398 223c
00000030: bdbb 18bd 4fc0 9ebd c8ed 4cbd f1e4 093d
00000040: 3dbe 123c 2573 7dbb 325e 0dbd a045 e43c
00000050: e182 5ebd 4462 abbc d0aa 9c3c 90d4 f6ba
00000060: 5830 05bd 0512 99bd a758 d43c ec1a 7bbd
00000070: 41f1 90bd 3bab 613c 8c07 503d 7134 c5bc
00000080: 6aaf ef3c 1777 46bd 4056 cf3c 7faf 36bd
00000090: d27b 87ba 6269 7e3d a161 963d 3ee5 103d
000000a0: 9d36 82bd b638 a5bc 8760 353d da24 1c3b
000000b0: 70b9 4e3d d2e9 7fbd 6f6c a3bc c6be 84bd
000000c0: 4c3a 8cbc d9d7 99bd ecc1 acbd f20f a4bc
000000d0: aa4d 3bbd df9b 2cbd ebee 62bd ea65 9a3c
000000e0: 04f5 95bd 05a9 af3c cf48 59bd bae2 15bd
000000f0: 60dd 97bd a396 b6bc 67c0 61bd d714 2bbd
00000100: cf87 a8bd 5b02 7bbd 8932 79bb 991a 47bd
00000110: a802 863c 2299 10bd 0634 eabc e51d 31bd
00000120: 734f db3c 9d71 333d bec9 bfbc 84df 3d3d
00000130: a66a a43c 5eab 0b39 48fa 573c 2d66 23bd
00000140: 6d69 793c 9af9 ed3c 0ed3 363d 2b05 edbb
00000150: c96c 43bd bc99 003d e868 a3bd aca0 89bc
00000160: 96ac e43c a008 f3bc de6e 323d a8e6 213d
00000170: 0a49 673d bb4a bf3c ca1c 853b cc99 bdbc
00000180: c991 4e3d 8e5d 543d 7868 95bc 6d67 d53a
00000190: 411f 063d 6f0e 723d f1dd 493d 051f 57bd
000001a0: e6d3 2ebd a8c1 333d c963 a1bc 257e a9bd
000001b0: c15a e23a 7b4b 263b 2953 cb3d 6f43 5b3c
000001c0: ae7f 143d 6d5d 5fbc 6947 6a3c 1ff0 87bd
000001d0: c5f4 66bd 8819 01bd 62a9 c13c 8c0e dbbc
000001e0: 4396 81bd 1ca2 3cbd b1e9 ac3c 4daa 4bbd
000001f0: 81ca dc3c aeae 3a3d dc0f a7bd b278 30bd
00000200: a084 dd3c 6640 0dbd 195b 563c cfaa 00bc
00000210: 2776 843d 4b3a 833d 23e0 cebb b050 88bd
00000220: 2341 41bd 3f01 b0bd 0d5b 963c be22 89bc
00000230: 6a90 9a3c fea7 9bbc d195 febc 9a98 32bc
00000240: 46c3 27bd 7e84 68bd ff12 9bbd 67e3 033d
00000250: 5d6d ab3d 497e 9ebc f689 e9bc ef7a 36bd
00000260: 8651 12bd db25 bb3c 23c0 3bbd 8442 c53c
00000270: dd6f a1bc 3191 08bd 7704 96bd a717 893c
00000280: 19bb 4abd 7e67 34bd cac3 e7bc 3e78 1e3d
00000290: 8e4a 97bd 6312 14bd c832 e1bc 0a3b 77bd
000002a0: 43a0 2cbd 5239 cfbc 374d 2fbd 36ee b3bc
000002b0: 50a1 963c fa9e a8bc 4f56 acbd 1fc0 a6bd
000002c0: 02c1 2cbd baf4 083d 9b53 3dbd ef88 223d
000002d0: 751a fd3c 41a8 54bc 41c6 0cbc 27e5 6bbc
000002e0: 7026 0fbd ebd2 7cbd 2886 043c 51d9 48bb
000002f0: 66e2 28bb d315 04bc 8d53 d63b 6dbe 733c
00000300: 87ac 14bc 1ef9 4bbb 147e e3ba 9a8a e3bc
00000310: 82f5 533d 0c78 333d f722 4f3c 65ab c93c
00000320: c6a4 7e3d 286e 67bd dd9c acbd 0c62 083d
00000330: bfa7 8e3d 8f6a 1a3d 8089 013d ff2e 7c3d
00000340: 36d0 2abd f49a 7cbd e5b9 90bc 99c7 4d3d
00000350: fba5 7a3d c05d 1fbb 1514 e8bb 7f9b 76bd
00000360: 644c 5fbd 9c5c 81bd 1726 99bc c908 923d
00000370: 54e2 cd3c 31c2 cdbc 5385 28bd 9457 093d
00000380: 2cf3 073d 2f57 35bd 37d6 9abd 9840 3fbd
00000390: 3a46 19bc c5cb 85bc f587 013d f92c 70bd
000003a0: 340b 6cbd 1b12 39bd e4a1 2dbd 8c33 5fbd
000003b0: 88e4 393d 13ad e83d cc36 843c ccb9 ecbc
000003c0: ccaa 1f3d a81d de3c 9c0e 203d e62c b3bc
000003d0: bcc3 993d 95df 283d 1d8c bdbc 856f 51bd
000003e0: 970b 25bd ee55 173c 9517 403d db07 54bd
000003f0: ad19 f83c 07b4 5a3d f8d6 493c 9394 16be
-0.04008138 0.021218976 0.035631716 0.044018444 0.05258374 -0.03683442 0.016329832 0.010268988
0.035488028 0.0152341295 -0.03145629 0.009924027 -0.037288416 -0.07751524 -0.050031453 0.0336656
0.008956489 -0.0038673368 -0.03451366 0.027865231 -0.054324035 -0.02092088 0.019124418 -0.0018831659
-0.032516807 -0.0747414 0.025921179 -0.06130497 -0.070772655 0.013773735 0.050788447 -0.024072858
0.029258449 -0.048453417 0.025309682 -0.04460096 -0.0010336584 0.06211222 0.0734284 0.035374872
-0.06358073 -0.020168643 0.04428151 0.0023825676 0.050469816 -0.062478848 -0.019949166 -0.064817
-0.017117642 -0.07511873 -0.08435425 -0.020027135 -0.045728363 -0.042140838 -0.05540363 0.018847425
-0.07322124 0.0214429 -0.05304795 -0.036593176 -0.07415271 -0.022288626 -0.05511513 -0.04176792
-0.082290284 -0.061281543 -0.0038024506 -0.04860935 0.016358688 -0.03530229 -0.02858926 -0.0432414
0.026771283 0.043809522 -0.023411628 0.04635574 0.020070385 0.00013319912 0.01318223 -0.039892364
0.015222889 0.029049683 0.04463487 -0.007233282 -0.047711167 0.031396613 -0.07978994 -0.016800247
0.027914327 -0.029667199 0.043562762 0.03952661 0.05646614 0.023351064 0.00406227 -0.023144625
0.050432 0.051847033 -0.018238291 0.0016281434 0.03274465 0.059095796 0.049283925 -0.052519817
-0.04268255 0.043885857 -0.019700902 -0.08276013 0.0017269478 0.002537458 0.09927971 0.013382777
0.036254577 -0.013633114 0.014299252 -0.06637596 -0.056385774 -0.03151849 0.023640338 -0.026740335
-0.06327488 -0.046053037 0.021107526 -0.04972296 0.02695203 0.045576744 -0.08157322 -0.043083854
0.02704078 -0.034485243 0.013083243 -0.007853224 0.06467848 0.06407603 -0.0063133403 -0.06656015
-0.04718126 -0.08593988 0.018353963 -0.0167402 0.01886769 -0.019001003 -0.031077297 -0.010900641
-0.04095771 -0.05676698 -0.075719826 0.03219929 0.08370469 -0.019347327 -0.028508168 -0.044550832
-0.035722278 0.0228452 -0.045837533 0.024079569 -0.01970666 -0.03334159 -0.0732507 0.016734911
-0.049494836 -0.04404401 -0.028291602 0.03868889 -0.07387267 -0.036150347 -0.027490035 -0.06035904
-0.042145025 -0.025295887 -0.042798247 -0.021964174 0.018387467 -0.020583618 -0.084148996 -0.08142113
-0.042176254 0.033436514 -0.04622231 0.03968137 0.030896405 -0.012979568 -0.008592189 -0.014397896
-0.034948766 -0.061724585 0.008088626 -0.0030647109 -0.002576971 -0.008061844 0.0065407217 0.014876944
-0.009074337 -0.0031123827 -0.00173563 -0.027776051 0.051747806 0.043815657 0.012642614 0.02461786
0.06216886 -0.056501538 -0.08428357 0.03329663 0.06965589 0.03769928 0.03162527 0.061568256
-0.04170247 -0.061671212 -0.017666766 0.05023918 0.061193448 -0.0024317354 -0.007082472 -0.060206886
-0.05451621 -0.06316492 -0.01869492 0.07130582 0.025132336 -0.025117012 -0.041142773 0.033530787
0.03319089 -0.044272598 -0.075603895 -0.04669246 -0.009355122 -0.016332516 0.0316238 -0.05863664
-0.05762787 -0.045183282 -0.04239072 -0.05449252 0.04538396 0.11361136 0.01613941 -0.028897189
0.038981244 0.02711375 0.039076433 -0.021871995 0.075080365 0.04122885 -0.0231381 -0.051131744
-0.040294256 0.009236796 0.04689749 -0.051765304 0.03028568 0.053394344 0.012319319 -0.14705114

bias f4 [64]
00000000: 6be5 7d3d 5aa1 59bd efdd 03bd 739a a2bb
00000010: 219b 87bd 22dd 9f3b d513 233b 2dcd 6abd
00000020: a593 3b3b b07a 91bd 152a e1bc 21ce e7bb
00000030: 7935 62bc 63ae e53a 56b5 5d3c 450e a03b
00000040: d636 ffbc 675a 58bd 7739 67bd 3f9b 86bd
00000050: af5b 93bd 05f1 a9ba ad2e 083c 73a7 663d
00000060: ee99 2dbd d6df 89bd b886 e73c e89f d13b
00000070: 131f bb3c 094a f33b 6d4d 0fbc c8fd 61bd
00000080: 4e43 8cbd 228f 603d fdb2 20bd a22a d9bc
00000090: d5da 57bc 1c33 d4bc 4fb3 43bd 0a36 8a3c
000000a0: 84e7 7fbd 5d29 2cbd 7d35 0c3d 4d0f 1a3d
000000b0: b219 523d 2b2b e7bc c6bb 213d fa16 fa3c
000000c0: f1f4 a8bd 3493 063d ae25 963c d8a4 1a3d
000000d0: 1094 9fbd 655f 72bd bd71 f6bc b11b 68bd
000000e0: 7cef 513c 5086 10bd 69a8 8cbb 66e4 b83b
000000f0: 3a29 59bd 37da 2fbd 84fb 47bb 9b75 b23a
0.06198637 -0.053132392 -0.032194074 -0.0049622594 -0.06621385 0.004878656 0.0024883647 -0.057324577
0.0028621939 -0.07103479 -0.027485887 -0.007074133 -0.013806694 0.0017523285 0.013532003 0.0048845136
-0.031154078 -0.05282059 -0.056451287 -0.065725796 -0.07195222 -0.0012965506 0.00831191 0.056312036
-0.042383127 -0.067321464 0.028262481 0.006397236 0.022841966 0.007424597 -0.008746487 -0.055173665
-0.06848775 0.054824002 -0.039233197 -0.026509587 -0.013174732 -0.025903277 -0.047778424 0.016871471
-0.06247665 -0.042031635 0.034230698 0.03761225 0.051294036 -0.028218826 0.039485715 0.030528534
-0.08249844 0.032855228 0.018328514 0.037754864 -0.077919126 -0.059173007 -0.030083532 -0.056667034
0.012813445 -0.03528434 -0.004292537 0.0056424616 -0.053017832 -0.042932715 -0.0030514905 0.0013615371

weight f4 [64, 64, 3]
00000000: f733 17bc d99e 233d d292 74bd 9df0 3b3d
00000010: e323 c03b 0606 53bd feac 00bd 9d56 7bbd
00000020: c892 5f3d 2c5b 343d 8390 90bc 6a91 e6bb
00000030: 826a 633d a695 703d 8018 cb3b a514 34bc
00000040: e387 d73c 8766 093d d37b 583d 1178 35bd
00000050: 9223 803d 15a9 0ebd 3f3a 4ebd ba1e 7cbd
00000060: 2dc5 5fbd 3a38 e2bc e75f bb3c c74e 513c
00000070: 9b66 a33c a3cc 69bd bff5 eabc 0f68 ac3d
00000080: 9458 07bd fa29 15bd 04a6 d03c 357e 8d3c
00000090: ffc9 6f3d 6c36 223d d1f1 fc3c b2c2 98bc
000000a0: abc1 78bd 887f 58bc ebb2 213d 8e7d a73c
000000b0: e3d5 59bd 0329 8e3c 039f 20bb ed70 81bb
000000c0: 6a8c 60bd 905c 073c cfea 753c 4ee6 38bd
000000d0: d402 12bd 77b8 f83b a412 0f3d 88b5 873b
000000e0: ae7a d73b 4e93 41bd 0095 31bc 9060 563d
000000f0: a81a 923d 8db0 21bd c03c 863c 5184 99bc
00000100: 1189 fcb7 f10b 8dbd 3361 36bd d8f5 76bd
00000110: ed18 f53c 4c3b 1c3d 6aa1 a5bc a0df de3c
00000120: 38d2 933c 1554 16bc 5292 03bd be58 1ebd
00000130: 1b95 923d b891 ba3d d63e 1a3d 4643 913b
00000140: a9db 84bc c8c7 8fbd 4c1a 78bb aad5 f6bc
00000150: 7f51 883b 7662 0ebd 966c 703c bdd8 223d
00000160: e871 a3bc 2c9c 10bb b4a9 79bb b5d0 9dbc
00000170: 673e 6a3d ce38 f6bc e70f aa3d 59c3 13bd
00000180: 52c9 75bd 7d29 f6bc fa04 a9bc 2393 383d
00000190: 36dc 6abb e9cf e5bc db9d 91bb 4b0c 4ebd
000001a0: c350 a7bc bf45 903c 5578 e3bc 4899 81bd
000001b0: 0351 94bd b378 bfbc 23ee 73bd b801 223b
000001c0: f24a 10bd ad89 29bd 808e f63c 8f9f 1e3d
000001d0: 2f04 6fbd e36c 2b3d 4b5b 0e3c 38fc 443d
000001e0: 4349 193d 98b9 b83c 15d1 9a3d 7fda b8bc
000001f0: c57f 263d 30b2 33bd 52fc 013d 29a0 ddbb
00000200: e230 7b39 80ac 92bc 2a93 a7bc 0a3d 3fbc
00000210: ebb1 083d 0d98 4bbd 8ac3 29bd f7c9 f23b
00000220: eee2 833c 246f 36bc 728a b0ba f745 8e3c
00000230: 5867 35bd fb8a 16bd a596 c8ba fc98 8539
00000240: 60a0 033d bcb1 453d 3151 5bbc 155e 55bd
00000250: fd6f 4bbd e67b de3c c5d3 013d c399 cbbc
00000260: c5a4 033d af00 8abd 2972 8abc 1379 debc
00000270: 221a 463d c2c5 863d cb0f 19bb da19 0f3c
00000280: c025 723d c78d d4bb d98b 333d 08b0 2b3d
00000290: 0965 083d 5dae 9c3d df31 813c 3068 613d
000002a0: 9a5a e13c fc56 5abd d8fa 2c3c c4fd 973d
000002b0: 84ae d1bc a633 1bbd 1342 723d 667b f8bc
000002c0: 097a 9dbc c83f 093d 8905 cd3c 526e 923c
000002d0: d39c 2f3d ee08 2f3d f9b6 2abc 932f c3bd
000002e0: a8e5 3cbd 5968 573d 92e4 283c 4ec2 84bc
000002f0: a700 4c3d 3d5c 84bd 34f7 4cbd 0e2f 323d
00000300: 40c6 3e3d a604 c3bc e793 5d3d 2cc5 aebd
00000310: 033f 5e3d 1eef 813d c325 2cbd 4b9d 353c
00000320: a99c ec3c ca74 9e3d fa34 c2bc e65d 9fbc
00000330: d64a 8c3a ff6d c23c 8bbe 223d 5295 a63d
00000340: fdce f0bb 521c 103d 0186 f3bc 4bc1 cfbb
00000350: 1447 ad3c 9d2d 843c 0e6e 6c3b 26fa 643d
00000360: 7618 65bc 1de1 173d 43f8 9d3d 682a e3b8
00000370: e4cd 82bb 3697 12bb 0d66 7abd 28cf 923d
00000380: 64ce 6e3d 8a2a f23c 441a 41bb aa03 223d
00000390: accb c33d 4320 5ebd fbd2 4fbd d7b1 7ebd
000003a0: 446c 88bd af84 eebc b48a b03c ab6a c93b
000003b0: ba1f 40bd 0ac2 0f3d bc26 ba3c 7794 033c
000003c0: a581 7fbc 7c73 4abd 668d e3bc f39a 7fbd
000003d0: 51db ab3d ca39 bebc cb81 32bd 54f0 073d
000003e0: 0afa 7a3d 8223 243d 9adc 603b 67d0 adbc
000003f0: 17d8 153d a5f9 3b3d ad41 bcbc 8cae d8bd
-0.009228698 0.03994641 -0.05971033 0.045883764 0.005863653 -0.051519416 -0.03141498 -0.061361898
0.05458334 0.04403226 -0.017647034 -0.0070363777 0.055521496 0.058736466 0.006197989 -0.01099125
0.026309913 0.033545043 0.052852463 -0.044303957 0.062567845 -0.034829218 -0.050348517 -0.06155274
-0.0546314 -0.027614702 0.022872878 0.01277513 0.019946387 -0.057079922 -0.028681634 0.08418285
-0.03304346 -0.036416985 0.025469787 0.017272094 0.058542248 0.039602682 0.030877026 -0.018647525
-0.06073157 -0.013214 0.03947727 0.020445611 -0.053182494 0.01735354 -0.002450884 -0.0039502294
-0.05482141 0.008261815 0.015009596 -0.04514151 -0.03564723 0.0075903493 0.034929886 0.0041415133
0.006575904 -0.04725962 -0.010838747 0.052338183 0.071339905 -0.039475013 0.01638639 -0.018739851
-3.0104567e-05 -0.06887043 -0.04452629 -0.06029305 0.029919112 0.038142487 -0.02021857 0.027206242
0.018044576 -0.00917532 -0.032121964 -0.03865885 0.07157346 0.09109825 0.03765758 0.0044330684
-0.016218023 -0.07020527 -0.003785747 -0.03013118 0.0041601057 -0.03476187 0.014674326 0.03975748
-0.019951776 -0.0022065742 -0.0038095536 -0.019264558 0.057188418 -0.030056383 0.083038144 -0.03607497
-0.060006447 -0.03004908 -0.020632256 0.045062196 -0.0035836822 -0.02805324 -0.0044438667 -0.050304692
-0.020424252 0.017611383 -0.02776734 -0.06328064 -0.07242014 -0.023372984 -0.059553277 0.0024720263
-0.035227723 -0.041391063 0.030097246 0.038726386 -0.0583536 0.04185189 0.008688758 0.048092097
0.037423383 0.022549435 0.075594105 -0.022565125 0.040649194 -0.043871105 0.031734772 -0.0067634773
0.00023955436 -0.01790452 -0.020455915 -0.011672268 0.0333728 -0.049705554 -0.041446246 0.00740933
0.01609942 -0.011134896 -0.0013468994 0.017367346 -0.04428801 -0.036753636 -0.0015303685 0.0002548172
0.032135367 0.048265204 -0.013386057 -0.052091677 -0.049667347 0.027158689 0.0316961 -0.024853593
0.03213956 -0.06738412 -0.016900139 -0.027157342 0.048364766 0.06580688 -0.002335536 0.008734191
0.059118032 -0.0064866277 0.04383454 0.041915923 0.03329948 0.07650445 0.01577085 0.055031
0.027509023 -0.05330561 0.010557853 0.07421449 -0.02559591 -0.037891053 0.059145045 -0.030332278
-0.01922323 0.033508092 0.025027053 0.01787487 0.04287417 0.042733125 -0.010419601 -0.095305584
-0.046117455 0.052589748 0.010308402 -0.016205933 0.04980531 -0.064629056 -0.05004044 0.043501906
0.046575785 -0.023805927 0.05409613 -0.08533701 0.05425931 0.06344436 -0.0420282 0.011084865
0.028883295 0.077371195 -0.023706902 -0.019453954 0.0010703455 0.02373409 0.039732497 0.08133949
-0.0073488937 0.03518326 -0.029726984 -0.006340181 0.021152057 0.016135031 0.003607634 0.055902623
-0.013982883 0.03707992 0.07713368 -0.00010832102 -0.003991829 -0.002236796 -0.06113248 0.07168418
0.0583023 0.0295613 -0.0029465118 0.039554276 0.09560332 -0.054229986 -0.050738316 -0.06218132
-0.06661275 -0.029116003 0.021550514 0.006146749 -0.046905257 0.03509716 0.022723548 0.008031002
-0.0155948745 -0.04942654 -0.027777385 -0.06240363 0.08391441 -0.023220915 -0.04358081 0.03318818
0.061273612 0.040072925 0.0034311176 -0.021217538 0.036583032 0.045892376 -0.022980535 -0.10580167

bias f4 [64]
00000000: c98d a9bd c6ba a8bd c57d 56bd e105 19bc
00000010: 2d22 5dbd f5b8 97bd 1b40 5a3c 2e64 3dbc
00000020: 8926 103d 6eb1 573c b6b3 4a3d 57dd 87bd
00000030: 4180 9e3c effd 563d 0b9a 9ebd 550f 073d
00000040: 2aac 3bbd afa9 2f3d 5eaf 92bd d398 c23c
00000050: 706f 1bbd e8a0 313d c1da 473d f400 23bc
00000060: c56a d63c da6c 833c cdc9 bbbd d4fa 003d
00000070: 14f4 37bd 69ca 10bd 58b9 9b3d 7bf5 253d
00000080: 8676 92bd ce32 92bb 6fda 63bd 85cf fd3c
00000090: 279c 45bd cd1a ab3c 865b 043d c6a7 42bd
000000a0: 3bdf a3bc e59c a73b 5e6a 8f3c 2ccc 443d
000000b0: a759 053c bb4b 6fbd 4e0f 2e3d 17ba 7c3c
000000c0: 4b92 a2bd a5e6 b7bd 30d8 203d d5d9 a2bd
000000d0: bcf0 7dbd 235a 1b3d a2d8 5bbd 2932 3fbd
000000e0: 80d6 583d 5ca2 563d 5ee2 783c 7390 e93b
000000f0: 72af d4bc 9713 4e3d b80b 813c 1224 e8bc
-0.082789965 -0.08238749 -0.052366037 -0.009339781 -0.05398767 -0.07408325 0.013320948 -0.011559529
0.035193 0.013164861 0.049487792 -0.06634014 0.019348266 0.052488264 -0.07744225 0.032973606
-0.045818485 0.042886432 -0.07162355 0.023754513 -0.037948072 0.043366343 0.048792604 -0.009948958
0.026173959 0.016043115 -0.0916935 0.03148921 -0.044910505 -0.035349283 0.07603711 0.04051731
-0.07151513 -0.004461623 -0.055628236 0.030982742 -0.04824462 0.020886803 0.032313846 -0.047523282
-0.020003906 0.005115139 0.017506775 0.048046276 0.008139051 -0.05842183 0.042495064 0.015425227
-0.079380594 -0.08979539 0.039268672 -0.079517044 -0.06199716 0.037927758 -0.053673394 -0.046678696
0.05293894 0.05240093 0.015190689 0.0071278154 -0.025962565 0.05031165 0.015752658 -0.028337512

weight f4 [64, 64, 3]
00000000: 800e 8f3c a187 ecbb 9a1c 233d 05cd f33b
00000010: eb59 313d 79c8 373c 6d3f 6c3d 07fa da3b
00000020: cb79 fe3c 6845 98bc 61ff c13c 7f28 45bd
00000030: 1b07 9bbd ac5b a73d 4388 143d 904b 043d
00000040: 86e9 0f3d 5423 96ba 13d2 283d 51bc 043d
00000050: e223 38bd eb86 2c3d 5772 e73c 93e3 443d
00000060: 2a0d da3a e148 1cbc 95db 853c 2155 533d
00000070: b3a3 28bc 71af aa3c 5524 29bd 6311 9b3c
00000080: 03e4 593d f165 3f3d fde3 223c d2fe 373d
00000090: f74c 9b3c 596f 8a3d e50b 2a3d 5cf9 983d
000000a0: 7af2 08bd b19c dbbc aa6d 45bb c696 b83c
000000b0: ee24 4cbc 1191 3bbd a372 babb 1a70 5dbd
000000c0: 91bb 1cbd 3ce7 413c 91e6 333c 44bf 5ebd
000000d0: 8e0f 973d f9f5 44bd 13f4 1cbd 3b24 03bd
000000e0: 8722 0d3d 5022 803c f108 933a fb60 7fbb
000000f0: 4308 283c 23ac c23c 70da 4b3b ff74 64bc
00000100: 1321 d2bc b19b 673a fb6a bd3c 3d13 27bb
00000110: 997d 01bd 3311 95bc 8333 2dbc b445 f33c
00000120: 969c fcbc 6dea 7dbc 7112 c23c dae0 233c
00000130: a33c 2cbd 698b 6fbc 9f36 22bd d180 73bc
00000140: 1455 8ebc 145e 96bd 2c0f b1bc ea8b 6abd
00000150: 1e80 6abb 2fa9 d53c b547 a23c c81b 343d
00000160: 7f59 d7bc df94 9f3c 7bdf 0fbd db1f 70bd
00000170: 72eb 51bd 8383 033c 2b0a 2cbc 548a 6ebb
00000180: 46c2 153d 24ea efbb a3ec 463c e396 bb3c
00000190: 9ff9 d23c b9f9 223b c403 38bd 0d38 5e3c
000001a0: 9fbd bcbb a1f6 2e3d c921 05bc b5c8 25bb
000001b0: 6021 f03c 17cd 25bd 9905 31bd b0c5 713d
000001c0: 5af4 16bd c5ef 20bd eb97 423d 91e2 443d
000001d0: 0672 28bd 8587 febc 6f36 873d d847 c4bc
000001e0: 7ce3 7b3d b379 14bd f8d5 6c3d d5e3 023d
000001f0: d604 50ba 9a9e 193d 70b1 96bc 6195 f0bc
00000200: 02f4 59bd 7a7d 853d 199d cabb 12a3 05bc
00000210: 7768 8fbc b2e9 b43c 0f20 4cbd 96ae fcbc
00000220: 657f 11bd abf9 663b f12c 0f3d 83c4 21bd
00000230: 659a 003d 95bd c4bc 9c8b 4fbd 7365 da3b
00000240: 3a7d 303c 6cd8 153d 7e97 923c 31ae 1bbd
00000250: 647d 02bc 1d30 75bd 4889 ecbc 23d6 a4bd
00000260: 6825 2e3d 8dff 9dbc 24c7 8a3d 46d5 65bc
00000270: 8bdf 463d 8e13 28ba f8d9 223c 107f ea3b
00000280: 0ce0 09bd 6c62 22bd a699 e0bc 3187 0ebc
00000290: fd98 91bd cc94 133d 45bc b03c f57b 13bd
000002a0: 60e6 8dbc f601 303d 5c73 1e3c ba00 2abc
000002b0: b65d 28bc 3b5b 3cbd 0f01 57bc 5a92 d13c
000002c0: 4dde f9bc 2f98 4dbd 62bd cc3c 5ea0 f7bc
000002d0: 11ba 8e3d ccc8 133d 8c42 cdbc e577 4b3d
000002e0: 7bd9 8c3c 6d37 ea3b 428b 7b3d 25f4 3dbd
000002f0: 0bb8 11bd 4839 cabb 2444 eb3c 85a9 153b
00000300: 9539 6e3d 207c ac3c f2d8 0c3d 496c a33d
00000310: 719c a0ba 3061 933d 3908 f4bc 8a1a 72bb
00000320: 21e3 d0bc 2ccc a8bd 6888 dabc 0156 f4bc
00000330: 873f 043c 67b7 3d3c 0f30 373d 724a 863c
00000340: ce95 083d 2042 83bd 36c2 d83c 0d31 21bc
00000350: 6169 1f3c 3dd2 ddbc d092 66bc 5ef3 38bd
00000360: 57f6 8d3d 4447 493d 8188 483d afcf d1bb
00000370: a33a bd3a 511c 963d bad1 233d 873a c1bc
00000380: 3a84 cb3b c086 adbd 6063 163d edff 673d
00000390: 50fc 083d 0c8f 2cbd 2e22 823d c6e1 5c3d
000003a0: 8ba6 1c3d e712 02bd c7db 643d f6df 823c
000003b0: 31d7 43bd 9427 6cbc 0089 98bd 95d7 75bc
000003c0: fe79 63bd c0ad fbbc d7af a73c 687f 38bc
000003d0: 1d3b c33c e8c0 e3bc ee85 2e3d dcc6 eebc
000003e0: 8f75 573d 35bf 263d 4b8f 9d3c ba0b fcbb
000003f0: 4e71 a03d 19a9 30bd 2eca a53b 4ee3 d6bc
0.017462969 -0.0072183167 0.0398222 0.0074402117 0.043298643 0.01121723 0.057677675 0.0066826376
0.031063935 -0.018587783 0.023681344 -0.048134323 -0.07569715 0.08171782 0.03626276 0.032298625
0.035134815 -0.001145462 0.041215967 0.032406155 -0.044956096 0.042120855 0.028252764 0.048068594
0.0016636003 -0.00953886 0.016340056 0.051594857 -0.010292935 0.02083561 -0.041294415 0.01892919
0.053195965 0.04672808 0.009942052 0.04492075 0.018957598 0.06759519 0.04151525 0.074694365
-0.03343437 -0.026808115 -0.003012518 0.022532832 -0.012459977 -0.045792643 -0.0056899353 -0.054061987
-0.038264815 0.011834916 0.010980264 -0.054381624 0.07376014 -0.04808614 -0.038318705 -0.032016974
0.034456756 0.015641361 0.0011217875 -0.0038967717 0.010255876 0.023763722 0.003110554 -0.01394391
-0.025650537 0.00088351505 0.023122301 -0.0025493645 -0.03161392 -0.018196678 -0.010571363 0.029696323
-0.030836385 -0.015497786 0.023690434 0.010002339 -0.042050015 -0.01462064 -0.039602872 -0.014862255
-0.017374553 -0.07342163 -0.02161368 -0.05726234 -0.003578193 0.02608165 0.019809583 0.043971807
-0.026287792 0.019480167 -0.035125237 -0.05862413 -0.05124993 0.00802696 -0.010500471 -0.0036398368
0.036562227 -0.007321613 0.0121413795 0.022899097 0.025753794 0.0024868085 -0.044925466 0.013563168
-0.0057599093 0.042715672 -0.008125731 -0.0025296633 0.02931279 -0.040478792 -0.04321823 0.05902642
-0.036854126 -0.039291162 0.04750816 0.048067633 -0.041124366 -0.03107048 0.06602179 -0.023960039
0.061496243 -0.036248874 0.057821244 0.03195556 -0.0007935291 0.03750477 -0.018395156 -0.029368104
-0.05321122 0.065180734 -0.0061832783 -0.008156555 -0.017505867 0.02208409 -0.04983526 -0.030844968
-0.035521884 0.0035244029 0.03495497 -0.03949405 0.031397242 -0.024016181 -0.05067025 0.0066649257
0.010772044 0.03658335 0.017894503 -0.03800792 -0.007964466 -0.059860338 -0.028874055 -0.08048656
0.042516142 -0.019286895 0.06776264 -0.014027899 0.04855303 -0.0006411605 0.009939663 0.0071562603
-0.033660933 -0.039644644 -0.027417015 -0.008699224 -0.07109258 0.036030576 0.021574149 -0.036006887
-0.017321765 0.04297062 0.0096710585 -0.01037615 -0.010276249 -0.04598544 -0.013122811 0.025582481
-0.03050151 -0.05019396 0.024992649 -0.030227836 0.06969083 0.036080167 -0.025056146 0.049674887
0.017193547 0.0071477205 0.061412103 -0.046375412 -0.035575908 -0.0061713792 0.028719015 0.0022836637
0.058160383 0.021055281 0.034386583 0.07979638 -0.0012253654 0.071962714 -0.029789077 -0.0036942088
-0.025498929 -0.08242068 -0.026676372 -0.029826166 0.008071787 0.011579371 0.044723567 0.01639292
0.03334599 -0.06409097 0.026459794 -0.009838355 0.009729714 -0.027077788 -0.014073089 -0.045153968
0.06931751 0.04914023 0.048958305 -0.0064029316 0.0014437031 0.0732962 0.039994933 -0.023587478
0.006210831 -0.08472967 0.036715865 0.056640554 0.03344375 -0.042128608 0.063541755 0.05392625
0.038244765 -0.031756308 0.05587366 0.015975934 -0.047812644 -0.014413733 -0.07448006 -0.015005012
-0.055536263 -0.030722499 0.02046959 -0.011260845 0.023831898 -0.027801946 0.042608194 -0.029147558
0.052602347 0.040709693 0.019233366 -0.0076918276 0.07834111 -0.043130014 0.005059502 -0.026231434

bias f4 [64]
00000000: 2417 6bbd af39 5fbd eb24 b6bd cec0 02bd
00000010: b995 2f3d a1bc ad3c 54c7 8ebd 2caf 52bd
00000020: 71b9 97bd 64ce edbb 5c90 743c f734 dbbc
00000030: 3831 753d 6195 94bd 794b 0d3d c6c1 763a
00000040: 0b6d edbc 218c 3dbc d199 6ebd 0fb6 d8bd
00000050: 670d 52bd c060 0fbc c4fe 18bd 0cfd 21bd
00000060: fc23 1fbd 220c 1dbd 71fb 9d3c 9b12 0e3d
00000070: 3df4 333d 1f7f 923a 9498 aabc 9bac f93c
00000080: 484e 34bd ef63 abbd f7e8 17bd 40be 54bd
00000090: 3691 bebd 9fff 6bbd 47a5 dd3c 04fa 7dbd
000000a0: ac48 aebd 9254 babd cd8a bcbc bbbc 95bd
000000b0: 3268 4a3d c3aa e9b9 bc68 673d 9818 90bc
000000c0: 5dd4 d83b 7942 8bbd cb00 663d 5682 a33c
000000d0: f268 50bd c5b9 e83c 8242 bfbd 7285 08bd
000000e0: b9d7 ecbc ae5a 19bd 59c0 d6bc 68ff e73c
000000f0: 7860 1ebb d3c1 06bd 387c 743d 8a3d 67bd
-0.057395115 -0.05449837 -0.0889376 -0.031922154 0.042867396 0.02120811 -0.069716126 -0.05143659
-0.07408417 -0.0072572697 0.014926996 -0.026758654 0.05986139 -0.07255054 0.034495804 0.000941303
-0.02898266 -0.011569054 -0.05825216 -0.105816 -0.051282313 -0.008751094 -0.03735234 -0.039547965
-0.038852677 -0.03834165 0.019284936 0.034685712 0.043934096 0.0011176801 -0.020824708 0.030477813
-0.044019967 -0.0836867 -0.037087407 -0.05193925 -0.093050405 -0.057616826 0.02705635 -0.06200601
-0.08509955 -0.09098162 -0.023015404 -0.07311388 0.049415775 -0.0004456845 0.056496367 -0.017589852
0.0066171126 -0.06799788 0.0561531 0.01995961 -0.050881334 0.028408894 -0.09338857 -0.03333039
-0.028911458 -0.037439995 -0.026214765 0.02832003 -0.0024166387 -0.03289969 0.059688777 -0.056455173

weight f4 [64, 64, 3]
00000000: 52c7 013d 7628 8fbc 5df5 873d 7497 91bd
00000010: 30ae 14bd 8a68 473c 4f04 883d 21b8 0bbd
00000020: 8d8b 61ba c0bb 23bd 7fab 603d 6c7a 1bbc
00000030: 6db1 82bd 21aa 403d ee5a 4cbd 811c 073d
00000040: 56fd 04bd 7d04 8c3d 6793 863d 7897 38b9
00000050: c6fa dcbc c1fb 1fbd f3a9 93bd d105 b83b
00000060: 18b8 463d b0f6 a6bc ed02 00bd 45c5 1e3d
00000070: 18b5 903d 8f06 193d 3c69 2dbd 8a21 58bd
00000080: 6353 11bd 0ceb 3fbd a4e3 053b 4f07 813d
00000090: 9c04 8b3c 6a0d 683d 514e df3b 6a1a 6bbd
000000a0: f355 333d 528c a03c ec07 143d 49cb 57bd
000000b0: 22c9 84bc 0559 c4bc 7dd1 23bd bca6 543d
000000c0: 0a71 a9bc 39a4 d7bb 1dcc 81bd 45a9 0dbd
000000d0: 60a9 0d3d 5aaf 103d 8966 5ebc a1e8 683b
000000e0: bb4e ea3c b7be 42bd 2af3 dbbc 543e 943c
000000f0: a5cc b43c 37e4 403c 9e6d a5b9 b667 83bd
00000100: 7de7 48bb 6c61 9a3c ffeb d2bc 41a7 3e3d
00000110: 10fa b03c 8ab9 5abd 9b11 97bd 9ee4 3a3d
00000120: 0d67 9d39 73bb d73c 4838 f6bc 7865 6f3d
00000130: 58de 20bd 15ac 61bd eac7 153c 2aa9 e9bb
00000140: d360 a43c ee05 15bd 7326 6cbd ae4d 01bd
00000150: 476e b23c bb30 24bc 6937 f73b ead4 1d3d
00000160: 1909 71bd 0254 d13c 7bd8 12bc 8a18 7abd
00000170: 0ffd 483d 95be e0bc a905 2f3d 51f9 9c3d
00000180: 0342 ca39 da39 62bd b949 50bd 6f37 393d
00000190: 4166 133d cf51 82bc da01 83bd bbcc 893c
000001a0: 5d69 8dbd bc6d 24bb 0858 45bd aace 8dbd
000001b0: 9715 7abd 87eb 28bd 1cd9 103d 5802 443d
000001c0: 0dd5 553c b1c4 b63b be8e febb 067c ba3c
000001d0: 0e96 113d 2d2b 65bc 03d3 7dbd 4bc1 4e3d
000001e0: 0847 1dbc 7a94 763d f54f fcbc e84b 253d
000001f0: 669b 673c 10a3 113d 81af 1fbd 3356 803d
00000200: ce69 003d 257e 09bd 169f 31ba 1b7f fe39
00000210: 1c2d 8a3b c7b5 d53c e313 3ebd 617a 643d
00000220: 61ac 3a3c 994f a13d 062e 9abd 7dab 4ebd
00000230: b498 113d b0f4 2e3d 1eff 0a3d 138c 58bd
00000240: af88 f7bc 0d90 55bd cf19 c5bc ef45 ab3c
00000250: a5a0 febc a7c2 773d 8b4b 24bd 7fd8 56bd
00000260: b34c 93bd 807f c63c 9861 20bd 9b55 123d
00000270: 0277 b93c 09f3 8ebd 76fc 0c3d 278b 54ba
00000280: 6c1e 843c 67d0 ec3c 1b8d 04bd 46c6 8dbd
00000290: 163c f13c a63b 5b3c 56a1 89bc 8a41 6abd
000002a0: d023 513d 8fb3 a1ba e711 b33d 0da6 513d
000002b0: ff08 83bd bc79 1fbd d8dc dd3c 2aac b1bc
000002c0: 5653 083d 0cf5 3c3c d629 aabd 4096 403c
000002d0: d1ef 1cbd e7f5 47bc 6ff4 fa39 7126 6abc
000002e0: db70 ca3c ac96 7b3d a058 123c be86 083d
000002f0: c8dd c13b cd08 13bd eb0e 9b3c cc9f a2bc
00000300: 22e9 8abd 2372 64bd 2731 46bd 2c8e 0b3d
00000310: 48b1 453d 5501 2bbd 71ad 13bd 55b2 80bc
00000320: 4756 6e3d 93ca 33bc 24bc 383d fc88 c7bc
00000330: ee09 ba39 2fb4 03bd b523 cd3c 9005 4b3d
00000340: cdbc 11bd 8bff 713d 1ef2 583c cb92 aa3c
00000350: 2dc3 d3ba 11fc c8bb fae3 863b fb43 00bc
00000360: 8c1d 193d 8318 cc3c 2c8a 7e3a db47 01bd
00000370: e66a 413b 4a12 b4ba 830d 8f3d 9c52 4a3c
00000380: adaf 103d 03e2 7bbc f2ae 723d 4ba5 d33b
00000390: 36d5 f0bc bcb3 85bc 13a0 79bd 5314 98bd
000003a0: 6d2c a4bb dadd 57bd 92a4 563d 6d71 d6bc
000003b0: 76bb ec3c 783a 1637 7e38 8b3c b409 80bd
000003c0: 346e ce3c 44b5 ca3b 4194 f03c ce73 73bb
000003d0: 55be b63c 7c1d 69bc 5aad 4c3d 5aa3 823c
000003e0: d12d 7bbb 663e 8d3c 4df3 a43d eb5a 733d
000003f0: e287 9b3c 961a cdbb d1ab 1c3d 2453 93bd
0.031684227 -0.017475348 0.06638596 -0.071089655 -0.03629893 0.01217092 0.06641447 -0.034111146
-0.00086038635 -0.039973974 0.05485105 -0.009489637 -0.063814975 0.047037248 -0.049891405 0.032986168
-0.032468162 0.068367936 0.065710835 -0.00017604034 -0.026975047 -0.03905845 -0.072101496 0.0056159277
0.04851541 -0.020381302 -0.03125279 0.03876235 0.07065791 0.03735977 -0.042336687 -0.05276636
-0.035479914 -0.046855018 0.0020429874 0.06300222 0.016969971 0.056653418 0.006814756 -0.057398237
0.04378314 0.01959816 0.036140367 -0.052684102 -0.016209189 -0.02396823 -0.039994705 0.051916823
-0.020683784 -0.006580856 -0.0633776 -0.034585256 0.034585357 0.03532348 -0.013574251 0.0035539048
0.028601995 -0.04754516 -0.026849348 0.018096127 0.022070238 0.011773161 -0.00031552924 -0.06416266
-0.0030655556 0.018845282 -0.025747297 0.046546225 0.021603614 -0.0533996 -0.07376405 0.045628183
0.00030022152 0.0263345 -0.030056134 0.058446378 -0.039274544 -0.05509575 0.0091419015 -0.0071307616
0.0200657 -0.036382608 -0.057653856 -0.03156822 0.0217811 -0.010021384 0.007544447 0.03853313
-0.058846567 0.025552753 -0.008962746 -0.06105856 0.04906946 -0.027434627 0.042730007 0.07664741
0.00038577625 -0.055230953 -0.050851557 0.04521888 0.03598619 -0.01590815 -0.063968375 0.016821256
-0.06904862 -0.002508982 -0.048179656 -0.06924184 -0.061055746 -0.04124024 0.0353633 0.047853798
0.013051284 0.0055776467 -0.007768481 0.022764217 0.035543494 -0.013987345 -0.061968815 0.050477307
-0.009599455 0.060200192 -0.030799845 0.040355593 0.014136171 0.0355559 -0.038985733 0.06266441
0.031350903 -0.033567566 -0.000677572 0.00048541356 0.0042168032 0.026087655 -0.046405684 0.055780772
0.011393637 0.0787651 -0.075283095 -0.050456513 0.03554602 0.04271382 0.033934705 -0.05286796
-0.030216543 -0.05213933 -0.024060158 0.02090737 -0.03108246 0.06048837 -0.040111106 -0.05245256
-0.071923636 0.024230719 -0.039155573 0.03572617 0.022639755 -0.06979949 0.034420453 -0.00081078935
0.016127788 0.028907968 -0.03236113 -0.06922583 0.029447597 0.0133809205 -0.016800564 -0.05719141
0.051059544 -0.0012336838 0.08743649 0.05118375 -0.063982 -0.038934454 0.027082846 -0.02168854
0.0332826 0.011533033 -0.08308761 0.011754572 -0.038314644 -0.012204624 0.00047865833 -0.014291392
0.024712017 0.06142299 0.008932263 0.033331625 0.005916331 -0.035897065 0.018928012 -0.019851588
-0.06782748 -0.05577291 -0.04838672 0.034071133 0.04826477 -0.041749317 -0.03605408 -0.015710035
0.05818775 -0.01097359 0.0451013 -0.024357311 0.00035484083 -0.03215426 0.02504144 0.04956585
-0.035580445 0.059081595 0.013241319 0.02082195 -0.0016156189 -0.0061335643 0.0041165324 -0.007828708
0.037381694 0.024914032 0.000970992 -0.031562667 0.002951318 -0.0013738361 0.06984999 0.012348797
0.035323787 -0.01537371 0.059248872 0.0064589134 -0.029398542 -0.016321056 -0.060943674 -0.074257515
-0.005010179 -0.05270181 0.05240304 -0.026177133 0.028897982 8.95431e-06 0.016994711 -0.06251851
0.025199033 0.0061861593 0.029367568 -0.0037147882 0.022307554 -0.014228221 0.04997001 0.015947033
-0.003832687 0.017241668 0.080542184 0.059412878 0.018985692 -0.006259273 0.038249794 -0.07193592

bias f4 [64]
00000000: 7d17 49bd 47f9 2fbd 8ac2 a0bd f4a8 b03c
00000010: 3447 75bd 9270 86bd 3b46 6dbd 8d01 363d
00000020: c9e7 413d 607d 7a3d 7c82 b13d 14c8 9fbd
00000030: 1a49 1ebd 9230 9f3c 62ce 39bd 3ab9 a8bd
00000040: 8ec1 19bd 54e3 bc3c ca6c 7e3d 78cf 083c
00000050: 6f6c 453d 479c 13bb 5afa 49bd 68e5 cc3c
00000060: 9700 cdbc a8c7 cebd f30a fdba ca57 b8bd
00000070: 041f 5b3b 7adb 363d 0bfe 49bd fdca 5e3b
00000080: 9810 7abd c2e4 893d 18e1 07bd c98e b53c
00000090: 62d6 29bd a24e 93bd ba04 a33d cabc a0bd
000000a0: c0a4 9cbc e166 5dbd ae88 a0bd 085f a4bc
000000b0: 577c 543c 14e2 b2bd 513c f0bc ce0f 033d
000000c0: c115 1d3d 29af 4e3b 4055 893d d4a0 80bc
000000d0: 8449 8d3c 498d 57bd 35e9 0e3b 7951 b73c
000000e0: 55a9 463c 6556 283d eac2 443d 912a 9d3d
000000f0: fa1b cabc b900 31bd a93b c2bb e810 cc3c
-0.049094666 -0.04296234 -0.078496054 0.021564938 -0.059882358 -0.0656444 -0.057928305 0.044435073
0.04734019 0.061154723 0.08667466 -0.07801834 -0.038643934 0.01943234 -0.045362838 -0.08238454
-0.037538104 0.023057617 0.062115468 0.008350246 0.048199113 -0.0022523568 -0.04931102 0.025011733
-0.025024695 -0.10096675 -0.0019305631 -0.090011194 0.0033435235 0.044642903 -0.04931454 0.0033995502
-0.06105098 0.06733085 -0.03317365 0.022162812 -0.041464217 -0.071927324 0.07959886 -0.07848509
-0.019121528 -0.05405319 -0.078385696 -0.020064846 0.012969098 -0.08734527 -0.029325636 0.031997494
0.038350824 0.003153751 0.06705713 -0.015701689 0.017246969 -0.052624974 0.0021806483 0.022377716
0.012125333 0.041098017 0.048037447 0.076741345 -0.024671543 -0.04321358 -0.005927522 0.024910405
