models/OSheaCNN2018_3_last.pt (torch, 650618 bytes, 20 tensors)

weight f4 [64, 2, 3]
0	0xbe679e80	-0.22619057
1	0x3c68e0ef	0.014213785
2	0x3d663b84	0.056209102
3	0xbbee3d23	-0.0072704717
4	0xbe208897	-0.15677105
5	0x3e56ed16	0.20988879
6	0xbdde5a62	-0.10857083
7	0x3e9d068a	0.3066905
8	0xbe138326	-0.14405498
9	0x3d85a3e0	0.06525397
10	0xbe15c024	-0.14624077
11	0xbec28a5e	-0.3799619
12	0x3d8cd5ee	0.06876741
13	0xbde2f7da	-0.1108243
14	0x3e6ee400	0.23329163
15	0xbb62dcf9	-0.0034616573
16	0x3e2b27f3	0.16714458
17	0x3dbc88cf	0.09205782
18	0x3db30654	0.08741441
19	0xbe46fff7	-0.1943358
20	0xbe0beed1	-0.1366532
21	0xbe8b7f9e	-0.27245802
22	0xbe227380	-0.15864372
23	0xbcf9935b	-0.030465772
24	0xbec0bf79	-0.37646082
25	0xbdd90b7e	-0.10597895
26	0x3c5909a8	0.013246931
27	0x3d868c44	0.06569722
28	0x3daf0b60	0.085470915
29	0xbdec0027	-0.115234666
30	0x3edab166	0.4271347
31	0x3e57fd0d	0.21092625
32	0xbe2f6272	-0.17127398
33	0x3e3ac7d3	0.1824029
34	0xbdbb968b	-0.09159573
35	0x3ddb4320	0.107061625
36	0xbe1ceb62	-0.15324166
37	0x3e421a16	0.18955263
38	0x3eba10f8	0.3634107
39	0x3dcd4124	0.1002219
40	0xbe6f321d	-0.2335896
41	0xbe54d184	-0.20783049
42	0x3c69977b	0.014257307
43	0x3ee23f8d	0.4418911
44	0x3ece3cdb	0.40280804
45	0xbea9dd6c	-0.33176744
46	0xbdb2528b	-0.0870715
47	0xbe97f61f	-0.29679963
48	0x3dec4b19	0.11537761
49	0x3da5ce8d	0.08096037
50	0x3e26eb22	0.16300634
51	0xbc0a054d	-0.008424115
52	0xbe8f9be7	-0.28048632
53	0x3dee412f	0.116335265
54	0xbda90228	-0.082523644
55	0x3d36262e	0.044470005
56	0xbebf2359	-0.37331656
57	0xbe851c7c	-0.25998294
58	0xbcb0ada4	-0.021567173
59	0xbe8466a8	-0.2585957
60	0xbe85638e	-0.26052517
61	0xbc9302be	-0.017945644
62	0xbe1017b5	-0.14071544
63	0xbda49825	-0.08036832
64	0x3e8dbc64	0.27682793
65	0x3d873caa	0.066033676
66	0x3eb2b963	0.34907064
67	0x3ec6b553	0.38810214
68	0x3cf4f9ba	0.029904235
69	0xbe1ff4e7	-0.15620767
70	0xbdf3c3ae	-0.11902557
71	0x3e5b5306	0.2141839
72	0xbe9e11df	-0.3087301
73	0xbdf04a4e	-0.117329225
74	0xbb80d99a	-0.00393219
75	0x3de19236	0.11014216
76	0x3deab550	0.11460364
77	0xbea52bef	-0.3226008
78	0x3ea8983a	0.3292864
79	0xbd26074d	-0.040534306
80	0x3e6eea56	0.2333158
81	0x3eb86715	0.36016145
82	0xbdc58e29	-0.096462555
83	0x3db0921a	0.08621617
84	0xbe3957f7	-0.18099962
85	0x3e3df0b1	0.18548848
86	0xbd68833b	-0.056765776
87	0xbeacc912	-0.33747154
88	0x3dcc9abe	0.09990452
89	0x3d32b45e	0.043629043
90	0x3c095c4d	0.008383823
91	0xbe971efa	-0.2951582
92	0x3ea9d3d9	0.3316944
93	0xbe1b788c	-0.15182704
94	0x3cd4ce05	0.025977144
95	0x3e39fc1d	0.1816258
96	0x3e69e1bf	0.22840022
97	0xbeb56a84	-0.35432827
98	0x3e9688dc	0.2940129
99	0x3ebe1f03	0.37133035
100	0x3eb19fcf	0.34692237
101	0x3ec3f53b	0.38273033
102	0xbe9675ab	-0.2938665
103	0x3e9d32d9	0.30702856
104	0xbeacc9a2	-0.33747584
105	0x3ecd92c5	0.4015104
106	0x3ebdf70c	0.37102544
107	0x3deda0f2	0.116029635
108	0xbe03024b	-0.12793843
109	0x3e887274	0.2664982
110	0xbe359d06	-0.17735681
111	0xbe309fac	-0.1724841
112	0xbeb9804c	-0.36230695
113	0xbec128fb	-0.37726578
114	0x3e62320f	0.22089408
115	0x3e12e8c0	0.143466
116	0xbe5042b5	-0.20337947
117	0x3e6c2758	0.23061883
118	0x3d5e9767	0.054343607
119	0xbe16241a	-0.14662209
120	0xbd0c39ab	-0.034234684
121	0x3e4a396d	0.19748469
122	0x3eae0069	0.33984688
123	0xbc197b73	-0.0093678115
124	0xbd0b168b	-0.033957046
125	0xbd658f10	-0.05604464
126	0x3e066759	0.13125362
127	0x3e9ebd07	0.3100359
128	0x3e6e0108	0.23242581
129	0x3e67a2b6	0.22620663
130	0xbc9b6fc3	-0.01897419
131	0x3e996224	0.29957688
132	0xbe80c634	-0.25151217
133	0x3e60cbc3	0.21952729
134	0xbea4a77b	-0.32159027
135	0x3eca64f0	0.39530134
136	0xbe9adcc4	-0.30246556
137	0xbc1161ab	-0.0088733835
138	0x3e7ddbc8	0.24790871
139	0x3d99270f	0.07478153
140	0x3dab66a8	0.083691895
141	0xbd80c116	-0.06286828
142	0xbe18eb54	-0.1493352
143	0xbe49c0da	-0.19702473
144	0x3e90e9e2	0.28303438
145	0xbebe28ef	-0.37140605
146	0x3c29a216	0.010353586
147	0xbebc54ea	-0.36783534
148	0x3ebf0a4d	0.37312546
149	0x3e637394	0.22212058
150	0xbe3f8571	-0.18703248
151	0x3e22995e	0.15878817
152	0xbb9049f6	-0.004403348
153	0xbe9325ad	-0.28739682
154	0xbe81ef7e	-0.2537803
155	0xbcf11f98	-0.02943401
156	0xbe7a321c	-0.24433178
157	0xbe445c8c	-0.19175929
158	0xbea55e2a	-0.32298404
159	0xbec2cc7a	-0.38046628
160	0x3de31ce9	0.110894985
161	0xbeb3b3ee	-0.35098213
162	0x3e210d19	0.15727653
163	0xbe6a037d	-0.22852893
164	0xbe5d8e52	-0.21636322
165	0xbe81b53f	-0.25333592
166	0x3ec80866	0.39068907
167	0x3ecb8e69	0.39757088
168	0x3c880797	0.016605182
169	0x3e2a4519	0.16627921
170	0xbdec4e18	-0.11538333
171	0x3e8d0933	0.2754608
172	0x3e53d416	0.20686373
173	0xbeb731af	-0.35780093
174	0x3d88b1cd	0.06674538
175	0xbadc8d3c	-0.0016826759
176	0xbeb3d65e	-0.35124487
177	0x3e30b4d3	0.17256479
178	0xbd8a808c	-0.067627996
179	0x3d878041	0.06616259
180	0xbe9bce5b	-0.30430874
181	0x3e7a2738	0.24429023
182	0xbebd20e1	-0.36939147
183	0xbe68d102	-0.2273598
184	0xbebc8cfd	-0.36826316
185	0xbea0350c	-0.31290472
186	0x3e0fcd79	0.14043225
187	0xbd88214d	-0.066469766
188	0x3ead0290	0.33791018
189	0x3e000b0d	0.12504216
190	0x3e926dd4	0.28599417
191	0x3ebee989	0.37287548
192	0xbe2e557f	-0.17024802
193	0xbe0dfe23	-0.13866477
194	0x3e3f1817	0.18661533
195	0xbe282cfe	-0.16423413
196	0x3e8cf9bf	0.2753429
197	0x3e158268	0.14600527
198	0xbcf736d0	-0.030177504
199	0xbeb134b0	-0.3461051
200	0xbed7e6b1	-0.4216819
201	0xbe87be12	-0.265122
202	0x3e35adee	0.1774213
203	0x3e143406	0.1447297
204	0x3ec7451d	0.38919917
205	0x3e80f3f3	0.25186118
206	0xbe39f653	-0.18160371
207	0x3e2062ff	0.15662764
208	0x3e78090a	0.24222198
209	0xbea39d18	-0.3195579
210	0xbdc1fcf9	-0.09472079
211	0x3d02f5d9	0.03197274
212	0x3d1f382b	0.038871925
213	0xbeadc046	-0.33935755
214	0xbe6e7810	-0.23287988
215	0xbd4fc76d	-0.050727297
216	0xbed92cb5	-0.4241692
217	0xbeb176c1	-0.34660915
218	0x3dd6e357	0.104925804
219	0xbea77051	-0.32702878
220	0xbc133a6d	-0.008986098
221	0x3d99132a	0.074743584
222	0x3eddfbae	0.4335608
223	0x3ea239d9	0.3168476
224	0x3ed6f10f	0.41980788
225	0xbea43392	-0.32070595
226	0x3d8331e7	0.064060025
227	0xbd4689f8	-0.04847142
228	0xbd831e5f	-0.06402277
229	0xbd973ce4	-0.07384661
230	0x3e60ea86	0.21964464
231	0xbe65bbc6	-0.22434911
232	0xbea6f76e	-0.3261065
233	0xbdb8bb35	-0.09020082
234	0xbea699e5	-0.32539287
235	0x3e7dd5ae	0.24788544
236	0x3e4a15e4	0.19734913
237	0xbed402db	-0.4140843
238	0xbe680996	-0.22659907
239	0xbe547edb	-0.20751517
240	0xbc91689a	-0.017750073
241	0x3e5c501b	0.21514933
242	0xbe4fa80b	-0.20278947
243	0xbd05bb27	-0.032649186
244	0xbebcf85d	-0.36908236
245	0x3da09883	0.07841589
246	0xbedf05a3	-0.43558988
247	0xbe44a253	-0.19202547
248	0xbdfb17b1	-0.12260378
249	0x3ea6104f	0.32434317
250	0x3e97e067	0.29663393
251	0xbe8d86eb	-0.27641997
252	0x3e4e16f1	0.20125939
253	0xbde8eb5d	-0.11373017
254	0x3dd2c237	0.1029095
255	0xbe3c6ed1	-0.18401648

bias f4 [64]
0	0xbe90f285	-0.28310028
1	0x3df96a6d	0.12178502
2	0xbd3e007b	-0.046387177
3	0xbe20653d	-0.1566362
4	0xbd0dbd7e	-0.034604542
5	0xbe1e0013	-0.15429716
6	0x3ea5f540	0.32413673
7	0x3e900968	0.28132176
8	0x3d609bc1	0.05483604
9	0xbeaf7eb6	-0.3427636
10	0x3e35f290	0.17768312
11	0xbc616000	-0.013755798
12	0xbe7a980d	-0.24472065
13	0x3db9d8f6	0.09074585
14	0xbe93b7c0	-0.28851128
15	0xbe248edc	-0.16070122
16	0x3c23da24	0.010000739
17	0x3ea48647	0.32133695
18	0xbe8b8c7b	-0.27255616
19	0x3e6d54ff	0.23176955
20	0xbe59376f	-0.21212552
21	0xbcf5a02c	-0.029983602
22	0x3ebc5465	0.36783138
23	0x3e93835b	0.28811154
24	0xbdcd5605	-0.100261725
25	0x3ea7dfd2	0.3278795
26	0xbe9d7b96	-0.3075835
27	0x3d52c8f1	0.051461164
28	0x3e599656	0.21248755
29	0xbe4d20f7	-0.20032106
30	0xbea098fa	-0.31366712
31	0xbe1f590c	-0.15561312
32	0x3d8e2cd2	0.069421425
33	0xbe9758ba	-0.2955988
34	0xbeadcd93	-0.33945903
35	0x3e150f56	0.14556631
36	0xbccb0d20	-0.024786532
37	0xbec8fc50	-0.39255
38	0x3b7942da	0.0038034231
39	0xbcb6f133	-0.02233181
40	0x3ec20393	0.37893352
41	0xbe4f8582	-0.20265773
42	0x3e969a48	0.29414582
43	0x3d7b09a1	0.06128848
44	0x3ec4e5c1	0.38456538
45	0x3eb9bf29	0.36278656
46	0x3d8ff905	0.070299186
47	0xbe8df22c	-0.27723825
48	0x3ec162b6	0.37770623
49	0xbe2c515b	-0.1682791
50	0x3e8b78fa	0.27240735
51	0x3eb9f526	0.36319846
52	0x3e64c718	0.22341573
53	0xbd5b6076	-0.05355879
54	0xbeae35f9	-0.34025553
55	0xbdf62c52	-0.12020172
56	0xbe9aec90	-0.30258608
57	0x3e921216	0.28529423
58	0x3e977e71	0.29588655
59	0xbdfb8ad0	-0.12282336
60	0x3cb52377	0.022111638
61	0xbe95af37	-0.2923524
62	0x3eab4561	0.3345137
63	0x3e83fec0	0.25780296

weight f4 [64, 64, 3]
0	0x3d0ef123	0.034897935
1	0x3bbf8e42	0.005845816
2	0xbd8a35ac	-0.06748518
3	0x3ab812b1	0.0014043656
4	0xbda33b5c	-0.07970306
5	0xbd67b6cf	-0.056570824
6	0x3d5f67ef	0.05454248
7	0xbb83826b	-0.00401335
8	0x3d191cfc	0.037381157
9	0x3b42754c	0.0029671965
10	0xbbac663d	-0.005261211
11	0xbd0398e7	-0.03212824
12	0xbd8ead55	-0.06966654
13	0xbdd45b4e	-0.103689775
14	0xbd859b0a	-0.06523712
15	0x3e1c27ff	0.15249632
16	0x3d78dea6	0.06075921
17	0x3daf6d40	0.0856576
18	0x3d31f432	0.043445773
19	0xbd8dc0ee	-0.06921564
20	0xbbc459ad	-0.0059921355
21	0x3daabcc6	0.08336787
22	0x3d0b3410	0.033985198
23	0xbc787c0b	-0.015166293
24	0x3d59a07a	0.053131558
25	0xbd599b0b	-0.053126376
26	0x3cc019ef	0.023449866
27	0x3c3b7092	0.011440413
28	0xbda3b5f5	-0.0799369
29	0xbd88650d	-0.06659899
30	0xbdb8c4f9	-0.090219446
31	0x3cc5bbd0	0.024137408
32	0x3cc66fbf	0.024223207
33	0x3dabbe16	0.083858654
34	0x3bbaf28e	0.0057051843
35	0x3c06a18e	0.008217229
36	0xbddf6d2d	-0.109094955
37	0xbdd2f278	-0.103001535
38	0xbd81ac07	-0.0633164
39	0x3d823e81	0.06359578
40	0x3cd626d7	0.026141567
41	0xbc69c84d	-0.014268947
42	0x3cae7d65	0.021300027
43	0xbd003575	-0.03130098
44	0x3d5f386c	0.054497167
45	0x3d04ce5a	0.032423355
46	0xbd4e2694	-0.05032976
47	0x3d18c4d0	0.03729707
48	0x3d485f20	0.048918843
49	0x3da8676f	0.082228534
50	0x3c8010b5	0.015632967
51	0x3b1e1bb6	0.0024125404
52	0xbcfa821b	-0.030579617
53	0x3c93ef44	0.018058427
54	0xbd146541	-0.036229376
55	0xbcadbcda	-0.021208216
56	0xbd5d1370	-0.053973615
57	0xbcf45cfc	-0.029829495
58	0xbd5d9c0e	-0.054103903
59	0xbd351156	-0.044205986
60	0x3c9900f9	0.018677222
61	0x3dc59db4	0.0964922
62	0x3d3cc7e6	0.046089076
63	0x3dacfe1b	0.08446904
64	0x3dd4d5b9	0.10392327
65	0x3cc90b3b	0.024541488
66	0xbcfba2df	-0.030717311
67	0xbcb7b932	-0.022427175
68	0x3d238930	0.039925754
69	0xbd2fb7ad	-0.042899776
70	0x3d6b81a4	0.05749668
71	0xbcf2576e	-0.029582705
72	0x3bffb0c1	0.007803053
73	0x3b925db7	0.004466738
74	0x3d23b415	0.03996666
75	0x3bdbd8ce	0.0067091947
76	0xbc8ac3f3	-0.016939139
77	0xbd6f8ef0	-0.058485925
78	0xbdbf15db	-0.093303405
79	0xbd9c74ad	-0.07639442
80	0xbdfe3bee	-0.124137744
81	0xbcaf5687	-0.021403564
82	0x3c46a598	0.012124442
83	0x3d61516f	0.0550093
84	0xbd7fa2d3	-0.06241114
85	0x3d7873e0	0.060657382
86	0x3d15b6f0	0.036551416
87	0xbda067b8	-0.07832283
88	0xbdbdbc5a	-0.09264441
89	0xbcdb9671	-0.026805134
90	0xbd6b89b8	-0.057504386
91	0xbcbc6446	-0.022997033
92	0xbc3a62f5	-0.011376132
93	0x3ddde88b	0.1083537
94	0x3dc21b84	0.094779044
95	0x3d55bd05	0.052182216
96	0xbd950f00	-0.07278252
97	0xbcb382fc	-0.021913044
98	0x3ce9b5d4	0.028529085
99	0xbd9c0f89	-0.076201506
100	0xbdb5f3f6	-0.088844225
101	0xbdf286aa	-0.118420914
102	0x3c9b990a	0.018993873
103	0x3dc684ae	0.096932754
104	0x3c2288dc	0.009920325
105	0x3c15f480	0.009152532
106	0x3bb6406b	0.0055618784
107	0xbcaab511	-0.020838292
108	0xbd9f27cf	-0.07771265
109	0xbd7029b6	-0.05863353
110	0xbdb0a68a	-0.08625515
111	0x3dd7f944	0.105455905
112	0x3a0acd17	0.0005294843
113	0x3dc7cdd4	0.097560555
114	0xbc41811c	-0.011810567
115	0x3caf2afc	0.021382801
116	0xbdacf33d	-0.084448315
117	0x3d0832c1	0.033251528
118	0xba2aac12	-0.0006510626
119	0xbdb0d6f4	-0.08634749
120	0xbd333846	-0.04375484
121	0x3cb14502	0.02163935
122	0x3cbc5f7e	0.022994753
123	0xbcd13277	-0.025536759
124	0xbdf82702	-0.12116815
125	0xbdf8a05c	-0.12139961
126	0xbc82362a	-0.015894968
127	0x3bdbd365	0.00670855
128	0x3d525e1c	0.05135928
129	0x3dd9adbb	0.106288396
130	0x3d29c20d	0.041444827
131	0xbd178f6c	-0.037002012
132	0xbc120068	-0.00891123
133	0xbd3645be	-0.044500105
134	0x3bd52d64	0.006505655
135	0x3d650706	0.0559149
136	0x3d21800e	0.039428763
137	0xbd3a2309	-0.04544357
138	0x3c79b5b4	0.015241075
139	0x3ce531c7	0.027977837
140	0xbd677f57	-0.056517925
141	0xbdc1ad1c	-0.09456846
142	0xbcf54053	-0.029937899
143	0xbd175b52	-0.036952324
144	0xbc23c09a	-0.00999465
145	0x3c59cb04	0.013293032
146	0xbd80d596	-0.06290738
147	0xbe0adf29	-0.13561691
148	0xbd816e60	-0.063198805
149	0xbe08b10c	-0.13348788
150	0xbacaa556	-0.0015460651
151	0x3bcf3de7	0.006324518
152	0xbceaeff7	-0.028678877
153	0xbcdfda33	-0.027325725
154	0xbcc9716f	-0.024590222
155	0x3dac5093	0.08413806
156	0x3c8b4fdb	0.017005851
157	0x3d2e3049	0.042526517
158	0xbd8d44ba	-0.06897874
159	0x3d8736e9	0.0660227
160	0x3ca0adda	0.019614149
161	0xbca32a28	-0.019917563
162	0xbccfa1c4	-0.02534569
163	0xbc105fe9	-0.008811929
164	0x3b91ff5e	0.004455491
165	0xbdbca5ad	-0.09211288
166	0xbdae9b48	-0.08525711
167	0xbd1494b5	-0.03627463
168	0x3d5c475d	0.053778995
169	0x3d4d7300	0.0501585
170	0x3db6f4a5	0.08933381
171	0x3c8efa16	0.017453235
172	0x3d7faa57	0.062418308
173	0x3d0f72ba	0.03502152
174	0xbd255deb	-0.04037277
175	0x3c41ba55	0.01182421
176	0x3c511f85	0.0127638625
177	0x3d39a8d2	0.045327015
178	0x3dc0b0f8	0.09408754
179	0x3d7a8be0	0.06116855
180	0xbd8a4c2c	-0.0675281
181	0xbccebed5	-0.02523748
182	0x3ba1c80d	0.004937178
183	0x3d7f036e	0.06225913
184	0x3d96c64c	0.07362041
185	0x3d12a48c	0.035801455
186	0xbd63f71e	-0.05565559
187	0xbd9dd7db	-0.07707187
188	0xbd250a08	-0.04029277
189	0xbca4f9cc	-0.020138644
190	0xbd266464	-0.040623084
191	0x3cb4bcaa	0.022062618
192	0xbbe5276b	-0.0069932244
193	0xbb0f706c	-0.0021887077
194	0x3d0d8d4b	0.034558576
195	0x3bb01a9b	0.0053742654
196	0xbcf21f42	-0.02955592
197	0x3d131a18	0.035913557
198	0xbd959a80	-0.07304859
199	0x3d4e9f7f	0.050445076
200	0xbd47d40a	-0.0487862
201	0x3d0e5cb6	0.034756385
202	0x3d1425cc	0.03616886
203	0xbd48b91a	-0.04900465
204	0x3d3d2106	0.04617407
205	0x3c8eb254	0.017419018
206	0xbd0c67e3	-0.03427876
207	0xbd88356c	-0.066508144
208	0x3d322e69	0.04350129
209	0xbc372bbd	-0.011179862
210	0xbd5c27ff	-0.05374908
211	0x3d59d345	0.053179998
212	0xbbabda9f	-0.0052445675
213	0xbd51ba8f	-0.051203307
214	0xbd04dbc7	-0.03243616
215	0xbc1ec63c	-0.009690817
216	0xbba63afc	-0.0050729495
217	0xbd19b6fe	-0.03752803
218	0x3cf3cb0c	0.029759906
219	0xbd7fdc6b	-0.062466066
220	0xbd5a2bed	-0.053264547
221	0xbced0412	-0.028932605
222	0x3d175d58	0.036954254
223	0xbd52a987	-0.051431205
224	0xbccbfc34	-0.024900533
225	0xbd1f981a	-0.038963415
226	0x3bad16c9	0.005282257
227	0x3d502e50	0.050825417
228	0xbd280528	-0.041020542
229	0xbd3a9704	-0.045554176
230	0xbd08aab8	-0.033365935
231	0x3ba1e9c9	0.0049411994
232	0x3d24fe0e	0.040281348
233	0xbd018c0c	-0.0316277
234	0x3d230654	0.039800957
235	0x3d51f728	0.051261097
236	0xbcf6d7e0	-0.030132234
237	0x3c36b5cd	0.011151743
238	0x3c92bc68	0.017912105
239	0x3c6cc712	0.014451759
240	0x3c28710c	0.010280859
241	0xbd8085d4	-0.06275526
242	0x3d3ba5e0	0.045812488
243	0xbc9554e1	-0.01822895
244	0xbd839dbd	-0.064265706
245	0xbbbd63ab	-0.0057797036
246	0xbc468d67	-0.012118674
247	0x3d14401d	0.036193956
248	0xbc2c9988	-0.010534652
249	0xbbd6e247	-0.006557736
250	0xbc2509cd	-0.0100731375
251	0xbcd621b1	-0.026139112
252	0xbd3d1584	-0.046163097
253	0xbd9629c4	-0.07332185
254	0x3d0bc9d8	0.03412804
255	0xbd97d1f2	-0.07413091

bias f4 [64]
0	0x3b6d8a98	0.0036245938
1	0x3ca95409	0.020669954
2	0xbc9fdb66	-0.019513797
3	0x3ca72fd9	0.020408558
4	0xbd68c9ad	-0.056832958
5	0xbd244d19	-0.04011259
6	0x3c4e4498	0.012589596
7	0xbd077f18	-0.03308019
8	0xbcc0e720	-0.023547709
9	0x3cd6e545	0.026232371
10	0xbbdcf968	-0.0067435987
11	0xbd57f252	-0.05272133
12	0xba439688	-0.00074610906
13	0xbacf97ba	-0.0015838065
14	0x3d163b5f	0.036677714
15	0xbcbb9afb	-0.022901049
16	0x3d942015	0.07232682
17	0xbcab3549	-0.020899432
18	0x3d7a81d4	0.06115897
19	0x3c6d8c3c	0.0144987665
20	0xbccdbe85	-0.02511526
21	0x3b207417	0.0024483257
22	0xbc8246ef	-0.015902964
23	0xbd6defa5	-0.05808987
24	0xbcd6e7a4	-0.026233502
25	0x3d50eb09	0.051005397
26	0xba788e32	-0.0009481638
27	0x3b48e2b0	0.0030652694
28	0x3c8f4db2	0.017493103
29	0x3d2bba49	0.041925702
30	0xbcf80beb	-0.03027912
31	0xbd0c475e	-0.03424775
32	0x3d304312	0.043032713
33	0xbd733893	-0.059380125
34	0xbca6ec19	-0.020376252
35	0x3d32eea4	0.043684617
36	0xbb8d210c	-0.004306918
37	0x3d0d39e9	0.034479056
38	0x3b3c7d3a	0.0028761164
39	0xbd82bb13	-0.06383338
40	0x3c883607	0.016627325
41	0xbbf709cd	-0.00753901
42	0x3ca9a82a	0.02071007
43	0x3c4589c1	0.012056769
44	0x3d196e6d	0.037458826
45	0x3b62b8d6	0.0034595034
46	0xbbfaf2ab	-0.007658323
47	0xbc6c3505	-0.014416938
48	0xbd57c6ba	-0.052679755
49	0x3d406729	0.04697338
50	0x3ca9d858	0.020733044
51	0xbd2a55fa	-0.0415859
52	0x3d52e79e	0.05149042
53	0xbd064d88	-0.032788783
54	0x3cf8d7f3	0.03037641
55	0x3d2abe82	0.04168559
56	0x3cf247b7	0.029575212
57	0xbc576dbe	-0.013148723
58	0x3d09939f	0.033588048
59	0xbd422ef6	-0.047408067
60	0x3aaf4ab9	0.001337371
61	0x3c055cc3	0.008139792
62	0xbd9f1d0e	-0.077692136
63	0xbd8ccc30	-0.06874883

weight f4 [64, 64, 3]
0	0xb96f3b7b	-0.00022814974
1	0x3cf7936d	0.030221665
2	0x3c33c45b	0.010972108
3	0x3ba22b14	0.004948983
4	0x3c84d10c	0.016212963
5	0x3c30d0b0	0.0107919425
6	0x3c94af92	0.018150125
7	0x3c660c8a	0.0140410755
8	0xbd3e2d5f	-0.046429988
9	0x3d65f49a	0.056141473
10	0x3cb3dabc	0.021954887
11	0x3c92d832	0.017925356
12	0x3ca1db0a	0.019757766
13	0xbd29df70	-0.041472852
14	0x3d447519	0.047963236
15	0xbda52d36	-0.08065264
16	0x3d47f706	0.048819564
17	0x3d42a03f	0.047516104
18	0x3cf20473	0.029543137
19	0x3c0fcf48	0.008777447
20	0xbd842c33	-0.06453743
21	0xbd5246a2	-0.051336892
22	0x3d3eb99c	0.04656373
23	0xbc6676a1	-0.014066369
24	0x3d28ceea	0.041212954
25	0x3d3ca472	0.046055265
26	0x3c74f6ac	0.014951389
27	0xbcd9e044	-0.026596196
28	0x3d262152	0.04055912
29	0xbd3c01c6	-0.04590013
30	0xbc985c19	-0.018598603
31	0xbd24d58f	-0.040242728
32	0x3d649461	0.055805568
33	0xbca61d24	-0.020277567
34	0x3a4889bb	0.0007649918
35	0x3d7fc2bf	0.062441584
36	0x3d5edaf0	0.054408014
37	0xbc8630ae	-0.016380634
38	0xbdb10719	-0.08643932
39	0xbd4fd430	-0.050739467
40	0x3d806692	0.06269564
41	0x3d2d7183	0.04234458
42	0xba00bed9	-0.0004911251
43	0x3cad8f70	0.02118656
44	0x3c86a6cc	0.016436957
45	0xbcff9ad5	-0.03120176
46	0x3c8a9c9c	0.01692038
47	0xb8d681fc	-0.00010228527
48	0xbd96e67a	-0.07368179
49	0xbd443abd	-0.04790758
50	0xbd7749ac	-0.060372993
51	0xbb9f2aee	-0.0048574125
52	0xbd6de70a	-0.058081664
53	0x3d24d604	0.040243164
54	0xbd91ee57	-0.07125538
55	0xbd173f16	-0.036925398
56	0xbd456022	-0.048187383
57	0xbd2525ec	-0.04031937
58	0x3d95bf83	0.073119186
59	0xbcf299c0	-0.02961433
60	0xbd1239d1	-0.03569967
61	0xbd5c1f3c	-0.053740725
62	0x3d5fde3a	0.05465529
63	0x3c12a598	0.008950613
64	0x3d03d11e	0.03218185
65	0x3d8ac07f	0.06774997
66	0x3bb39cd0	0.00548134
67	0xbcce89e1	-0.02521223
68	0xbd6730b9	-0.05644295
69	0xbd8791fa	-0.0661964
70	0x3bceb865	0.0063086026
71	0xbd3b4918	-0.045724005
72	0x3d862209	0.065494604
73	0x3ca75f2f	0.02043113
74	0xbbeaa816	-0.0071611507
75	0xbbeb18ed	-0.0071746022
76	0xbcea1f34	-0.028579332
77	0xbc8819ef	-0.016613929
78	0x3d100b41	0.035166983
79	0x3d65e5f2	0.056127496
80	0x3d0d4cd1	0.034497086
81	0xbd690b9d	-0.05689584
82	0xbd0d5f1e	-0.03451454
83	0x3d2b5086	0.04182484
84	0xbcbc2335	-0.022966007
85	0x3d1772bb	0.03697465
86	0xbd7fbc2d	-0.062435318
87	0x3d06ba74	0.03289266
88	0x3d851e2a	0.06499894
89	0xbd458afc	-0.04822825
90	0x3cbea53e	0.023272153
91	0xbd163899	-0.03667507
92	0xbca8a86d	-0.020588124
93	0xbd6a6ace	-0.057230763
94	0x3c23fb5e	0.010008661
95	0x3a1d67ed	0.0006004561
96	0x3c989285	0.018624553
97	0x3babf0a2	0.0052471915
98	0x3d57749f	0.052601453
99	0x3aa2e3b5	0.0012427481
100	0x3d48169d	0.04884969
101	0x3d62cd19	0.055371378
102	0x3d926ffc	0.071502656
103	0x3cfffc13	0.031248128
104	0xbcd827fe	-0.026386257
105	0xbd4a7939	-0.049432013
106	0xbc573468	-0.013135053
107	0x3cad5b61	0.021161737
108	0xbd367bc2	-0.04455162
109	0x3c7cded1	0.015433983
110	0x3b7e99c7	0.0038848983
111	0x3be87f90	0.0070952848
112	0xbd4d4f09	-0.050124202
113	0x3ae21a06	0.0017250187
114	0x3d6075d4	0.05479987
115	0x3d813350	0.06308615
116	0xbcaa80d9	-0.020813392
117	0x3c64ee79	0.013972872
118	0xbd0c2f28	-0.03422466
119	0x3d575e0a	0.052579917
120	0xbd2fe3a2	-0.042941697
121	0xbd794b99	-0.06086311
122	0xbd8258b0	-0.06364572
123	0x3d8d72fc	0.06906697
124	0x3d240247	0.040041234
125	0xbc47c2ca	-0.012192437
126	0xbc8c28aa	-0.017109234
127	0x3d2699b0	0.04067391
128	0xbd5b441a	-0.053531744
129	0xbd7302dd	-0.059328903
130	0x3d64ff33	0.05590744
131	0xbc8218ca	-0.015880961
132	0x3d3bceaa	0.045851387
133	0x3d24d599	0.040242765
134	0x3d302188	0.043000728
135	0x3cf05a4d	0.029339934
136	0xbc884319	-0.016633557
137	0x3d04b158	0.03239569
138	0x3d3f2f69	0.046676073
139	0xbd0567e1	-0.03256977
140	0xbd319a8e	-0.043360285
141	0xbc0e51a2	-0.008686455
142	0xbd8dd573	-0.06925478
143	0xbcd111c8	-0.025521174
144	0x3ce77931	0.02825603
145	0xbc664007	-0.014053351
146	0x3c973927	0.01845987
147	0xbcce6d52	-0.025198612
148	0x3d4fe8c6	0.0507591
149	0x3d76bdb8	0.060239524
150	0x3d919dda	0.07110186
151	0x3c345af7	0.011008016
152	0xbcb437ee	-0.021999326
153	0xbd54c817	-0.051948633
154	0xbcecf828	-0.028926924
155	0xbd4b04eb	-0.049565237
156	0x3c9c9538	0.019114122
157	0x3d813cc5	0.06310419
158	0x3bfbd551	0.0076853414
159	0x3db10cd3	0.08645024
160	0x3d4a4f7d	0.049392212
161	0x3cf79ba6	0.030225586
162	0xbc559c1f	-0.01303771
163	0xbd2ac27a	-0.041689374
164	0xbd436935	-0.047707755
165	0xbd480d31	-0.048840705
166	0xbba6434b	-0.00507394
167	0x3cb77ac7	0.022397412
168	0x3d056d81	0.032575134
169	0x3d6be59c	0.05759202
170	0x3ce33541	0.027735354
171	0xbd7f8503	-0.06238271
172	0xbaa51a64	-0.0012596366
173	0xbc72b1ce	-0.0148129
174	0xbd64bbe6	-0.055843256
175	0x3d23a32c	0.039950535
176	0xbd6e0ad1	-0.058115784
177	0x3d83cbe6	0.06435375
178	0x3c8ef3f7	0.017450316
179	0x3cbd3c7a	0.023100127
180	0x3d3ba74e	0.04581385
181	0x3cf77bce	0.030210402
182	0x3cffc91d	0.031223828
183	0x3d88b623	0.06675365
184	0xbba8d289	-0.005152051
185	0xbcad0d2f	-0.02112445
186	0x3c5bc9e3	0.013414833
187	0x3d0781fa	0.03308294
188	0xbd14d08b	-0.036331695
189	0x3d7ed6f4	0.062216714
190	0x3b813e2c	0.003944179
191	0x3d80cbb0	0.0628885
192	0x3c452ae6	0.012034154
193	0xbc8c8754	-0.017154373
194	0xbd22ac75	-0.03971525
195	0x3d8dee17	0.06930178
196	0xbc925070	-0.017860621
197	0xbd95d3dd	-0.073158
198	0x3c29b4ad	0.010358018
199	0xbcf3cf86	-0.02976204
200	0xbd01518b	-0.031571906
201	0x3d9f0ddf	0.077663176
202	0x3d770e56	0.060316406
203	0x3cca5eb1	0.024703356
204	0x3dc3a1da	0.09552355
205	0x3cb0cc15	0.021581689
206	0xbd410320	-0.04712212
207	0xbcdf8710	-0.027286083
208	0x3caada11	0.020855935
209	0x3d270458	0.040775627
210	0x3ccbb7fa	0.024868
211	0xbd2eea7b	-0.042704087
212	0x3d4890e6	0.04896631
213	0xbce5f05f	-0.02806872
214	0x3cf080e2	0.029358331
215	0x3cd53d2d	0.026030147
216	0x3c6b10d4	0.014347274
217	0x3d85a10b	0.06524857
218	0x3ccee915	0.025257627
219	0xbcb2288f	-0.021747855
220	0xbc936725	-0.01799352
221	0xbcfcb610	-0.030848533
222	0xbbd23330	-0.0064147934
223	0xbb68996d	-0.003549184
224	0xbc8f9cfe	-0.017530914
225	0xbad736df	-0.0016419551
226	0x3ccafba9	0.024778204
227	0x3db290af	0.087190025
228	0xbcb64b4d	-0.022252703
229	0x3c7775bb	0.015103753
230	0xbd5af8a6	-0.053459786
231	0x3d3bd813	0.04586036
232	0x3d6a56ae	0.05721157
233	0x3d5ebbe4	0.054378405
234	0x3ba5f457	0.005064528
235	0x3d2d0879	0.04224441
236	0xbd6e05ee	-0.058111124
237	0xbcc70ea7	-0.024298979
238	0xbb9b0341	-0.0047306125
239	0xbd19ece4	-0.037579432
240	0xbd0e3945	-0.034722585
241	0xbd81e694	-0.063428074
242	0x3a7ea839	0.0009714398
243	0x3d5355a0	0.05159533
244	0xbd60924e	-0.054827027
245	0xbd811a8e	-0.06303893
246	0x3d1fca8a	0.039011516
247	0x3d070684	0.0329652
248	0xbc7fcfc7	-0.015613503
249	0x3da94dfa	0.08266826
250	0x3d91e661	0.071240194
251	0x3db14c91	0.08657182
252	0xbb94af35	-0.004537488
253	0xbc8de414	-0.01732067
254	0xbc514faf	-0.012775346
255	0x3d241032	0.040054508

bias f4 [64]
0	0xbc31bde1	-0.010848493
1	0xbd5d2098	-0.053986162
2	0xbcb4f57b	-0.02208971
3	0x3c7cc154	0.015426952
4	0xbcb7befa	-0.022429932
5	0xbd17e1b9	-0.0370805
6	0x3cd569c4	0.02605141
7	0x3d07cc8e	0.033154063
8	0xbda54e21	-0.080715425
9	0x3cb2bda6	0.021818947
10	0xbd375222	-0.044756062
11	0x3d0b7bd9	0.034053657
12	0xbd8e5ac2	-0.069509044
13	0xb9feead3	-0.00048621613
14	0x3d0ca87c	0.034340367
15	0x3d139be9	0.03603736
16	0x3c3e556d	0.011617047
17	0x3c28b3f5	0.010296811
18	0x3d98de4d	0.074642755
19	0xbd6c09bd	-0.057626475
20	0x3d356b92	0.04429204
21	0xbd3ce7c7	-0.046119478
22	0xbcbf4574	-0.023348548
23	0x3c2acd4b	0.010424922
24	0xbd412c1d	-0.04716121
25	0xbc1f79cd	-0.009733629
26	0x3cfcefdd	0.030876094
27	0x3a9b01a7	0.0011826054
28	0x3bbd941d	0.0057854787
29	0xba058aeb	-0.0005094248
30	0xbcb33845	-0.021877417
31	0x3c66ea9a	0.014094019
32	0xbd46fc11	-0.048580233
33	0xbd0f7df7	-0.03503224
34	0xbc90e7b9	-0.017688619
35	0xbd0ae81b	-0.03391276
36	0x3c415f4a	0.011802504
37	0x3cbf7128	0.023369387
38	0xbbc06d1d	-0.0058723823
39	0xbd5a874e	-0.053351693
40	0xbd886fa5	-0.066619195
41	0xbd3cd142	-0.046098
42	0x3ba17d83	0.0049282922
43	0x3d4a7cca	0.049435414
44	0x3d75501a	0.059890844
45	0xbd2e356c	-0.042531416
46	0x3d6cc7e1	0.057807807
47	0xbda5f4ea	-0.08103354
48	0x3b6b2eaf	0.003588598
49	0x3ca29b22	0.019849364
50	0xbbe60666	-0.0070198057
51	0x3d8e086d	0.06935201
52	0x3cf9c14e	0.030487683
53	0x3c91c85f	0.01779574
54	0x3d4eb946	0.05046966
55	0x3cb887d1	0.0225257
56	0x36a7633f	4.9885416e-06
57	0x3bc7065a	0.006073755
58	0x3bde2b60	0.006780073
59	0x3c9a0e2b	0.018805584
60	0xbc82ab0b	-0.0159507
61	0xbd75f189	-0.0600448
62	0xbd9ed225	-0.07754926
63	0xbc5daaf2	-0.013529526

weight f4 [64, 64, 3]
0	0x3d5ce537	0.053929534
1	0x3c7a753a	0.015286738
2	0x3d52b687	0.051443603
3	0xbd4f95cc	-0.050679967
4	0xbcebe8b3	-0.028797483
5	0x3d7d1df9	0.061796162
6	0x3cc05ca4	0.023481674
7	0x3d37a8e0	0.044838786
8	0xbd8fb1e1	-0.070163496
9	0xbd5a74f8	-0.053334206
10	0x3cca2919	0.0246778
11	0xbc3d76cd	-0.011563969
12	0xbd5f0908	-0.054451972
13	0x3d28212c	0.04104726
14	0x3d67c9f5	0.056589086
15	0xbd334385	-0.043765564
16	0xbd0e4266	-0.03473129
17	0x3d66fb57	0.05639204
18	0xbda321c9	-0.079654284
19	0x3c3ed359	0.011647069
20	0xbca8de37	-0.020613773
21	0x3d369816	0.044578634
22	0xbd4f2663	-0.050573718
23	0xbd809417	-0.06278246
24	0x3d2221c2	0.039582975
25	0xbd1ceb51	-0.038310353
26	0xbd5303ad	-0.051517177
27	0xbcdcdcaa	-0.02696069
28	0x3ba454eb	0.005015006
29	0x3ccefc87	0.025266899
30	0x3c9a4940	0.018833756
31	0x3aacc91b	0.0013182493
32	0x3d6cf4e9	0.057850752
33	0x3aa7d3a8	0.0012804167
34	0x3d1dcea2	0.03852714
35	0x3abd118b	0.0014424784
36	0x3d30dd1e	0.043179624
37	0x3d6df1d0	0.05809194
38	0x3d1b7fbf	0.037963625
39	0x3d17f6ad	0.037100483
40	0xbd31fbc8	-0.043453008
41	0xbd36ef4f	-0.044661816
42	0xbc868b08	-0.016423717
43	0xbcb32b8e	-0.021871354
44	0xbcc32042	-0.023819093
45	0x3c46b616	0.012128374
46	0xbd882f12	-0.06649603
47	0xbce7a91e	-0.028278884
48	0xbd287726	-0.041129254
49	0xbd65f208	-0.056139022
50	0xbd2317a1	-0.039817456
51	0xbb9f005e	-0.0048523387
52	0x3d4bfe41	0.049803022
53	0xbc6c3763	-0.014417502
54	0x3d1ddbcc	0.038539693
55	0xbd0a8848	-0.033821374
56	0xbc1157de	-0.008871047
57	0x3b8e0e5d	0.0043352083
58	0x3d3cca8e	0.04609161
59	0xbc4b1b7d	-0.01239669
60	0xbcc52578	-0.024065718
61	0x3d20819d	0.03918611
62	0xbc8329a8	-0.016011074
63	0x3d188a85	0.037241478
64	0xbcc331e8	-0.023827508
65	0x3d2620ef	0.04055875
66	0xbcf24198	-0.029572293
67	0xbc7d6104	-0.015465025
68	0xbcf4875a	-0.029849697
69	0xbd3f3695	-0.046682913
70	0x3c72778a	0.014799008
71	0xbcd0e7e6	-0.025501203
72	0x3d6cb96d	0.057794023
73	0x3cb9191d	0.022594983
74	0x3d0dc0fa	0.034607865
75	0xbb33cc14	-0.0027434872
76	0x3d70dc80	0.058804035
77	0x3c3936ff	0.011304616
78	0x3d1d6232	0.038423724
79	0x3ca9ba06	0.020718586
80	0x3c959c9c	0.018263154
81	0xbce6af09	-0.028159635
82	0xbd692225	-0.05691733
83	0x3d30d12d	0.043168236
84	0xbd3274a4	-0.04356827
85	0xbd854a66	-0.06508331
86	0xba3a30cc	-0.0007102608
87	0x3cf4cd39	0.029883014
88	0xbd556925	-0.052102227
89	0xbcbb0280	-0.02282834
90	0x3cfdd269	0.03098412
91	0xbd9bcb8c	-0.07607183
92	0x3cb94780	0.022617102
93	0xbbf8a4da	-0.007588011
94	0xbc46f921	-0.012144358
95	0x3b134750	0.0022472925
96	0x3c51f7da	0.01281544
97	0xbd25ca55	-0.040476162
98	0xbd8ed865	-0.06974868
99	0x3bf98b23	0.0076154633
100	0x3d042ef8	0.032271355
101	0x3b5626dc	0.003267697
102	0x3d371058	0.04469332
103	0x3d8fa212	0.07013334
104	0x3da37540	0.07981348
105	0x3cc8f0eb	0.024528941
106	0x3cac9e8c	0.021071695
107	0x3d746467	0.059666064
108	0x3d0e7f38	0.034789294
109	0xbdbbd84d	-0.091721155
110	0xbd2a856d	-0.04163115
111	0x3cc9b294	0.024621285
112	0xbcb95d2e	-0.02262744
113	0x3d26e2e3	0.04074372
114	0x3d5f5c37	0.054531302
115	0x3d0d3952	0.034478493
116	0xbd52c65a	-0.051458694
117	0x3ca746c0	0.020419478
118	0x3bd33dde	0.006446584
119	0xbc81b110	-0.0158315
120	0x3c088656	0.008332809
121	0xbce4ab43	-0.027913695
122	0x3cf615b1	0.03003964
123	0xbd7db731	-0.061942283
124	0x3bf9e4f3	0.00762617
125	0x3d957832	0.07298316
126	0xbcd02ea7	-0.02541287
127	0xbd931537	-0.07181781
128	0xbc9c15ff	-0.019053457
129	0x3c02c036	0.007980397
130	0xbd06fbd8	-0.03295502
131	0x3d2e5e8a	0.04257063
132	0xbd5ffa0d	-0.054681826
133	0xbd568c56	-0.05237993
134	0x3c3f94bf	0.011693179
135	0xbc8372af	-0.016045896
136	0xbd57f82e	-0.052726917
137	0x3cef70b7	0.029228551
138	0xbcd20dee	-0.025641408
139	0x3d34e519	0.044163797
140	0xbcf0a372	-0.029374812
141	0x3cf22526	0.02955873
142	0x3c684934	0.014177609
143	0xbd495d8f	-0.04916149
144	0x3d33ae2b	0.04386727
145	0x3cfdfcd3	0.031004345
146	0xbd06d127	-0.032914307
147	0x3d7807f2	0.060554452
148	0x3d4712fd	0.048602093
149	0xbd6b7f55	-0.05749448
150	0xbcbb69a9	-0.022877531
151	0x3b94f0ee	0.0045453226
152	0xbd7fd503	-0.062459003
153	0x3b071b67	0.0020615698
154	0x3b250eda	0.0025185854
155	0x3d613f89	0.054992232
156	0x3c899686	0.016795408
157	0x3d62eb93	0.055400442
158	0xbd3b105e	-0.045669906
159	0x3cb27e8f	0.021788863
160	0xbd0fa4ae	-0.03506916
161	0x3c5892d3	0.013218599
162	0x3d0f6f22	0.035018094
163	0xbd85c7ca	-0.06532247
164	0x3d4fa798	0.05069694
165	0xbc9cd9a2	-0.019146744
166	0x3d2e822a	0.042604603
167	0x3c8b0860	0.016971767
168	0xbd4ca6cc	-0.049963757
169	0xbc7faf70	-0.015605792
170	0xbd4787ea	-0.048713602
171	0x3c911d84	0.01771427
172	0x3baa0bd2	0.0051893974
173	0xbc407aa2	-0.011747988
174	0x3c97f769	0.018550592
175	0x3d082c0f	0.033245143
176	0xbc8c5dbf	-0.017134545
177	0xbd53ef35	-0.051741797
178	0xbd183e6c	-0.037168905
179	0x3d125cc5	0.035733003
180	0x3d060b30	0.032725513
181	0x3d8685ce	0.0656849
182	0xbca9ef8b	-0.020744106
183	0xbd3aee25	-0.04563727
184	0xbd5369ee	-0.051614694
185	0x3d85ea0c	0.065387815
186	0xbd04ec1e	-0.03245174
187	0xbc5aa97e	-0.013346074
188	0x3bfa30f4	0.00763523
189	0x3d50f9a1	0.051019315
190	0x3d825ac9	0.06364972
191	0xbbc5a9f2	-0.006032222
192	0x3d4762f4	0.048678353
193	0xbb874fee	-0.0041294014
194	0xbd385a58	-0.045008034
195	0xbd81fa2c	-0.063465446
196	0x3c5e4deb	0.013568382
197	0x3c5feb30	0.013666913
198	0xbc466b4b	-0.012110542
199	0xbd60f60e	-0.054922156
200	0xbc6429bc	-0.013925966
201	0xbd8a837c	-0.0676336
202	0xbb320a53	-0.0027166798
203	0x3c7bb49a	0.015362883
204	0x3d845a1a	0.06462498
205	0xbc1af0c8	-0.009456821
206	0xbcd25074	-0.025673129
207	0x3d30f3b9	0.043201182
208	0xbd767e16	-0.06017884
209	0xbca8a258	-0.020585224
210	0xbccce839	-0.025013076
211	0x3c0daf7c	0.008647796
212	0x3ce52859	0.02797334
213	0xbcc31eaf	-0.023818342
214	0xbc9194a1	-0.017771067
215	0x3afeaeb8	0.0019430732
216	0xbd2ce682	-0.042212017
217	0xbcddd16f	-0.027077405
218	0xbd79003c	-0.06079124
219	0x3ba9475c	0.0051659774
220	0x3d4a0c58	0.04932818
221	0x3cacd437	0.021097286
222	0x3d31aa9f	0.043375608
223	0x3d0184c9	0.031620774
224	0x3cdc1e85	0.026870022
225	0xbbea4dbd	-0.0071503804
226	0x3d28f891	0.041252676
227	0xbcc395d3	-0.023875153
228	0x3d71b158	0.05900702
229	0xbd03ca3d	-0.03217529
230	0xbc220099	-0.009887838
231	0x3d17ed1f	0.03709137
232	0x3c5780ed	0.013153297
233	0x3c21fce0	0.00988695
234	0xbd126dc0	-0.035749197
235	0x3cc2ad17	0.023764176
236	0xbd754c94	-0.059887484
237	0x3d8f1b8c	0.06987676
238	0xbd61c7cd	-0.055122185
239	0x3d1f9b16	0.03896626
240	0xbca1513a	-0.019692052
241	0x3d030ee6	0.03199663
242	0x3d6e061f	0.058111306
243	0xbd1c02a1	-0.038088445
244	0x3d883ed3	0.06652608
245	0xbd8efcd9	-0.069818206
246	0xbd96599a	-0.07341309
247	0x3ca77703	0.020442491
248	0x3c8704af	0.016481725
249	0xbda112c6	-0.07864909
250	0x3da5a4e0	0.08088088
251	0x3d80e0b6	0.0629286
252	0xbd1a8ef1	-0.037733976
253	0x3d2ac7a1	0.041694287
254	0x3d3cad3d	0.04606365
255	0x3c75468a	0.014970431

bias f4 [64]
0	0x3ca69c0e	0.020338085
1	0xbd50d1ac	-0.05098121
2	0x3ba9e40b	0.0051846555
3	0xbd250e2f	-0.04029673
4	0x3d8a6f74	0.06759539
5	0xbd9d5df8	-0.07683939
6	0x3d39a5c7	0.045324113
7	0x3bfa677a	0.00764173
8	0xbd72b8ee	-0.059258394
9	0xbd8ac143	-0.06775143
10	0x3c3aa581	0.011391998
11	0xbc935c25	-0.017988274
12	0xbccee146	-0.025253903
13	0x3bc40af1	0.0059827496
14	0xbd63ac49	-0.055584226
15	0xbcf7b04a	-0.030235428
16	0x3cc49d18	0.02400069
17	0x3d38f9f2	0.04516024
18	0xbd2d9178	-0.042375058
19	0xbd868a56	-0.06569354
20	0xbd88328c	-0.06650266
21	0xbbcaa357	-0.0061840224
22	0x3cda09bc	0.02661597
23	0xbd7ddf42	-0.061980493
24	0xbbd4e3b4	-0.006496871
25	0x3b88a22b	0.0041697226
26	0xbd68e65d	-0.056860317
27	0xbd6720b1	-0.05642766
28	0xbd10b891	-0.035332266
29	0xbd620d54	-0.055188492
30	0xbc4401e9	-0.011963346
31	0xbd93920a	-0.07205589
32	0xbd9c30dc	-0.07626507
33	0x3cd9925b	0.026559046
34	0x3bb396f8	0.0054806434
35	0xbc00c34e	-0.007859064
36	0x3d684def	0.05671495
37	0x3d157008	0.036483794
38	0xbd4ffeb0	-0.05078
39	0x3c4a3043	0.012340608
40	0xbd04aafe	-0.032389633
41	0xbc817643	-0.015803462
42	0x3cc51490	0.024057657
43	0xbadda55d	-0.0016910244
44	0xbb488b24	-0.0030600512
45	0x3d380e29	0.04493538
46	0x3a441012	0.00074792013
47	0xbc8bd68e	-0.017070081
48	0xbda45acd	-0.080251314
49	0xbd05d404	-0.032672897
50	0xbb31fbb3	-0.002715808
51	0xbbdf2f63	-0.006811069
52	0xbd95a076	-0.07305996
53	0x3d5f0cd5	0.054455597
54	0x3d1c2d27	0.038128998
55	0xbd8694db	-0.06571361
56	0xbd384b9e	-0.04499399
57	0xbb1e3d50	-0.0024145432
58	0x3d20fcb5	0.0393035
59	0xbd0202b3	-0.031740855
60	0xbd5f96c9	-0.05458716
61	0x3bc35879	0.0059614745
62	0xbcfe2f9a	-0.031028558
63	0xbda02196	-0.07818906

weight f4 [64, 64, 3]
0	0xbd8ee613	-0.06977477
1	0x3ce6e9c0	0.028187633
2	0xbc8a10f2	-0.016853783
3	0x3bf6c823	0.0075311824
4	0xbd0c44d4	-0.034245327
5	0xbc9c8970	-0.019108504
6	0x3bf6377e	0.0075139394
7	0xbd8b52a7	-0.06802874
8	0xbd03f56a	-0.032216467
9	0x3cdb02aa	0.026734669
10	0x3c54a87f	0.012979626
11	0xbd5518df	-0.052025672
12	0x3c3eee51	0.011653499
13	0x3cb88bc3	0.022527581
14	0xbbded4d5	-0.006800274
15	0xbcf1146b	-0.029428681
16	0x3cc6a425	0.024248192
17	0x3c0318de	0.008001534
18	0x3cd89059	0.026436018
19	0x3d3601e3	0.044435393
20	0xbd9b188e	-0.07573043
21	0x3c619031	0.013767288
22	0x3c8464f0	0.016161412
23	0x3c8acd63	0.01694364
24	0x3d2de795	0.042457182
25	0xbcea4434	-0.028596975
26	0x3d117b96	0.03551825
27	0xbba2c116	-0.0049668653
28	0x3bd4f4c9	0.006498907
29	0x3c9c5437	0.019083126
30	0xbc96456a	-0.018343646
31	0xbcf169c5	-0.02946938
32	0x3d6f132f	0.058367904
33	0xbcaef0a8	-0.021354988
34	0x3b5b0340	0.0033418685
35	0xbc431668	-0.011907198
36	0x3d16e1d8	0.036836475
37	0x3d7e4761	0.06207979
38	0x3aeaa711	0.0017902573
39	0x3cc838ac	0.024441086
40	0x3b8f61bb	0.004375664
41	0x3d009bd5	0.031398613
42	0xbd1e40bf	-0.038635965
43	0x3c01843d	0.007905063
44	0x3d740226	0.05957236
45	0xbd287101	-0.041123394
46	0x3c88e94c	0.016712807
47	0x3d967e37	0.07348292
48	0xbd21b0ae	-0.039475136
49	0x3d2c8fe7	0.042129423
50	0x3d0e6e5f	0.034773227
51	0x3c83cb98	0.016088292
52	0xbd52ae6a	-0.051435865
53	0xbd5b8b89	-0.053599868
54	0xbd913a08	-0.07091147
55	0x3c3ddd6b	0.011588435
56	0xb9df19bf	-0.00042553057
57	0xbd3a6891	-0.04550988
58	0x3d578c14	0.052623823
59	0xbcf0e3a2	-0.029405419
60	0x3c4864f9	0.012231105
61	0xbd16713b	-0.03672908
62	0xbcec1cae	-0.02882227
63	0xbd01eb35	-0.03171845
64	0x3c19858d	0.00937022
65	0xbd0a0633	-0.03369732
66	0xbbb57d1d	-0.0055385963
67	0x3cc1ab57	0.023641272
68	0xbce57eb3	-0.028014516
69	0xbcc3d4d3	-0.023905193
70	0x3d1238fe	0.035698883
71	0x3c162984	0.0091651715
72	0xbd4772e1	-0.04869354
73	0xbd1e9ee9	-0.038725767
74	0xbd0d405e	-0.034485213
75	0x3cb69509	0.022287862
76	0x3d657547	0.056020048
77	0x3d0fc6ea	0.03510181
78	0x3d19fb78	0.037593335
79	0x3b2dc40d	0.002651456
80	0x3d5bec22	0.05369199
81	0xbce7c0b4	-0.02829013
82	0xbd2987a4	-0.041389123
83	0xbd66b5e7	-0.05632582
84	0x3d575362	0.052569754
85	0x3d79ed95	0.06101759
86	0xbc880ad9	-0.016606735
87	0x3d0ff647	0.035146978
88	0x3d0d900c	0.034561202
89	0x3d4599f0	0.04824251
90	0xbc0c93c2	-0.00858015
91	0x3d13eacf	0.036112603
92	0x3d31bc52	0.043392487
93	0x3d559c3b	0.052150946
94	0x399fc1a9	0.0003047113
95	0xbd6c6390	-0.057712138
96	0x3d561fd5	0.05227645
97	0xbd877759	-0.06614561
98	0x3d497d07	0.0491915
99	0x3cacc1e2	0.021088544
100	0x3d0ed0d2	0.034867115
101	0xbd16f209	-0.036851916
102	0xbc3bd27e	-0.0114637595
103	0x3bb58f06	0.0055407314
104	0x3d08a3bd	0.033359278
105	0x3db8e6eb	0.09028419
106	0x3db55770	0.08854568
107	0x3d9c5ebb	0.07635256
108	0x3c280944	0.010256115
109	0x3d3f8f53	0.046767544
110	0xbd11dbdc	-0.035610065
111	0xbcafbfaa	-0.021453697
112	0xbd612ea4	-0.05497612
113	0x3d594d93	0.053052496
114	0xbd04923f	-0.032366034
115	0x3d201f45	0.03909232
116	0x3c0ecd6f	0.008715971
117	0x3ae3f451	0.0017391538
118	0x3d5960f4	0.053070977
119	0xbd3a8bcb	-0.045543473
120	0x3c9b2894	0.018940248
121	0x3d82d6b8	0.063886106
122	0x3cb01e04	0.021498688
123	0x3d572bae	0.05253189
124	0x3d969968	0.07353479
125	0x3d186942	0.037209757
126	0x3cb8af6e	0.022544589
127	0x3cdde632	0.027087305
128	0x3ce7ecec	0.028311215
129	0x3bbe3f53	0.0058058887
130	0xbb35f33c	-0.0027763387
131	0xbcc60db8	-0.024176463
132	0x3bc11ade	0.0058930954
133	0xbd0651c2	-0.032792814
134	0x3c0e42fd	0.008682963
135	0x3ca34931	0.019932361
136	0x3ce4d287	0.027932419
137	0xbcada407	-0.021196378
138	0x3d544523	0.051823746
139	0x3c7a1f76	0.01526629
140	0xbaf562a6	-0.0018721416
141	0xbd526158	-0.051362365
142	0x3cf3451c	0.02969604
143	0xbcc4eb05	-0.024037847
144	0x3daaa82a	0.08332856
145	0xbb5639c5	-0.0032688242
146	0x3d5ec8c3	0.05439068
147	0xbd5d7657	-0.054067936
148	0xbd991f66	-0.07476692
149	0xbd980344	-0.07422498
150	0xbd1908c5	-0.03736188
151	0x3d45ce63	0.04829253
152	0xbd0896b1	-0.033346836
153	0xbc425411	-0.011860863
154	0x3d2b9bbd	0.04189657
155	0x3ccc2fc2	0.024925116
156	0xbd58312e	-0.052781276
157	0xbca39f9a	-0.019973565
158	0x3db45db5	0.08806936
159	0xbd268c63	-0.040661227
160	0x3d2443a4	0.04010357
161	0xbd7737d0	-0.06035596
162	0xbc2d9366	-0.010594225
163	0xbcbeb841	-0.023281218
164	0x3cd5d730	0.026103586
165	0xbc21d946	-0.009878462
166	0x3d23575e	0.03987824
167	0x3cdd0313	0.026979005
168	0x3da3aecc	0.07992324
169	0x3d609d05	0.054837245
170	0xbceece9e	-0.029151257
171	0x3d8083f2	0.062751666
172	0xbc900caa	-0.017584164
173	0x3cafa116	0.021439116
174	0xbbb51f9f	-0.005527451
175	0xbd758e1b	-0.059949975
176	0x3c469f1d	0.0121228965
177	0xbcb39d1e	-0.021925505
178	0xbce5f158	-0.028069183
179	0x3d04f676	0.032461606
180	0x3c3a1712	0.011358039
181	0xbd435fda	-0.047698833
182	0x3d07cdc1	0.033155207
183	0xbd8e65bc	-0.06952998
184	0xbcf488f4	-0.02985046
185	0x3d23560d	0.039876986
186	0x3d83a901	0.06428719
187	0xbd29afe7	-0.04142752
188	0xbb9ec73e	-0.004845529
189	0xbbdcfb71	-0.0067438413
190	0xbc8b5564	-0.01700849
191	0x3d0aacd8	0.033856243
192	0xbc70d6f3	-0.014699685
193	0xbd4b52a7	-0.04963937
194	0xbd0fab46	-0.03507545
195	0x3c84dff6	0.016220074
196	0x3cae4dec	0.02127739
197	0xbcffadbe	-0.031210776
198	0x39217477	0.00015397543
199	0x3cbcb13d	0.023033733
200	0xbd202be0	-0.039104342
201	0xbccc4901	-0.024937155
202	0x3d37d05c	0.04487644
203	0x3d4c689e	0.04990446
204	0xbd4bb119	-0.04972944
205	0x3d0583f0	0.03259653
206	0x3d422680	0.047399998
207	0x3cd8cdd0	0.026465327
208	0x3cbe1b30	0.023206323
209	0xbcdcc501	-0.026949408
210	0xbd93ae19	-0.07210941
211	0xbd76ea40	-0.060281992
212	0xbc9c6ce8	-0.0190949
213	0x3d9f3c47	0.07775169
214	0xbd12ad4d	-0.035809804
215	0xbb8de9e9	-0.004330863
216	0xbc370abf	-0.011171996
217	0xbceffe5b	-0.02929609
218	0x3cafb07f	0.021446465
219	0x3d671e99	0.056425665
220	0xbc8465a5	-0.01616175
221	0xbd07f4ad	-0.033192325
222	0xbc88f1ff	-0.016716955
223	0x3d570615	0.052496035
224	0xbd40e8a8	-0.04709688
225	0x3d22fb27	0.0397903
226	0xbb2b367d	-0.0026125007
227	0x3b886d2b	0.0041634045
228	0xbc8a95e7	-0.016917182
229	0xbd8d77ac	-0.06907591
230	0x3d1cd9fd	0.038293827
231	0x3d808ad5	0.0627648
232	0xbd191332	-0.03737182
233	0xbab5561a	-0.0013834864
234	0x3c00cfbc	0.007862028
235	0x3cf076ca	0.029353518
236	0x3d2df227	0.042467263
237	0xbda38349	-0.07984025
238	0xbcd34572	-0.02578995
239	0xbc992583	-0.018694645
240	0xbd312290	-0.043245852
241	0x3c70c9a4	0.014696512
242	0xbd29f820	-0.041496396
243	0xba6ec593	-0.00091084203
244	0xbd15a276	-0.036531888
245	0x3c89f38c	0.016839765
246	0xbd400625	-0.04688086
247	0x3d888822	0.0666659
248	0xbd9894f6	-0.07450287
249	0x3d32c4ba	0.043644644
250	0x3c96fd12	0.01843122
251	0x3d4d1b4d	0.050074864
252	0x3bc33bda	0.0059580626
253	0x3cc92ae9	0.024556594
254	0x3ccab0c2	0.024742488
255	0x3d48e89a	0.04904995

bias f4 [64]
0	0xbd0e1f6c	-0.034697935
1	0xbd0220f0	-0.031769693
2	0x3d445354	0.04793103
3	0xbca5dcb2	-0.020246837
4	0xbd08fe77	-0.0334458
5	0xbd208f84	-0.039199367
6	0xbce8d2a7	-0.02842076
7	0xbcb6cfb3	-0.022315836
8	0xbb207914	-0.002448623
9	0xbdb6bb2e	-0.089224204
10	0xbd9118e3	-0.07084825
11	0xbd22dad4	-0.039759472
12	0xbd50e368	-0.05099812
13	0x3d2a7429	0.041614685
14	0x3c151c17	0.009100935
15	0x3cd7bb1d	0.02633434
16	0x39cc63ed	0.00038984363
17	0x3cbf2a1e	0.023335513
18	0x3d1b87b8	0.03797123
19	0xbc7fba1a	-0.015608335
20	0xbc0b2737	-0.008493236
21	0x3d0084b4	0.031376556
22	0xbc1028d5	-0.008798798
23	0xbccad12f	-0.02475795
24	0xbd51c6d5	-0.05121501
25	0x3c9bf83c	0.019039266
26	0xbd86520e	-0.065586194
27	0xbd21dabd	-0.039515246
28	0x3c72909f	0.014804988
29	0xb9d3a2c4	-0.00040366326
30	0x3c5b3f66	0.013381815
31	0xbbd51711	-0.006502994
32	0x3baa6f5e	0.0052012643
33	0x3d3a764a	0.045522965
34	0xbd74e992	-0.059793063
35	0xbc17bfe7	-0.009262062
36	0x3d280e8c	0.041029498
37	0x3bf99e2b	0.007617732
38	0x3d3483b4	0.044070914
39	0xbc2beb63	-0.010493132
40	0xbd13a84f	-0.036049183
41	0x3cd61afc	0.026135914
42	0xbb3f0726	-0.0029148548
43	0x3d49008d	0.04907279
44	0xbd88f50d	-0.06687365
45	0x3cebac5b	0.028768709
46	0x3d9bc5d0	0.07606089
47	0x3bf2d510	0.007410653
48	0x3b80b77a	0.003928122
49	0xbc80d6c9	-0.015727418
50	0xbc689930	-0.014196679
51	0xba849bcc	-0.0010117232
52	0xbd5cfa11	-0.05394942
53	0x3d90bc07	0.07067113
54	0xbdaf0288	-0.08545405
55	0xbc0beb42	-0.008539977
56	0xbd6827c2	-0.05667854
57	0xbd6a0cf3	-0.057141256
58	0x3cd2a539	0.02571355
59	0xbda70e4e	-0.08157025
60	0x3d3f31c3	0.046678316
61	0xbd66d405	-0.05635454
62	0xbd443fb0	-0.0479123
63	0x3d2117f7	0.039329495

weight f4 [64, 64, 3]
0	0xbc834472	-0.016023848
1	0x3c8980ca	0.016785044
2	0x3d51aa5c	0.051187858
3	0x3be558e3	0.0069991215
4	0xbd1c80cf	-0.03820878
5	0xbd275301	-0.040850643
6	0x3c4739d2	0.0121597815
7	0x3d8da78f	0.06916725
8	0xbd519e6a	-0.051176466
9	0xbcef3d46	-0.029204022
10	0x3d17b652	0.03703911
11	0x3d04c388	0.032413036
12	0x3d7b1f08	0.06130889
13	0x3d85ab86	0.06526856
14	0x3d1491b8	0.03627178
15	0x3d60fd0b	0.05492882
16	0x3d3f517e	0.046708576
17	0xbc73aacc	-0.014872264
18	0x3cf5febe	0.030028697
19	0xbc93f6fc	-0.018062107
20	0xbcc1043b	-0.023561588
21	0x3d1083fe	0.035282128
22	0x3d90cadd	0.07069943
23	0x3c980bb7	0.018560274
24	0x3ce83116	0.028343718
25	0xbd332592	-0.043737
26	0x3cec9108	0.02887775
27	0xbd428e38	-0.04749891
28	0x3cf52406	0.029924404
29	0x3c9e1542	0.019297246
30	0x3c3a7970	0.011381492
31	0xbda6236f	-0.08112227
32	0x3c6d25f0	0.014474377
33	0x3d7baf6c	0.061446592
34	0x3d803dc3	0.0626178
35	0xbc43365b	-0.011914815
36	0x3ccd3adb	0.025052479
37	0xbd7ba659	-0.06143794
38	0x3c168dbb	0.009189065
39	0xb9b6a1cf	-0.00034834302
40	0x3b095f06	0.002096118
41	0x3c6fa4d8	0.014626704
42	0x3ce07a20	0.027401984
43	0x3b1a06fb	0.0023502696
44	0xbceec4ca	-0.02914657
45	0xbcc7c85d	-0.024387533
46	0xbbf88c51	-0.0075850864
47	0x3dbda74f	0.09260427
48	0xbda54410	-0.080696225
49	0xbc205b5f	-0.00978741
50	0xbd11d2f9	-0.03560159
51	0xbce27321	-0.027642788
52	0x3c8b39a2	0.016995255
53	0xbcae715e	-0.021294292
54	0xbd7eb001	-0.06217957
55	0xbc054d55	-0.008136113
56	0x3cf94215	0.030427018
57	0xbde1ce9a	-0.11025734
58	0xbccc49ae	-0.024937477
59	0xbca1db7b	-0.019757977
60	0xbca5698d	-0.020191932
61	0x3d29caa5	0.041453023
62	0x3d52a2c2	0.05142475
63	0xbd56fff5	-0.052490193
64	0x3cff38f4	0.031155087
65	0xbd47645e	-0.048679702
66	0xbd816a00	-0.06319046
67	0xbd8b6c21	-0.06807733
68	0xbcd8f60c	-0.026484512
69	0x3d25263c	0.040319666
70	0x3ca68bde	0.020330366
71	0xbca09e48	-0.019606724
72	0xbd9d1ecd	-0.076718904
73	0x3cab2ad0	0.020894438
74	0x3d602559	0.054723118
75	0x3c901eed	0.017592872
76	0x3be8365c	0.0070865583
77	0xbd562d53	-0.05228932
78	0x3d88ac07	0.066734366
79	0xbd255640	-0.040365458
80	0x3d35db9b	0.044398885
81	0x3d86cda5	0.06582192
82	0xbcfd73ea	-0.030939061
83	0x3d34ad57	0.044110622
84	0x3c7e38bd	0.015516457
85	0xbb98a6e1	-0.0046585654
86	0xbd233470	-0.03984493
87	0x3c8bb99d	0.01705628
88	0x3d120f4e	0.035659127
89	0xbc971466	-0.018442344
90	0x3d5238ed	0.05132382
91	0x3d878efd	0.0661907
92	0x3b0b0053	0.002120991
93	0xbd34face	-0.0441845
94	0x3d0420a2	0.032257684
95	0x3cb19486	0.021677267
96	0x3c8261ba	0.01591574
97	0xbc7221bc	-0.014778551
98	0xbd69611b	-0.056977373
99	0xbd22c62e	-0.03973978
100	0x3a08e587	0.00052221905
101	0xbcfe0ae1	-0.031011047
102	0xbd75acdf	-0.059979316
103	0xbd44899d	-0.0479828
104	0xbd8c6c16	-0.06856553
105	0xbd81e5e0	-0.06342673
106	0x39f089e0	0.00045879092
107	0xbc945fc7	-0.018112076
108	0x3d17a315	0.03702076
109	0xbcfc5f83	-0.030807262
110	0x3ce2ced3	0.027686512
111	0xbd5fb086	-0.054611705
112	0xbb097879	-0.0020976348
113	0x3caa7bf2	0.020811055
114	0x3d62a94c	0.055337235
115	0xbd6b6eef	-0.05747884
116	0x3cd20698	0.02563791
117	0xbcfa8d74	-0.030585028
118	0x3d26f11f	0.040757295
119	0x3c6f1a64	0.014593694
120	0x3d1256d1	0.035727326
121	0x3c363c3e	0.011122761
122	0xbd7f87a6	-0.062385224
123	0xbd8aa819	-0.06770343
124	0x3c818cf5	0.015814284
125	0x3d6f6096	0.05844172
126	0x3d0cf768	0.034415632
127	0xbd8d0c96	-0.06887166
128	0xbcb6c455	-0.022310415
129	0x3c9bbba0	0.019010365
130	0x3d78e749	0.060767446
131	0xbcca36df	-0.024684368
132	0xbd7bbc86	-0.061459087
133	0x3d111a5f	0.03542554
134	0x3d803b1c	0.06261274
135	0x3d53a5a9	0.051671658
136	0xbc6aac26	-0.01432327
137	0xbc3cd1e5	-0.011524652
138	0x3d9918a0	0.074754
139	0xbd226fb5	-0.039657313
140	0x3d1dd893	0.03853662
141	0xbd9aef8e	-0.07565223
142	0xbd42b5f0	-0.04753679
143	0xb950a0e8	-0.00019896368
144	0x3d31e2a8	0.043429047
145	0x3afba05b	0.001919757
146	0xbd54d172	-0.051957555
147	0x3d854a0d	0.06508265
148	0x3d4e64cc	0.050389096
149	0xbd7887f8	-0.060676545
150	0x3c9fb53e	0.019495603
151	0x3d9041d7	0.07043808
152	0x3d9e2a75	0.07722942
153	0x3d2ce3b8	0.042209357
154	0x3d4d09fb	0.050058346
155	0x3af5da17	0.0018757012
156	0xbd51c346	-0.051211618
157	0x3cc07746	0.023494374
158	0xbd5057a5	-0.050864834
159	0xbcb4ffd5	-0.022094646
160	0xba7cd428	-0.0009644651
161	0xbd9ab9f6	-0.075550005
162	0xbd69a4aa	-0.0570418
163	0xbd5e3a36	-0.054254733
164	0x3d7d1d96	0.061795793
165	0x3d53d820	0.051719785
166	0xbb8487d5	-0.0040445128
167	0xbd0ff791	-0.035148207
168	0x3a27efd7	0.00064062834
169	0xbc9f877a	-0.01947378
170	0xbcd5a0a8	-0.026077583
171	0xbdc047e2	-0.093887106
172	0x3b8edba3	0.004359679
173	0xbd4f704e	-0.05064421
174	0x3cab12ee	0.02088305
175	0x3dc41051	0.095734246
176	0x3c8c7ced	0.017149413
177	0xbcc75a21	-0.024334969
178	0x3d0ae598	0.033910364
179	0xbd3566d6	-0.044287525
180	0x3900a6d2	0.00012269177
181	0x3da33f1b	0.07971021
182	0xbb4e1b70	-0.003144946
183	0x3d4e7e0d	0.05041318
184	0x3c6a2430	0.014290854
185	0xbd12bb88	-0.035823375
186	0xbb6486c4	-0.0034870366
187	0xbd5ec8c9	-0.054390702
188	0xbd376b0f	-0.044779833
189	0xbb9c914b	-0.0047780625
190	0x3d9877a9	0.07444698
191	0x3d0996b9	0.033591006
192	0x3d615c3f	0.055019613
193	0x3c835448	0.0160314
194	0xba478a28	-0.00076118344
195	0x3b4c1eef	0.0031146368
196	0xbd754bb2	-0.05988664
197	0x3c5c3873	0.013441193
198	0xbc975899	-0.018474864
199	0x3d3f9177	0.046769585
200	0xbd415b5b	-0.047206264
201	0xbd2a94a5	-0.041645665
202	0x3d5280e0	0.051392436
203	0xbaaa1523	-0.001297627
204	0x3a44b334	0.000750351
205	0x3d6dda45	0.058069486
206	0x3d115c4a	0.035488404
207	0x3c9868a7	0.01860459
208	0x3d3a953f	0.04555249
209	0xbcfc1bff	-0.030775068
210	0x3b66c0f6	0.0035210229
211	0xbca8c774	-0.02060292
212	0xbd69b367	-0.057055857
213	0xbce96ee1	-0.028495254
214	0x3de80c30	0.113304496
215	0x3d48829a	0.048952676
216	0xbd09b6f4	-0.033621743
217	0xbd11c0fc	-0.035584435
218	0xbb92b03b	-0.0044765747
219	0x3c76ab7f	0.015055536
220	0xbd2077b4	-0.039176658
221	0x3c5048be	0.012712656
222	0xbb28ea0f	-0.0025774275
223	0xbcf57e7f	-0.029967545
224	0xbcfa8458	-0.030580685
225	0x3d5bcf7b	0.053664666
226	0xbd85166b	-0.064984165
227	0x3cf36e9f	0.029715834
228	0x3d1da310	0.038485587
229	0x3c38f20a	0.011288175
230	0x3d6522bf	0.05594134
231	0x3c375b51	0.011191205
232	0x3d1e7922	0.03868974
233	0x3c1f640f	0.009728446
234	0x3d9b4bac	0.07582793
235	0x3c9d30a7	0.019188238
236	0x3e066706	0.13125238
237	0x3d381f32	0.044951625
238	0x3de33f8c	0.11096105
239	0x3e27bcaf	0.16380571
240	0xbd5dcd30	-0.05415076
241	0x3ca196ab	0.019725164
242	0x3d7e8460	0.06213796
243	0x3d805d3c	0.06267783
244	0x3d35ca8d	0.04438262
245	0xbd32db0e	-0.043665938
246	0x3c77cfb9	0.0151252085
247	0xbd2e3b68	-0.042537123
248	0xbcce301b	-0.025169423
249	0x3b1a7ef9	0.0023574217
250	0xbcdcb725	-0.026942799
251	0x3d046dce	0.03233128
252	0xbd3e5846	-0.046470903
253	0xbc82c73f	-0.015964149
254	0x3ce31b2f	0.027722923
255	0x3d88b603	0.06675341
