models/OSheaCNN2018_20_last.pt (torch, 650642 bytes, 20 tensors)

weight f4 [64, 2, 3]
000000 f9 32 a1 be 25 a9 ed be ee c4 1e be eb cf 8a be
       -0.31484202 -0.4641811 -0.1550481 -0.27111754
000010 be 3b 27 3e 60 6e 14 3e 12 b5 a0 3e f3 07 2c 3e
       0.16331384 0.1449523 0.31388146 0.16799907
000020 6a 69 ed 3e b3 b1 d2 3d 4d 96 a4 bd 8c d1 75 3e
       0.46369487 0.102878 -0.0803648 0.24005717
000030 8c b8 ad 3e da a4 03 3e 01 d6 68 3e 89 0a 8e 3d
       0.3392986 0.12855855 0.22737886 0.06935603
000040 e4 26 7c be 52 05 3e be a2 33 76 be f3 7b 85 3d
       -0.2462421 -0.18556717 -0.24043134 0.06517782
000050 37 a2 6d 3e 24 80 42 3e 3f e0 8d 3d 4a 01 90 be
       0.23206411 0.18994194 0.06927537 -0.28125983
000060 60 5d 96 bd 9d 4a 46 3d e5 61 b0 3e 6b 6d 37 be
       -0.073420286 0.048411 0.34449688 -0.17912833
000070 22 ee 9c 3e 63 1b 93 3e 5c 97 81 be dc 38 84 be
       0.3065043 0.28731832 -0.2531079 -0.2582463
000080 e4 51 de 3d 66 ec 50 be b7 09 d0 be 7a 79 bd be
       0.10855463 -0.20402679 -0.40632412 -0.37006742
000090 cb 86 81 be e1 33 37 be 28 95 d4 be 0f 18 f0 bd
       -0.2529815 -0.17890884 -0.41520047 -0.11723339
0000a0 db f2 83 be 70 78 cb be 64 17 c4 3d 7a c0 04 3e
       -0.25771222 -0.39740324 0.09574774 0.12964049
0000b0 8d db d1 bd 48 29 e6 be d0 11 81 be 91 f2 c1 bd
       -0.10246954 -0.4495337 -0.25208902 -0.09470094
0000c0 20 de ca be bf e1 d9 bd 81 bd 37 3d 99 3e 79 3e
       -0.39622593 -0.10638761 0.04485846 0.24340285
0000d0 e5 d6 8f 3e 9e 59 34 be 42 75 61 3e 1a 8d c0 3e
       0.2809364 -0.17612311 0.22017387 0.37607652
0000e0 5e 98 f6 3d 9f 1b 20 3d fe 58 b6 be f9 3f 45 be
       0.120407805 0.03908884 -0.3561477 -0.19262685
0000f0 70 b4 b8 3e e7 30 b6 3e b3 7d f0 3d 70 ad 15 bc
       0.36075163 0.35584185 0.11742725 -0.009135589
000100 e6 ec 66 3d 59 ae 46 3e 52 a8 0f be 9c 98 ba be
       0.056378268 0.19402446 -0.14029053 -0.36444557
000110 c2 fa 3c ba b9 0c 97 be 62 ce d2 be a3 f7 d3 be
       -0.00072089967 -0.29501894 -0.41173083 -0.4139987
000120 73 e3 9a 3e f2 b3 27 3d 4c b3 64 3d 69 42 c7 bd
       0.30251655 0.040943094 0.055835053 -0.097294636
000130 37 28 92 bd 72 4e 98 bd 3d 80 8b be e4 ac f6 bd
       -0.071365766 -0.07436837 -0.27246276 -0.12044695
000140 4e 13 87 3e f6 ea 96 3e 54 20 40 be 1a c9 61 be
       0.26381916 0.29476136 -0.18762332 -0.2204937
000150 ef 43 c7 3e 7b 5b bf 3e 11 e4 9a 3d 2f 9d df 3e
       0.38919017 0.37374482 0.075630315 0.4367461
000160 b3 4d 56 3e 95 8c 9f 3e 37 1f 94 be 59 70 b8 bc
       0.20928077 0.31161943 -0.28930065 -0.022514509
000170 42 4a c6 be e7 ec 8b 3e 9b a6 cd 3e ba 65 e5 3e
       -0.3872853 0.2732918 0.40166172 0.44804174
000180 76 ba 6c be b8 17 f0 3c 43 2b 5b be b0 0a 63 3e
       -0.23118004 0.029308185 -0.21403222 0.22172046
000190 81 72 7a 3e ac 2b 08 bd fa bb 1d 3e b2 78 e5 3d
       0.24457742 -0.033244774 0.15403739 0.112046614
0001a0 e4 13 89 be 40 40 c2 3e bb 2e b5 3c be cc 4b 3e
       -0.26772988 0.37939644 0.02211701 0.19902322
0001b0 5a 4c 98 be 9e dc 83 3e 49 0c 3d bc eb da 65 be
       -0.29745752 0.25754255 -0.011538574 -0.22446792
0001c0 41 ee 16 be 0b 75 93 be fd f1 04 be 91 1d 6c bd
       -0.14739324 -0.28800234 -0.12982936 -0.057645384
0001d0 a1 c8 df be 3c 15 17 3e 15 77 24 bd be 89 c7 be
       -0.43707755 0.14754194 -0.040152628 -0.38972276
0001e0 28 ff 67 3e 33 02 af be 76 5f 78 bd 04 50 ca 3e
       0.22655928 -0.34181365 -0.060637914 0.39514172
0001f0 35 0c d1 3e c8 b6 0d be e6 93 ca bd d7 a1 6a be
       0.40829626 -0.13839257 -0.09891491 -0.229133
000200 44 ba 2e 3e 1a 02 96 be 68 cd 13 bd 70 0b cb 3e
       0.17063242 -0.29298478 -0.036084563 0.39657164
000210 35 d1 1a 3e e5 7e 10 3e 1a e6 b3 3e cd 0f a8 be
       0.15118869 0.14110906 0.3513649 -0.32824555
000220 d7 93 90 be 3d d9 8e be 6d aa 99 bd d8 85 62 be
       -0.28237793 -0.27900115 -0.07503209 -0.2212137
000230 8e 15 0e be 52 15 18 be 4d f4 a6 3e e3 a5 89 be
       -0.1387541 -0.14851883 0.32608262 -0.26884374
000240 38 78 eb 3b d2 bf b8 3e 78 5b 5b 3c 7f 50 60 be
       0.007185962 0.36083847 0.013388507 -0.21905707
000250 37 24 81 3e 45 e5 ec bd bc f5 9b 3e a3 b8 2a 3e
       0.25222942 -0.11567167 0.30460918 0.16671996
000260 ee 8e ed 3e d1 c9 48 be f8 66 cf be 6d 46 c4 be
       0.4639811 -0.19608237 -0.40508246 -0.3833498
000270 88 ff e6 be 31 7b 8c be 78 66 96 be 63 2d e9 be
       -0.4511683 -0.27437738 -0.29375052 -0.4554244
000280 3c 60 07 be 03 30 a4 be ac 8b d7 3e 50 a2 00 3f
       -0.13220304 -0.3206788 0.4209875 0.5024767
000290 5e bf ac 3e ff 5f ad be 14 3a 8a be be 08 86 3e
       0.33739752 -0.33862302 -0.26997435 0.26178545
0002a0 c3 9a bf bd ce 17 b5 bd a3 a2 c9 be 71 25 37 3d
       -0.0935569 -0.08842431 -0.39381894 0.04471344
0002b0 31 c3 a6 3e ec 5a 97 3e 95 e1 4c 3e ed bb c2 bd
       0.32570794 0.29561555 0.20007928 -0.095085
0002c0 ba 49 5c be 08 33 bb bd f6 77 d2 be 3d 86 d7 be
       -0.215125 -0.09140593 -0.41107148 -0.42094603
0002d0 ba d9 e0 be c8 38 23 bd cf 5a 91 be 26 6b b6 be
       -0.43916112 -0.039849073 -0.28389594 -0.35628623
0002e0 12 74 ca be 7e e8 37 bd 7a 95 99 be 38 1f fb ba
       -0.3954168 -0.044899456 -0.29996854 -0.0019159084
0002f0 bf 48 d5 3d 2f 78 b3 3d 59 c5 fa bc 5c 61 d3 3c
       0.10414266 0.087631576 -0.03061168 0.02580326
000300 0f 3c 90 3e ff 1d 01 3e 2a 15 ae 3e 39 2e 7d be
       0.2817082 0.12609099 0.34000522 -0.24724664
000310 ad 28 d3 3e 6c 96 ca 3e 35 63 5f 3e 36 24 ab 3d
       0.4124197 0.39567888 0.21815188 0.08356516
000320 1d 4c a0 bd 5c c2 eb be 6e 3d da be 3c 82 2b 3e
       -0.078270175 -0.46046722 -0.42624992 0.16748899
000330 f2 68 a4 3e a2 12 2e be ab 12 b6 3e 26 31 bd 3e
       0.32111317 -0.16999295 0.35561118 0.3695156
000340 88 8d 13 3d 3f 73 08 3e 88 a0 e5 3d 57 57 64 be
       0.036023647 0.13325213 0.112122595 -0.22298943
000350 01 20 ce 3d ae 8b 98 be 24 b9 b6 3d c7 bc 82 be
       0.10064698 -0.29794067 0.089220315 -0.2553465
000360 44 36 b4 be 01 85 b5 3e 54 c4 f6 3d 68 bb db 3e
       -0.3519765 0.35453036 0.12049165 0.42916417
000370 69 89 c6 3d fa bc 9d 3e 1f a1 6c 3e 99 bf 99 be
       0.09694178 0.3080824 0.23108338 -0.3002899
000380 0b d1 4c be 9e 04 aa 3e 4d 32 d1 3e 23 57 6e 3e
       -0.20001619 0.33206648 0.4085869 0.23275428
000390 c5 38 d5 3e 8c bd a6 3e 53 7c 4b 3d 66 df bd be
       0.41644874 0.32566488 0.04967911 -0.37084502
0003a0 71 ca 96 bb 6b cc b0 be 69 a2 c3 3e 63 b1 f3 3e
       -0.0046017696 -0.3453096 0.38209847 0.47596273
0003b0 91 22 55 3e 61 61 d5 3d c9 df 18 3b b9 2b 0f bd
       0.20813967 0.10418964 0.0023326746 -0.034953807
0003c0 57 d3 cc 3e 20 d7 ff 3d 97 83 5a 3e 30 20 01 bc
       0.4000499 0.12492204 0.2133926 -0.007881209
0003d0 6e d8 18 3e de 54 84 bc b1 85 90 3b e9 87 b1 be
       0.14926311 -0.01615375 0.0044104685 -0.34674004
0003e0 6e 08 3c be 5b 41 a5 3e f5 4b 99 bd 76 26 18 3e
       -0.1836259 0.32276425 -0.07485191 0.14858422
0003f0 09 c0 a9 bc 32 f7 a6 3e 68 f2 80 be 28 dc da 3e
       -0.020721452 0.3261047 -0.2518494 0.4274609

bias f4 [64]
000000 0b a9 64 be 36 58 92 3c 73 da a7 3e 05 f1 63 3d
       -0.2233011 0.017864328 0.3278385 0.055649776
000010 14 98 6a 3e 0d 79 8c bd 31 9e c2 3d 1d a9 1c 3d
       0.22909576 -0.06859026 0.09502829 0.038247216
000020 dd b1 ad be dc d3 af be 9e e5 47 be 15 df 8f be
       -0.3392476 -0.34341323 -0.19521186 -0.28099886
000030 cc 61 32 bd 53 99 3b bb 70 c8 ad 3e bb 65 9e be
       -0.043550298 -0.0028625324 0.33941984 -0.3093699
000040 ea a0 9f 3d 12 c5 8f be e8 4c 60 3d 2f 6d 0b be
       0.07794364 -0.2808004 0.054760844 -0.13615869
000050 a1 4b 93 be d9 33 c2 bb 92 d0 5a 3e 87 4e 81 3e
       -0.28768638 -0.005926591 0.21368626 0.25255224
000060 85 51 1c 3e a9 3f 72 bd 1e 53 ee bc 78 0c 55 3e
       0.15265472 -0.059142742 -0.029092368 0.20805538
000070 7c 7c 4e be aa f7 be be 9c d7 68 be 32 16 6b 3e
       -0.20164675 -0.37298328 -0.22738498 0.22957686
000080 b1 be a5 be d7 20 aa be 7d b7 02 3e e6 72 85 3e
       -0.32372048 -0.3322818 0.12765308 0.26064223
000090 6a 11 2f 3e 90 c4 9d be ad f1 8f 3e 50 ae b8 be
       0.17096487 -0.30814028 0.2811407 -0.3607049
0000a0 d6 23 e6 3d 34 17 94 3e b3 c2 a1 bd c6 1f 4b 3e
       0.11237304 0.28923953 -0.07898464 0.1983634
0000b0 cf 19 24 3e 47 80 e5 3d e7 14 45 3d 3b f1 0c be
       0.1602547 0.112061076 0.048115637 -0.13763897
0000c0 60 ad cf 3d 9d 46 81 be 2e 04 8c be 63 45 73 3d
       0.101404905 -0.25249186 -0.2734694 0.059392344
0000d0 2c 31 b8 bc 82 d8 51 3e ee 70 ec bc 2d be be 3b
       -0.022484384 0.20492747 -0.028862443 0.0058210106
0000e0 04 56 97 be 34 46 16 3e ab 68 71 be f8 38 eb 3d
       -0.29557812 0.14675218 -0.23575084 0.11485475
0000f0 65 7f 8b be 32 ae 21 3e 46 2d ad be 54 4c eb bd
       -0.27245632 0.15789106 -0.33823603 -0.11489168

weight f4 [64, 64, 3]
000000 15 98 12 3e a4 ee da 3c 5a 89 22 3e 92 06 e8 bc
       0.14315827 0.02672512 0.15872708 -0.028323445
000010 d7 6f de bc 2a 61 c5 bd 3e e7 36 bd 74 34 1b bc
       -0.027152939 -0.09637673 -0.044654123 -0.009472955
000020 a9 16 a7 bd fb 43 9f 3c b4 e6 47 bd d2 1c 96 bd
       -0.08158619 0.019441595 -0.048804 -0.07329716
000030 20 33 a4 bd 7f 79 ac bd 68 2d a2 bd 6b 45 75 3c
       -0.08017564 -0.08421611 -0.07918817 0.014970164
000040 c6 aa 95 3d 40 c4 48 3c 23 12 37 3b 31 00 a8 3b
       0.07307963 0.012253821 0.0027934394 0.005126976
000050 29 49 a1 3d a0 6f c7 bc e6 4c 5a 3b 1c f6 fa bc
       0.07875282 -0.02434522 0.0033309995 -0.030634932
000060 a9 1f e5 3d a5 3d 27 3b c3 af 7c 3c 33 4c 06 bb
       0.11187679 0.002551892 0.015422764 -0.0020492196
000070 1f 3c 45 3c d0 27 a9 bd f3 db d5 bd 28 03 9f bd
       0.01203826 -0.08259547 -0.104423426 -0.07764274
000080 94 c1 f8 bc b7 b7 cd 3d f4 1f eb 3d c6 28 04 3e
       -0.030365743 0.100448065 0.11480704 0.12906179
000090 93 4f a0 bd 18 0f 2f bd 5d 02 8d bd 18 8d c8 3c
       -0.078276776 -0.042739004 -0.068852164 0.024481341
0000a0 67 e4 31 bc ce e2 88 bb c5 8d 8f bd 70 88 d8 bd
       -0.010857678 -0.004177428 -0.07009462 -0.105728984
0000b0 ab 21 90 bd c5 6a 65 3d c8 59 e8 3c 37 20 14 3e
       -0.07037672 0.056010026 0.028363124 0.14465414
0000c0 a4 74 2d 3d 34 03 d4 3c f7 6e 38 3d e4 22 0d 3c
       0.042347565 0.025880434 0.0450277 0.008614276
0000d0 07 b1 07 bd e0 cf 07 3d 05 13 be 3a 65 6a d5 3c
       -0.03312781 0.03315723 0.0014501518 0.02605171
0000e0 a5 4b fe 3c 43 61 9c 3d d1 50 c3 3d da 27 fe 3d
       0.03104193 0.07635739 0.09536899 0.12409945
0000f0 9a ae d0 3c aa 07 eb bc 2a 5e a1 3c c3 73 6d 3c
       0.025473882 -0.028690178 0.019698221 0.014492932
000100 34 3b b5 3a 41 66 e9 bc 4f 47 3d bd 89 80 9c bd
       0.0013826848 -0.028491141 -0.046210583 -0.07641704
000110 41 35 db bd e2 63 0c 3d 93 a6 7c 3d 2b 07 8e 3d
       -0.10703517 0.034274943 0.061682295 0.06934961
000120 88 3c 17 bd 30 bc 9e bd a7 72 cb bd fc cb 1d bd
       -0.03692296 -0.07750738 -0.099339776 -0.038524613
000130 28 ae 51 bd 5f ae bb bd 5d 8a f1 3d b2 33 b4 3c
       -0.05119148 -0.09164118 0.11793969 0.021997306
000140 82 fd f4 3d a9 7a f4 bd c3 bc ec bc dd c2 09 be
       0.11962415 -0.11937458 -0.028898602 -0.1345324
000150 b2 7c a8 3d db 42 70 3d 63 5f b1 3d 96 29 90 3b
       0.08226909 0.05865751 0.08660772 0.0043994887
000160 aa 7b dd 3d 28 fc ee 3c 02 ea 0a 3e 19 e3 8f 3d
       0.10814603 0.029172972 0.1356583 0.07025737
000170 e4 cd 9d 3d 8b 02 55 39 56 5f c9 bb 26 1e c3 bc
       0.07705286 0.0002031421 -0.006145398 -0.023818087
000180 d5 34 ac b9 fd f1 af bd ab a1 21 bd 9c 3c e7 bc
       -0.0003284576 -0.085910775 -0.03946082 -0.028227143
000190 e7 11 cb 3c e4 4a 27 3d 29 52 62 bd 86 1e ca bd
       0.02478881 0.040842906 -0.055254135 -0.09869103
0001a0 73 cb bb bd 58 b9 36 3d c4 8b de 3c 70 22 e8 bc
       -0.09169664 0.04461035 0.027166255 -0.028336734
0001b0 f2 d0 3f bc fa 71 8a bd 22 c4 6a bd 53 4c 48 3d
       -0.011707531 -0.067600206 -0.057315953 0.048900913
0001c0 8a e5 0a 3d 97 45 82 3d e3 d7 ac bd c3 c8 59 bc
       0.03391031 0.063609295 -0.084396146 -0.013292494
0001d0 86 9f 4e bd d4 76 a4 bd 27 7a f0 3c c7 8d a6 bc
       -0.050445102 -0.08030477 0.029355122 -0.020331277
0001e0 ff df e6 bd cf 5a 26 bd 8b 3c fc bd 0b db f3 3c
       -0.112731926 -0.040613946 -0.12316235 0.029767534
0001f0 34 c1 fe 3b 6b f9 da 3b 49 59 52 bc 28 c6 96 bc
       0.0077744965 0.006682565 -0.01283867 -0.018405035
000200 91 58 3e bd 8c 70 c4 3c e9 87 90 3c 98 c7 28 bd
       -0.046471182 0.023979448 0.017642932 -0.041205972
000210 10 f5 99 3a 11 e6 f0 bc dd d2 a0 bd c7 d4 0f 3d
       0.0011746008 -0.02940658 -0.07852719 0.03511503
000220 58 4f 5f bc 2a 49 da ba c7 ed ea bc fb 59 b7 3c
       -0.013629757 -0.0016653885 -0.028677834 0.022381773
000230 d4 4e 1c bd 49 66 0e 3d 11 74 75 3c 5a 05 64 3d
       -0.038161114 0.034765515 0.014981286 0.055669166
000240 d3 27 aa bb 39 47 62 bc a7 f3 ab 3c 2b be 15 bc
       -0.0051927357 -0.013810926 0.020990206 -0.009139578
000250 28 d8 47 bd 6e ab ef bb d0 de e7 3d ad 5b 58 3c
       -0.048790127 -0.007314137 0.11321795 0.013205451
000260 d0 d3 20 3d 6a e6 21 3c 08 9e 53 bd 45 5d 66 bd
       0.0392645 0.009881595 -0.051664382 -0.056241293
000270 72 ab 80 3b 1c 15 c2 bb c2 99 36 3c a8 04 07 bc
       0.003926688 -0.0059229266 0.011145057 -0.008240856
000280 e7 4b fb 3c ec 0d 0e 3c ad 27 71 3c 2e 9b 2b bd
       0.030675841 0.008670311 0.014718932 -0.041896038
000290 58 d5 d9 bd 98 90 83 bd 81 30 c6 bd 92 0b b1 bd
       -0.10636395 -0.064240634 -0.0967722 -0.08644785
0002a0 aa 3b 54 3c 9d 77 1d bd a1 7b d0 3c fc 3d ed bb
       0.012953678 -0.03844415 0.025449576 -0.007240055
0002b0 1d 30 10 bd d7 e3 cc 3c b3 60 4e bd 3a 81 4a bd
       -0.035202134 0.025010986 -0.05038519 -0.049439646
0002c0 1e 6d a5 bd 51 db 25 3d 60 1e a4 3d a6 35 0a 3d
       -0.08077453 0.04049236 0.08013606 0.03374257
0002d0 07 c4 09 bd ff 52 3a 3a c0 9b 10 bc bd a0 c7 3d
       -0.033634212 0.00071077043 -0.008826196 0.09747455
0002e0 9d e3 a9 3b 82 c1 83 3b 15 96 67 3d 5b 9e f9 3b
       0.0051846043 0.0040208707 0.056539614 0.0076177544
0002f0 da f5 2c bd 81 43 65 bd 1c 80 e7 bc 15 bd 48 bd
       -0.04222665 -0.05597258 -0.02825933 -0.049008448
000300 8d 8e 8c bd 0d 30 dd bd 52 51 a0 bd 66 0a d7 3d
       -0.06863127 -0.108001806 -0.078280106 0.1050003
000310 c5 02 fa 3d ed dc f2 3d af d7 f5 3c 49 0a b6 bc
       0.122075595 0.118585445 0.030010073 -0.022221701
000320 8e c9 13 3d 12 f3 1e bd 87 c8 39 bd 33 85 fe 3c
       0.03608089 -0.03880603 -0.045357253 0.031069374
000330 59 5a 90 3d e3 c3 ba bc 6a 10 05 bc fe 9a ff bd
       0.070484824 -0.022798484 -0.008121589 -0.12480734
000340 de b3 08 be ea 7f 80 bd ac 69 20 be 2e bf 3c be
       -0.13349864 -0.06274398 -0.1566531 -0.18432304
000350 79 b7 09 be 99 30 a2 bd 5b 39 1e bc 07 bd 20 3c
       -0.13448896 -0.079194255 -0.009657229 0.009810693
000360 2e 35 d8 b9 71 96 34 bd 67 a6 86 bd 5e 2e ae 3d
       -0.00041238352 -0.044088785 -0.065747075 0.085049376
000370 4a 17 ba 3d 14 d7 f3 3d 5e e4 f0 3d c7 ee 13 3e
       0.09086473 0.11906257 0.117623076 0.14446555
000380 59 1d 01 3e ca 56 83 bd d5 73 32 bd 2b 59 40 bd
       0.12608851 -0.06413038 -0.043567497 -0.046960037
000390 a0 f8 aa 3c c3 15 ba 3c d2 6b 8f 3d 95 75 47 bd
       0.020870507 0.022715455 0.07002987 -0.04869612
0003a0 7c bb e1 bd e7 26 33 bd 95 01 cc 3d 68 cb 1a 3d
       -0.11022088 -0.043738272 0.09961239 0.03779164
0003b0 1a e9 c1 3d b7 d4 16 bc 36 59 5a bd 8b 4e ae bd
       0.09468289 -0.009205989 -0.053307734 -0.08511075
0003c0 9a b8 1f bd fe c3 8e bd 10 61 91 bd ed c1 12 3d
       -0.03899441 -0.06970976 -0.07098591 0.035829473
0003d0 35 45 4a 3d 6f 60 2f bd f8 ee 67 bd 71 a7 9b bd
       0.049382407 -0.042816576 -0.056624383 -0.07600296
0003e0 ac 02 04 bd f1 79 13 be 20 90 1a be 39 38 0a be
       -0.03222911 -0.14401986 -0.15094042 -0.1349801
0003f0 4d 41 03 bd 7f 1f 33 bd d0 c4 52 bc 55 21 da bd
       -0.032044698 -0.04373121 -0.012864307 -0.10650889

bias f4 [64]
000000 72 e8 92 bd 6b f8 13 3d e1 6d 8a bd ce be 96 3c
       -0.07173242 0.03612558 -0.06759239 0.01840153
000010 85 5b 45 3d a7 48 d0 bc fd ea 20 bd 54 bc b7 3c
       0.048182983 -0.025425268 -0.039286602 0.022428669
000020 84 2a 20 bd 00 00 49 bd b4 e6 0a bd cd 45 1c bc
       -0.039103046 -0.049072266 -0.033911422 -0.009538126
000030 d9 98 14 3c 8d 77 00 bd 5c 44 da bc 59 c1 31 bd
       0.009069645 -0.031364013 -0.026643924 -0.04339728
000040 86 f4 d4 bc 74 40 01 bd 5a 91 23 3d 95 09 25 3d
       -0.025995504 -0.031555608 0.03993354 0.04029234
000050 41 7e 96 bd a6 2c 1f bd b4 c9 33 bd f1 6b 02 bd
       -0.073483 -0.03886094 -0.04389353 -0.031841222
000060 8a 2a 7b 3d 45 df 03 bd 41 23 17 bd dd d2 93 3b
       0.061319865 -0.03219535 -0.036898855 0.004511221
000070 19 3e 01 bc 65 9d d7 bc 48 68 67 3b 5f ac fc 3b
       -0.00788834 -0.026320169 0.003530996 0.007710978
000080 06 53 7b bd e5 e5 29 3d 02 2e c6 bc 73 ec 9f 39
       -0.061358474 0.04147901 -0.02419186 0.00030503012
000090 0a 4d 08 bd 52 fa 0a bc 3a 00 3f bc b3 37 85 bc
       -0.033276595 -0.008482533 -0.011657769 -0.016261911
0000a0 74 db 6a bd 6f c5 cd bc 5f fa 38 bd 42 d8 5e bd
       -0.057338193 -0.025118558 -0.045160647 -0.05440546
0000b0 b3 95 4d 3d 18 0b 6c bd e9 fc 6b bd 15 63 25 3d
       0.050191592 -0.057627767 -0.05761424 0.040377695
0000c0 53 55 d0 3c 7b bb 17 3c 1a af be 3c ad c4 df 3c
       0.02543131 0.009261007 0.023276854 0.027315462
0000d0 ec a2 05 bd 11 ff 9c 3d f1 55 6e 3d 03 ae 82 3c
       -0.032626078 0.076658376 0.05818743 0.015952116
0000e0 ee 44 2b 3d 72 bc 2a bc 7b 7e c8 bb 3d 32 5a bb
       0.041813783 -0.010420905 -0.0061185933 -0.0033294105
0000f0 2d a4 39 bd 65 0f b6 bd 4a 46 50 bc 33 46 ef bc
       -0.045322586 -0.08889655 -0.012712071 -0.029208278

weight f4 [64, 64, 3]
000000 f4 8a 96 3c e8 5b ea bc 36 b9 f7 bc a5 bc 22 3d
       0.018376805 -0.028608277 -0.030239683 0.039730687
000010 84 51 9d bc bb 71 b5 bd 05 00 3c 3c ca 27 eb 3c
       -0.019203909 -0.08859583 0.011474614 0.028705496
000020 5b 90 68 b9 74 6f b2 bc c5 4a 1d 3d b1 88 2c 3d
       -0.00022179021 -0.02178166 0.038401384 0.042122547
000030 1d 8a 44 3c 9a de a8 bc 3b d0 34 bb bb f7 72 3d
       0.011995819 -0.020613957 -0.0027589935 0.059318285
000040 3b 35 be 3c 64 70 78 3c 0c 9c 60 3d a1 5d 2f 3d
       0.023218742 0.015163515 0.054836318 0.0428139
000050 dd 2e 16 be d3 c1 45 bc 1b 55 92 3d 78 d3 1c 3d
       -0.14666314 -0.012070137 0.07145139 0.03828761
000060 d2 8d 01 bc d8 9f 2b 3d 8d 35 b2 3c 76 85 12 bc
       -0.007907348 0.041900486 0.02175405 -0.008942952
000070 83 fb 71 3d da d0 8c 3d 89 58 8b 3c 1a 8d 13 3d
       0.05907775 0.06875773 0.01700999 0.036023237
000080 81 de 85 bd 3c 91 ae bc c9 4d b3 bc 12 42 f3 bc
       -0.0653658 -0.021309488 -0.021887677 -0.02969459
000090 c3 5e d0 3b 5c 40 16 bd 39 1d 0e bc 42 65 5f bd
       0.0063589527 -0.03668247 -0.008673959 -0.054539926
0000a0 d0 8f 58 bd 6b 37 77 bd e0 06 23 3c fb 32 05 bc
       -0.052871525 -0.060355585 0.00995037 -0.0081298305
0000b0 9e d3 9a bc 0c 4f c3 bb 03 cc 68 bc e7 dd cc 3c
       -0.018899735 -0.005960351 -0.014208796 0.025008155
0000c0 56 28 b6 3b 0c fd 0e 3c 07 9b 83 3d 2d 1a a0 3c
       0.0055590076 0.008727323 0.064260535 0.019543732
0000d0 3d 46 84 bc 7d f1 86 bd c4 05 82 3d e7 76 17 3d
       -0.016146773 -0.06589029 0.06348756 0.03697863
0000e0 54 61 13 bd 74 d7 45 3b fb 0f 84 3c 01 a8 23 3d
       -0.03598149 0.0030188235 0.016120901 0.039955143
0000f0 29 9a 0b 3d 76 04 77 bc c5 98 9e 3d 07 33 ae 3c
       0.034082565 -0.015076747 0.07743982 0.021264566
000100 61 51 82 3d aa 59 13 3d 09 d5 e6 bc 56 80 1c bd
       0.06363178 0.035974182 -0.028177755 -0.03820833
000110 d7 b6 cc 3c 50 e3 22 bd 41 c4 d5 3c 59 a0 ea bc
       0.024989529 -0.039767563 0.026094558 -0.028640913
000120 e8 a5 41 3c 81 af 89 bd b4 ce 0b be d6 98 db bb
       0.01181934 -0.06722928 -0.1365307 -0.006701569
000130 67 2f 91 bb ee fb 27 bd 08 05 3e 3c 0f 36 6e bc
       -0.0044306996 -0.041011743 0.011597879 -0.014539256
000140 dd b2 39 3d ef fe 03 3d b3 6d b5 3c 85 d1 df bb
       0.045336593 0.032225545 0.022147035 -0.0068303966
000150 58 93 5f bd 0a f1 87 3c c9 09 19 3d 34 bc 00 3d
       -0.054583877 0.016594429 0.037362847 0.031429484
000160 49 97 eb 3b ce d3 52 3c 94 e6 3f bd f3 f5 b2 bc
       0.0071896655 0.012867881 -0.046850756 -0.021845793
000170 dd d5 41 3d 8e 32 47 bd 51 d0 8d bc fb 31 64 bb
       0.047323097 -0.048632197 -0.017311247 -0.003481983
000180 f6 44 82 3b de 41 f6 3b 5f 7e 59 3d c1 68 91 bc
       0.003975506 0.007515176 0.053099032 -0.017750146
000190 a3 7e 3d 3d 19 3e 91 bc 16 72 aa bc ce 22 b3 3c
       0.04626335 -0.017729806 -0.020806354 0.021867182
0001a0 43 d3 38 3c a3 bc f0 3b ef 0c 27 bd 1e 4c a3 bc
       0.0112808375 0.007346706 -0.04078382 -0.019933756
0001b0 75 71 6a 3c 6e ef 6c bc 52 7e 6e bd 1e 05 06 bd
       0.014309277 -0.014461381 -0.058225937 -0.032719724
0001c0 e1 5a d0 bc ae 8f 1b bd ad 88 7f 3d 19 5f d7 bb
       -0.02543396 -0.03797882 0.062386204 -0.006572616
0001d0 37 7b 34 3c 13 80 00 bc f1 eb df bc 75 d3 7c bd
       0.011015705 -0.007843035 -0.027334185 -0.0617251
0001e0 3e 08 5c bd df f2 6a bd d2 12 46 3d 31 a6 33 3d
       -0.053718798 -0.057360526 0.048357792 0.043859664
0001f0 1a a7 58 bd 67 c8 43 bd dd 0b 6f 3c 4d 88 a4 3c
       -0.052893735 -0.04779854 0.014590231 0.020084525
000200 5c bd 72 3d e2 35 ae 3b 38 2f 79 3b d4 b5 68 bd
       0.05926262 0.005316482 0.003802253 -0.05681403
000210 99 c0 4c bd 44 cd 8b bd 31 9e 95 bc 8f 7e 30 bd
       -0.049988363 -0.06826261 -0.018263908 -0.043089446
000220 b4 3a 89 bc f8 ed 72 bd e5 fb 46 3d 0a 00 2e bd
       -0.016751625 -0.059308976 0.04858007 -0.042480506
000230 49 fb f1 3c 41 59 91 3c 40 e9 fb bc 76 97 3f bc
       0.029538767 0.017742755 -0.03075087 -0.011693826
000240 a7 7a d4 38 79 01 20 3d 14 b1 82 bd 5d c7 8e 3d
       0.000101317935 0.039063904 -0.06381431 0.06971619
000250 5e e9 3e bc 12 12 97 3d 8e de 5a 3d e3 e8 07 3d
       -0.011652319 0.073764935 0.0534349 0.033181082
000260 3f 30 29 3c 5f 7d 44 bd db 99 62 bb ce 72 37 3c
       0.010326444 -0.047971126 -0.0034576568 0.011196805
000270 4c b2 44 3d 80 61 d4 bc 53 70 17 3d 49 02 14 bd
       0.0480216 -0.025925398 0.036972355 -0.03613499
000280 0d 21 98 bc b5 e4 73 bc 1a 7d 1b 3d 33 64 80 bb
       -0.018570447 -0.014886071 0.037961103 -0.0039181947
000290 85 75 81 bd f5 5f e5 bc 75 3d b2 bc e0 9d 8c bd
       -0.06321243 -0.027999857 -0.02175782 -0.0686605
0002a0 0c 36 b0 bd de 9f 96 bd 11 e9 f5 3c 5f e7 29 3d
       -0.086040586 -0.07354711 0.030018361 0.04148042
0002b0 06 b8 c7 3c 16 6c 15 3d 18 6e 59 3c 01 1f a0 3d
       0.024379741 0.036480032 0.013270877 0.078184135
0002c0 77 02 f2 bb 98 fa 8d bd 6a 13 03 bd f3 a1 33 bd
       -0.0073855477 -0.069325626 -0.032000937 -0.04385562
0002d0 55 94 e3 3c 14 9a 9a 3c f7 0f a0 bd cd 0e 33 3d
       0.027780691 0.018872298 -0.07815545 0.043715287
0002e0 a2 e0 8e 3c 6f 33 fc bb 5e f6 c4 bc 10 ee 63 3c
       0.017441098 -0.007696561 -0.024043258 0.013911739
0002f0 e4 3d 5d bd 1f 30 65 bd 26 bd 1f 3d b2 f7 ca 3c
       -0.0540141 -0.055954095 0.038998745 0.024776313
000300 aa 42 a0 3c 69 87 84 bc a7 0c 8e 3c 79 f4 f7 3c
       0.019563038 -0.01617785 0.017340017 0.03026794
000310 26 a4 3c 3c 0d c3 72 ba 22 1e 3d 3d f3 95 1b 3d
       0.011513745 -0.0009260632 0.046171315 0.0379848
000320 c6 26 9d 3c a5 8d 8a 3d 6f e7 11 3d 5a 7c 39 3d
       0.019183528 0.06765298 0.035621103 0.045284607
000330 71 c5 43 3d 8c 8d 47 3d 28 39 e0 3c 81 e2 15 3d
       0.047795717 0.048718974 0.027371004 0.036592964
000340 9d 08 11 ba d1 58 d6 bc 13 1d f3 3c 5a 30 88 bd
       -0.00055325945 -0.026165398 0.02967695 -0.06649847
000350 47 5c b1 bd 0d fb cd 3c ee 8b 89 3c 06 ea 13 3c
       -0.08660179 0.025144124 0.016790356 0.0090279635
000360 f4 8f 2e 3c 41 cf e9 bb 06 76 1b bc b8 51 9d bc
       0.010654438 -0.0071353023 -0.009488588 -0.019204006
000370 5f 36 49 bd ec e5 f7 3c 4b ab 9a 3d cb dd 39 3d
       -0.049124118 0.030261002 0.07552203 0.045377534
000380 aa 39 58 bd ba a8 5b 3d b2 ff 36 3b d8 64 35 3a
       -0.052789368 0.053627707 0.0027923402 0.0006919629
000390 7a e3 3c 3a 8d 11 04 bd 58 28 86 39 49 5a 9e 3d
       0.00072055275 -0.0322433 0.0002558853 0.07732064
0003a0 c2 9d 9c 3d ca fc e5 3d ee e4 34 3b 94 6f 6c 3d
       0.076472774 0.11229856 0.0027602273 0.057723597
0003b0 85 a4 52 3b 8a 4b a1 bb 0a fa 76 bd 77 92 05 bd
       0.0032141518 -0.004922335 -0.06029705 -0.032610383
0003c0 a9 b7 d4 bb 51 9d cc 3b 55 5e 3c 3d fc a4 99 bc
       -0.0064916206 0.0062443395 0.0459884 -0.018755428
0003d0 1a 13 25 bd a7 16 6d 3d 39 46 89 3d 53 ad 39 3d
       -0.04030142 0.05788293 0.06702847 0.04533131
0003e0 83 ae 65 3c e1 97 92 3c 6b 0e b2 3d 80 27 83 3d
       0.014018658 0.017894687 0.08694156 0.064040184
0003f0 92 d1 57 bc 6f 4e af bc b8 4f 16 3d 9c 38 42 bd
       -0.013172524 -0.021399705 0.03669712 -0.04741727

bias f4 [64]
000000 3a bc a8 bd c2 23 92 3d 72 03 16 3c 04 cc 81 bd
       -0.08239026 0.071357265 0.009156095 -0.06337741
000010 3a 53 f9 bc 9c 89 f4 3c 27 28 81 3b 9d f2 a3 bc
       -0.030435193 0.029850774 0.003941554 -0.020013148
000020 b3 c5 6d bd 7e 7b e0 bc 21 2f a0 3b 46 8f 42 bd
       -0.05804987 -0.027402636 0.0048884307 -0.047499917
000030 04 91 8c 3d 86 c9 33 bd 77 aa 8a bd 44 0f 08 be
       0.06863597 -0.04389336 -0.06770795 -0.13287073
000040 05 65 cc bd 4d 6c c2 3c de 64 89 bc a3 a4 85 bd
       -0.099802054 0.023733282 -0.01677173 -0.065255426
000050 a1 f1 5d bd 07 22 e0 3b a7 08 4e b9 ea 41 38 bd
       -0.054185513 0.006839994 -0.00019648914 -0.044984736
000060 bb b4 0c 3c ea f7 87 bd 9f 60 34 3d ec ac bb 3d
       0.008588011 -0.06639083 0.044037458 0.091638416
000070 ed 06 dc 3c 74 36 07 bd f0 e3 e4 bc 34 0e 88 bd
       0.026858771 -0.033010915 -0.02794072 -0.06643334
000080 34 ed 1c bd 63 a3 c7 bc 19 e2 3c bc 6c 77 85 3d
       -0.038312152 -0.024369901 -0.011528515 0.065169185
000090 6a 06 8c 3d 49 ca b3 bd 10 ec 91 3d 52 3a a7 bc
       0.06837161 -0.08778817 0.071251035 -0.020413551
0000a0 41 6e 55 bd 52 9f 8f bd 36 ef 02 bd ee df 31 ba
       -0.0521071 -0.0701281 -0.03196641 -0.0006785382
0000b0 88 1b 72 3c bb 56 44 bd 75 70 89 3c a6 f7 9d bc
       0.014777072 -0.047934275 0.016777257 -0.019283127
0000c0 70 98 77 bd 29 72 d8 3c 38 ec b8 bd 55 7a 6c bd
       -0.06044811 0.026421623 -0.0902943 -0.057733852
0000d0 a0 51 a7 bd 41 f5 5a bd e0 05 d4 3c 8d 79 ad bd
       -0.081698656 -0.05345655 0.025881708 -0.084704496
0000e0 5d bc 35 3d 4c d2 c1 3a 11 cc 46 bd 7d ad 6e 3d
       0.04436909 0.0014787405 -0.048534457 0.05827092
0000f0 8e 7d 13 bd dd 1e 94 bb e2 37 d3 3c 9d 5f 1f bd
       -0.03600841 -0.0045202808 0.025783483 -0.038909543

weight f4 [64, 64, 3]
000000 44 b2 c2 3c 38 43 19 3d a0 b5 0b bd 43 b7 0f bd
       0.023766644 0.03741762 -0.034108758 -0.03508688
000010 ea 31 5c 3d 06 6a 63 bd aa c0 72 3c 44 2c 63 bd
       0.05375854 -0.055521034 0.0148164425 -0.055462137
000020 2a 79 f2 bc 62 08 a7 3c 2a d2 43 bc b2 04 da bc
       -0.029598791 0.02038974 -0.0119519625 -0.026613567
000030 99 a6 a4 bc 68 0a b0 bc 99 53 7c bd 2d c6 6c bc
       -0.020098971 -0.021489337 -0.061603162 -0.014451546
000040 2a a4 68 3c 02 fb 00 bd d3 77 8f bd 5d 70 85 3d
       0.014199296 -0.03148938 -0.070052765 0.06515572
000050 f7 c0 2d 3d 94 d4 a9 bd 47 b3 d3 bd 5c fb c7 bc
       0.042420354 -0.08292499 -0.10336929 -0.02441185
000060 d5 06 97 bd c3 ae 59 bc 7b f3 ea bc 80 ba 57 bd
       -0.0737435 -0.013286295 -0.028680554 -0.052668095
000070 53 81 9e bc b2 db 52 bc 3b c0 b2 bb 3a 7f df bd
       -0.019348776 -0.012869762 -0.0054550446 -0.109129384
000080 b2 1c dd bb 13 72 e9 bc ca b1 89 bd 4f b4 ee bc
       -0.0067478055 -0.028496778 -0.06723364 -0.029138712
000090 c9 45 e7 bc 74 65 b8 bc 87 49 a8 bc cd 5e a3 bc
       -0.028231518 -0.022509314 -0.020542873 -0.019942665
0000a0 d5 73 33 3b b4 ee 2f bd 88 35 12 bd 5f 14 2e bd
       0.0027382274 -0.042952254 -0.035695583 -0.042499896
0000b0 a0 77 76 bc 71 fa af 3d d0 3f 81 bc ad 00 6e 3d
       -0.015043169 0.0859269 -0.015777498 0.058106113
0000c0 10 0d 90 3c df ba 45 3d 1c e9 ea bc d6 48 2c 3d
       0.017584354 0.048273917 -0.028675608 0.04206165
0000d0 b5 12 39 bd 46 81 1e 3d e5 cd 18 bd 5f dd ea 3b
       -0.045183856 0.038697504 -0.03730573 0.007167503
0000e0 0c fa 6a 3d 5f 64 6e bd 84 38 36 bd d1 66 92 bc
       0.05736737 -0.05820119 -0.04448749 -0.017871292
0000f0 54 16 01 bb 65 a8 dd bb 70 ff a6 bb d9 a1 f3 bc
       -0.0019697146 -0.006764459 -0.0050963685 -0.02974026
000100 aa d0 51 3d f5 95 d9 bb 8a 6b 92 bd 9e 44 6a bc
       0.05122439 -0.0066401907 -0.07149418 -0.014298586
000110 87 34 95 bd a9 a9 4d bd 32 d5 a0 bd 2b 23 25 bd
       -0.072854094 -0.05021063 -0.07853164 -0.040316742
000120 f4 33 74 bd 82 b2 8c bc 98 c9 69 3d 94 4d 0c 3c
       -0.05961986 -0.017174963 0.05707702 0.008563418
000130 42 b7 21 3d ec ac 7d 3d 4b 6c 7b bc d8 ed 9c bd
       0.03948141 0.06193249 -0.015345643 -0.076625526
000140 c8 f0 11 bd f7 8a 70 3c e6 25 82 bd 90 2c 6a bd
       -0.035630018 0.014681569 -0.06354885 -0.057171404
000150 a2 f9 4c bd da 83 2a 3d d3 3b 86 bc 2d 46 8d bd
       -0.050042756 0.04162965 -0.016385948 -0.068981506
000160 c7 e9 cc bd 6e 7b 02 bd 81 89 43 bc 3b 78 6f 3d
       -0.10005527 -0.031855993 -0.011934639 0.05846427
000170 91 8e 3d bd 51 ac 96 bc cb 29 0b bc 12 8d c5 3c
       -0.04627854 -0.018392714 -0.008493851 0.02411512
000180 8d 9a 4b bd 56 bd 44 3c e0 a2 10 3d 9c 57 2a bc
       -0.049707938 0.012008032 0.03531158 -0.010396864
000190 53 ad bb bd af 63 42 3c 09 08 20 bc c4 07 c3 3c
       -0.09163918 0.011864587 -0.009767541 0.023807414
0001a0 47 5d 14 3d 6c 18 e5 3c 47 46 73 3c 74 07 ce bc
       0.03622177 0.027965747 0.014848298 -0.025150038
0001b0 e4 e7 9e bd 88 42 03 bd c8 f4 16 3d d6 73 60 bd
       -0.077590734 -0.03204587 0.036854535 -0.05479797
0001c0 a5 ec f6 bc 9e bc d3 bd 86 02 55 3d 6a 59 19 3d
       -0.030142138 -0.1033871 0.05200436 0.037438788
0001d0 b2 52 60 3d f0 88 15 bd 13 63 a7 bd b3 55 29 bd
       0.054766364 -0.036507547 -0.08173194 -0.041341495
0001e0 f2 13 68 3d 58 4f 71 bc 56 cc 19 bd d8 54 91 bd
       0.056659646 -0.01472839 -0.037548386 -0.07096261
0001f0 01 a0 5c bd 03 d6 11 3d c5 9c 96 bb af cb 1e bd
       -0.05386353 0.035604488 -0.004596325 -0.038768467
000200 e6 89 2e bd 4d e9 8d bd 8d d2 c7 bb 6a b7 f4 3c
       -0.04261198 -0.06929264 -0.0060980977 0.029872615
000210 6b cd 48 bd a2 43 bd bd d8 4c eb 3c 91 0e d7 3b
       -0.049024027 -0.092414156 0.028723165 0.0065630157
000220 3d 80 84 bc 1f a1 7b bc a9 87 34 bd 24 2e 97 bd
       -0.01617443 -0.0153582385 -0.044074688 -0.073818475
000230 9d 23 e4 bc e8 5b d7 3c 40 63 8a bc 4e 6f da bb
       -0.027849013 0.026288942 -0.01689303 -0.0066661006
000240 ab e8 b3 bd fb f5 11 3d 71 55 0a be c3 b2 b6 3c
       -0.08784612 0.035634976 -0.13509156 0.022302037
000250 fc de 90 bd 94 67 1e bc 29 7f 95 bc ed 17 1b 3d
       -0.07073781 -0.00966825 -0.018249111 0.037864614
000260 4e c6 d4 3c 08 6c 76 3d 78 03 78 3d e1 e6 f5 3c
       0.025973465 0.06016162 0.060550183 0.030017318
000270 02 c1 4f bd e4 e2 0e 3d aa f2 c5 3c c2 eb 38 3c
       -0.050721176 0.03488435 0.024163563 0.011286678
000280 4f 84 f5 3b 9d 23 e1 bc 08 32 00 3d b0 93 a6 3c
       0.007492579 -0.027482802 0.031297714 0.020334095
000290 c3 21 f7 bc 95 86 ce bc 68 be 50 3b ad 8b e9 3b
       -0.030167466 -0.025210658 0.0031851772 0.0071272464
0002a0 c3 19 37 bc 54 82 e8 bc a3 5b d1 bc d6 38 72 bd
       -0.011175576 -0.028382458 -0.025556391 -0.059136234
0002b0 2a fb c7 3b 65 f2 29 bc 22 8e 49 bd 44 e8 0a bc
       0.006102939 -0.010372733 -0.049207814 -0.008478228
0002c0 f2 61 4d bd 9b 50 28 bd e4 82 b1 b6 ff 69 51 3d
       -0.050142236 -0.041092496 -5.2902487e-06 0.051126476
0002d0 c9 46 2e bd 0e 0c aa 3c b3 4e 77 bc 9e 68 ed bc
       -0.042547975 0.020757701 -0.015094447 -0.02898055
0002e0 15 e9 c0 bc 54 a1 fa 3c 2f 22 6b bd 22 fd 95 bd
       -0.023548642 0.030594505 -0.057405647 -0.07323672
0002f0 a0 15 c1 bc 87 18 26 bd c3 75 1f bd 81 96 3c 3d
       -0.023569882 -0.040550735 -0.038930666 0.04604197
000300 20 e3 46 bd 1b 03 92 3d 87 54 07 bd ac c6 af 3b
       -0.048556447 0.071294986 -0.033039596 0.0053642597
000310 13 70 bf bc a2 c7 1d bd 76 b3 2c 3d 53 a2 05 3d
       -0.02336887 -0.038520463 0.042163335 0.032625508
000320 a3 9a d3 bc ab 9e bc 3c d5 32 39 bb cb 0a 7e 3d
       -0.025830572 0.023024878 -0.0028259058 0.06202201
000330 c3 ae 55 bd eb 5e 4d bd 42 de 69 3d 5c 55 be bc
       -0.05216862 -0.05013935 0.057096727 -0.023234062
000340 53 2a 2d bd 89 03 77 3c 54 23 d2 bc 5f b4 83 3d
       -0.04227669 0.015076526 -0.025651611 0.064308874
000350 8c ed 18 bd 53 90 84 bd e3 4d 2f bd c6 6c 61 3c
       -0.037335917 -0.0647284 -0.042798888 0.013758844
000360 b9 db 57 3d ad c7 02 3d 44 86 7e bc 3e f7 3c be
       0.05269978 0.031928707 -0.015534941 -0.1845369
000370 03 ae bf bb 04 e9 c7 bb 9d 56 01 3b bd 7c 92 3d
       -0.0058496012 -0.0061007757 0.0019735463 0.07152698
000380 6a 4c 14 3d 0d 87 42 bd e7 a5 9e 3d 2e 30 4f bb
       0.036205687 -0.047492076 0.07746487 -0.003161441
000390 00 21 6f bd ce a9 84 bc ad 6a b4 bd f4 bd 8e bd
       -0.05838108 -0.01619425 -0.08809409 -0.069698244
0003a0 dd 7e 4c bc bd aa d7 bc 6b f3 5d 3d 7d 4e 41 bd
       -0.012481418 -0.026326532 0.05418722 -0.047193993
0003b0 8b 84 0a bd 32 3a 63 3c 0f 0b 9c bc b2 8b 52 bd
       -0.03381781 0.013868855 -0.019048242 -0.051402755
0003c0 dd 32 81 bd c9 39 a6 bc 58 13 8b bd 9a 60 61 bc
       -0.063085295 -0.020291226 -0.06790799 -0.013755942
0003d0 79 31 2f 3d 07 f6 ea bc 00 96 86 3d d7 7d 03 3b
       0.04277179 -0.028681768 0.06571579 0.002006402
0003e0 1e 05 b3 3b 54 22 50 3c cb 07 f2 bc 6c f0 44 3d
       0.0054632565 0.012703497 -0.029544732 0.048080847
0003f0 ad 97 5b bd 9e 59 84 3c 68 89 27 bd 40 d5 00 3d
       -0.053611446 0.016156014 -0.040902525 0.03145337

bias f4 [64]
000000 07 64 1f 3c 94 89 fd bb fc fb 9e bd ca 2f ee bc
       0.009728438 -0.007737348 -0.07762906 -0.029075522
000010 4f 40 49 bd 21 aa 80 bd b5 9c 1d 3d 45 e2 61 bd
       -0.049133595 -0.062824495 0.038479526 -0.055147428
000020 88 a6 b0 3c 5e 23 bf bb 4d 3a 9a bd 57 23 8d bd
       0.021563783 -0.0058330735 -0.07530651 -0.06891506
000030 9b c2 3c bd 0d 94 17 bd 8a c5 47 3d 2d a5 69 3d
       -0.046084028 -0.037006427 0.048772372 0.05704229
000040 bc bc 9b bd e5 00 95 bd e6 9d 3a 3c c3 86 a7 bc
       -0.076043576 -0.07275561 0.011390185 -0.020450002
000050 04 f5 ca bd 2a 19 a4 bc 2c c4 8c bd 24 63 fe bc
       -0.09910014 -0.02003153 -0.06873354 -0.031053133
000060 52 1d d4 bc b8 b4 44 3c 20 73 19 bd 83 e9 18 3d
       -0.025892887 0.012005977 -0.037463307 0.03733207
000070 5a d6 25 bd 6a bc 4a bc d3 c1 b5 bc 70 b7 82 3c
       -0.040487625 -0.012374023 -0.02218715 0.01595661
000080 ff 40 0d 3c c0 79 ce 3b 1a 3b 05 3b e5 85 00 bd
       0.008621453 0.006301135 0.0020329417 -0.03137769
000090 a6 06 2b bd f9 cd 17 3d 93 55 5f 3d a1 ad 8b 3a
       -0.041754387 0.037061665 0.05452497 0.0010656604
0000a0 55 a3 24 bc d6 7a 69 bb 50 1f 4f bd 2c dc 5f b9
       -0.010048707 -0.0035626194 -0.05056697 -0.00021348958
0000b0 85 60 8e 3b 23 f3 56 bb 75 e9 c3 bd db 2a 05 3d
       0.004345002 -0.003279873 -0.09566013 0.032511573
0000c0 e2 56 89 bc ad 3b ce bc 84 e8 d6 bc af 73 a3 3c
       -0.016765062 -0.02517494 -0.026233919 0.019952623
0000d0 0f 19 96 bc 59 78 b2 bc 5c 12 77 bd ed fa 27 bd
       -0.018322496 -0.021785902 -0.060320243 -0.041010786
0000e0 97 17 4a bc 82 20 08 bd 82 84 5c bd aa bb 8a 3b
       -0.012334726 -0.033234127 -0.053837307 0.004233797
0000f0 be 67 72 bd 84 86 ea 3b ff fc 72 bd 36 3d 97 3c
       -0.059180968 0.007157149 -0.059323307 0.018461805

weight f4 [64, 64, 3]
000000 6b fe df 3c 0f dd d5 3b a9 19 37 3d 3a 2f 92 bd
       0.027342996 0.0065265964 0.044702206 -0.07137914
000010 40 b7 a4 bc 55 9f 0c bd 4a 6f 41 3d 8c 94 99 bd
       -0.020106912 -0.03433164 0.047225274 -0.07499036
000020 16 30 53 bd 0d 36 8a bd 85 a4 9e 3b c6 6f 67 bd
       -0.05155953 -0.067485906 0.0048413896 -0.05650308
000030 14 41 8b bd 12 84 a5 bd 00 be 42 3d 80 f0 26 bb
       -0.06799522 -0.08081831 0.04754448 -0.002547294
000040 f5 98 00 3d 24 59 20 3d 54 5a 05 bd 6c 20 21 bd
       0.03139587 0.03914751 -0.032556847 -0.03933756
000050 85 cf 69 3b 10 a8 21 3c 75 d9 a5 bd 63 cd 37 bb
       0.003567667 0.009866729 -0.08098117 -0.0028046004
000060 f6 93 3d 3d a8 7e 7c bd 56 60 54 bd b1 8f e6 3d
       0.046283685 -0.061644226 -0.051849686 0.11257876
000070 3b 2e 07 3d 3e 92 ba 3c bd 5f 23 bd 4e 28 8d bb
       0.033003073 0.022774812 -0.039886225 -0.004307783
000080 41 d3 32 3c e6 ae d9 3c 92 ae 40 3d 09 63 e7 3c
       0.010914625 0.026572656 0.047041483 0.028245466
000090 97 32 2f 3e 71 99 80 bd 0e 45 86 bd b3 09 f7 3b
       0.17109142 -0.062792666 -0.0655614 0.007538998
0000a0 23 50 21 bd f9 51 15 bd 55 56 af bd 54 aa 5f 3b
       -0.039383065 -0.03645513 -0.085613884 0.0034128623
0000b0 f0 6d 02 bd e5 fd 3d 3c 93 c9 fe bc fd 05 34 3c
       -0.031843126 0.011596178 -0.031101977 0.010987756
0000c0 41 f7 20 3d 54 a7 98 bc 40 c3 70 bc 53 b8 0b 3c
       0.0392983 -0.018634476 -0.014694989 0.008527833
0000d0 3e d8 0c bd a8 63 18 3d 7d 40 e1 3c 7d 8f 35 bd
       -0.034385912 0.037204415 0.02749657 -0.044326294
0000e0 db a4 b1 bb 73 aa d8 3c 79 4d 2f 3c 58 c8 0b bd
       -0.0054212636 0.026448464 0.010699623 -0.03412661
0000f0 3d 3e 21 bd eb 91 92 bd 89 78 f3 3a 0d 12 3d 3c
       -0.039365996 -0.07156738 0.0018575351 0.011539948
000100 c9 b6 c0 bc 43 40 46 3d f7 bd 25 bd 74 ac 97 3c
       -0.023524659 0.04840113 -0.040464368 0.01851485
000110 04 31 df 3b 4f c0 b6 3d ff af 12 3d 45 23 75 3d
       0.006811263 0.08923399 0.035812374 0.05984809
000120 9b 49 8a bc 64 64 49 bd 6b b8 13 bd 29 8c ed 3c
       -0.016880801 -0.049168006 -0.036064547 0.028997498
000130 f6 3a 84 bd 3b 6d 1d bb e6 5f 4b 3d 26 02 03 bc
       -0.064565584 -0.0024021405 0.049652003 -0.007996118
000140 d9 33 8d 3a fc ee 2a bd 77 e5 2c bd 14 96 cd 3b
       0.0010772898 -0.04173182 -0.042211022 0.006273994
000150 ba 1a e3 bd 98 35 6a 3d b9 7e 89 3c 83 6d 1c 3d
       -0.11089082 0.057180017 0.016784059 0.038190376
000160 17 10 d7 3c 33 c2 4f 3c 17 57 97 bc 83 b8 11 3d
       0.02625279 0.012680578 -0.018474145 0.035576355
000170 d1 f4 a5 bd fa f8 f4 3c 41 ce 86 3d 01 b3 81 bd
       -0.08103336 0.029903878 0.065823086 -0.063329704
000180 dc 6e bc 3c 73 42 78 3d 1d eb 79 3d 1f 67 ca 3d
       0.02300208 0.060610246 0.061015237 0.0988295
000190 99 eb a5 bd 45 4b 60 bd ca de 9d bd 8e 59 52 3c
       -0.08101577 -0.054759283 -0.07708509 0.012838734
0001a0 78 d6 f5 bc 72 48 e0 bc d0 f1 1a bd 26 4e 94 bb
       -0.030009493 -0.027378295 -0.037828267 -0.0045259176
0001b0 e3 17 89 bd 2b d0 a2 bc aa a1 61 bc 38 bc e0 3c
       -0.06694009 -0.019874653 -0.013771454 0.0274335
0001c0 30 7a b1 bd c2 43 e6 bd 63 44 16 bd 38 97 5f bd
       -0.086658835 -0.112433925 -0.036686312 -0.054587573
0001d0 59 ba 30 bd 29 dc a5 3d bc 6a c5 bb 6e 10 c5 bc
       -0.043146465 0.08098633 -0.0060246866 -0.024055686
0001e0 d5 12 9a 3b 26 60 e8 bc 92 d5 b1 3b 71 65 a8 bb
       0.004701952 -0.02836616 0.005427071 -0.005139046
0001f0 de fd d3 3b 36 99 d0 bc a9 31 25 bd 68 46 96 bd
       0.0064694723 -0.025463682 -0.040330563 -0.07337648
000200 70 a2 33 bd 8c a8 41 bd 8a 6f 6b bb e7 6f 10 3c
       -0.043856084 -0.04727988 -0.0035924637 0.008815742
000210 b6 ab 08 3d 17 09 45 bd 12 f1 07 bd d3 32 57 bd
       0.03336688 -0.048104372 -0.033188887 -0.052538704
000220 1f 00 1a 3d 70 c1 08 3d c3 d7 09 3d e2 27 9a 3c
       0.03759777 0.0333876 0.033653032 0.018817846
000230 75 5b ff bc 71 a8 41 3d 0d fb 6c 3b 08 5b ee bd
       -0.03117154 0.04727978 0.003616038 -0.116384566
000240 ea fe 32 bd cb 5c 6b bd 7c 1c 92 bd 5a c2 07 3d
       -0.043700136 -0.05746154 -0.07134339 0.033144332
000250 0c 9d 09 bd c3 b5 0f bd 68 44 74 bd 9c 5e 53 3d
       -0.033597037 -0.03508545 -0.05963555 0.0516039
000260 0e 21 d0 3b ca 2c 90 bc 4f 22 cc bc 4e 4a d7 bc
       0.0063515967 -0.017599482 -0.024918703 -0.026280548
000270 b5 42 64 bc 0d d6 6e bd f4 3c 60 bb db e3 af 3c
       -0.01393192 -0.058309603 -0.0034216018 0.021470955
000280 8d 93 28 3d 30 10 a3 bc e0 05 85 bc 66 de 8b 3d
       0.04115634 -0.01990518 -0.016238153 0.068295285
000290 47 b1 00 bd 22 7d 8f 3d 02 af ae 3c a7 30 7e 3c
       -0.031419065 0.07006289 0.021323685 0.015514529
0002a0 73 76 6f bd b2 20 16 3e 2f c5 a7 3d 79 66 be 3c
       -0.05846257 0.1466091 0.08191907 0.023242222
0002b0 87 d6 8e bd c6 40 8f bd 3a e5 1b 3e 10 91 48 3d
       -0.069745116 -0.069947764 0.15224162 0.048966467
0002c0 92 fa 5d 3b 84 25 3a bc d2 b5 37 3c 47 7e 23 3d
       0.0033871275 -0.0113614835 0.011212783 0.03991535
0002d0 98 f0 ab bc 2c 3d 2b bc 7d 33 d5 3b 9d 9a d3 3c
       -0.020988747 -0.010451596 0.006506382 0.025830561
0002e0 16 33 6a 3a 79 c2 d6 bc 1b 5e 75 3b 13 04 fc bc
       0.0008934004 -0.026215779 0.0037440124 -0.030763661
0002f0 ab 37 66 bd a9 af 64 bc 84 49 41 3b 21 8a 8d 3d
       -0.056205433 -0.013957896 0.0029493282 0.069111116
000300 5e af c2 bc 82 61 d1 3c 7f d5 d2 3b 03 2e 21 3d
       -0.023765262 0.02555919 0.006434142 0.03935052
000310 50 63 ce bc 13 3b de bc 16 88 43 3d 96 84 16 3c
       -0.02519384 -0.027127778 0.047737204 0.009186884
000320 1a db ca 3c 9f 3a 91 bb c7 32 a2 3c 1c 2d 36 bc
       0.024762679 -0.004432037 0.019799603 -0.011119153
000330 65 79 e0 bc d6 37 4d bc ec 1d cd 3c 29 c0 aa bd
       -0.027401635 -0.012525519 0.025038682 -0.08337433
000340 55 5a c0 bc 0f 43 c6 bc c8 af 04 bb dd b8 72 3c
       -0.023480574 -0.024201898 -0.0020246375 0.014814583
000350 3a 2c d2 bc 83 da 14 bb 9f 7b 1a bd c3 8f 9e 3c
       -0.025655854 -0.002271325 -0.03771555 0.01935566
000360 68 8c 3b bd a2 d2 f6 bc fb ee f2 bc 9d 2f 3e 3d
       -0.0457882 -0.030129734 -0.02965497 0.046432126
000370 56 f2 23 bd 2f ad 52 bd 81 6d 30 3d 41 d7 46 3c
       -0.04002603 -0.051434692 0.04307318 0.0121362815
000380 9b 75 92 bc 37 00 7c 3d 9a fd 88 3d 7f 3d 8e 3d
       -0.017878344 0.061523642 0.06688996 0.06945323
000390 3c 6e 0b bd 37 e8 8d bd 26 82 cd 3b b1 52 ea ba
       -0.034040675 -0.06929057 0.0062716184 -0.0017877427
0003a0 c6 e3 df bc d7 bd 5c bd 7b d9 c3 bb a2 55 0c bc
       -0.02733029 -0.053891983 -0.0059768534 -0.008565338
0003b0 4a 63 35 3b 87 4b 45 3c ce 91 0c bb 06 36 3e bd
       0.002767759 0.012041933 -0.002144921 -0.04643824
0003c0 22 da a7 bd 33 17 07 bd 8b c3 fd bc cf 82 52 3d
       -0.081959024 -0.03298111 -0.030977031 0.05139428
0003d0 5c 52 70 3c 40 90 91 ba af 93 13 bb fe 47 bb bb
       0.0146680735 -0.0011105612 -0.0022518446 -0.0057153692
0003e0 4c 9e d2 bc 33 bf 15 bd 0f 77 61 bc 1e c7 65 bd
       -0.025710247 -0.036559295 -0.013761296 -0.056098096
0003f0 92 bf 5a 3d 00 17 08 3d 3c b9 4c bc 62 c2 5b bd
       0.053405352 0.03322506 -0.012495335 -0.053652175

bias f4 [64]
000000 cf 6b 6e bb 7e 15 12 3d 02 db b5 bd de 7c 31 bd
       -0.0036380177 0.035665028 -0.08879663 -0.043331973
000010 38 48 0f bd ea f8 c3 bc 3c 52 01 3d 90 78 63 bc
       -0.034980983 -0.023922402 0.031572565 -0.013883725
000020 0a 8a c4 3c 5c 76 97 bd a0 20 8f bd 6d f4 28 bd
       0.023991603 -0.07395622 -0.069886446 -0.041248728
000030 94 40 c1 bc 04 bf 0c bd f7 74 3c bd 20 3b aa 3c
       -0.023590364 -0.034361854 -0.046009984 0.020780146
000040 31 2e 3d 3c 88 fe 7c bd 13 d7 89 bc b9 e6 9c 3c
       0.011546657 -0.061766177 -0.016826188 0.019152986
000050 07 f6 45 bd ec 2c ae bb 05 68 0a bc cc 58 67 3c
       -0.048330333 -0.0053154137 -0.008447652 0.014120292
000060 ca 19 77 bc b6 68 26 3a b8 a4 9f 3a 3b 3e e8 3c
       -0.015081832 0.00063480006 0.0012179827 0.028349986
000070 c5 de 9b bd aa f7 e7 3c 4f b8 60 bd c4 69 a0 bb
       -0.07610849 0.028316338 -0.05486327 -0.0048954207
000080 98 ea da bd 2d f4 15 bd e8 ed 60 3d cc bb ad 3c
       -0.106892765 -0.036609817 0.054914385 0.021207713
000090 2a 7b a9 3c 39 1b ac bc e3 90 a6 bd 81 bf 8f 3c
       0.020688612 -0.021009075 -0.08133104 0.01754737
0000a0 bc f6 84 bd 56 fc bd bd 9d 71 93 bd 6a 9f aa bd
       -0.06492373 -0.09276645 -0.071994044 -0.08331187
0000b0 c5 84 92 39 90 1a ab bb db cf 13 bd 89 3d 15 bd
       0.0002794621 -0.0052216724 -0.0360869 -0.036435638
0000c0 f4 77 e5 bc d2 7f e2 3c e4 82 f0 bc ca a6 ce bc
       -0.0280113 0.02764884 -0.029359289 -0.025226016
0000d0 fa 30 5a bd 3e c8 1d 3b a3 bd 48 bd 67 5a 9b bd
       -0.053269364 0.0024075652 -0.049008977 -0.07585602
0000e0 e9 28 05 bc f0 e1 88 bd 3c a8 89 ba 23 c1 9d bb
       -0.0081274295 -0.06683719 -0.0010502408 -0.0048142835
0000f0 9e 00 d8 3a d0 4f 90 bd 48 15 a7 bd 11 63 9c bc
       0.0016479676 -0.07046473 -0.08158356 -0.019090207
